rubella_model.pth (torch, 20612 bytes, 5 tensors)

fc1.weight f4 [64, 3]
0.11803394 0.48636582 0.33101392 -0.2911275 0.26208723 0.33573973 0.07451512 0.34742045
0.28565264 0.2536894 0.57892674 0.45454907 -0.39450997 -0.19165875 -0.17510697 -0.5719128
-0.060862526 0.23432185 0.3430714 -0.15048297 -0.57289183 0.40560484 0.28753835 -0.2560645
-0.30657172 0.25467297 0.3078208 -0.33545816 -0.23139352 -0.21298087 0.017480485 0.18065976
-0.4173293 -0.3178193 -0.47760475 0.2733851 -0.5133533 0.14349513 0.37618715 -0.12734029
0.4752554 -0.28487396 0.4958818 0.45698673 -0.42365965 0.435982 -0.034541123 0.35032293
0.4851073 0.38071445 -0.11074629 0.044435833 0.1716446 -0.047970507 -0.20583884 -0.46681985
-0.4691132 0.024256308 0.48847628 -0.43821216 0.38435814 -0.31047243 -0.029557262 0.09644312
0.050796747 -0.29428324 -0.038199484 -0.29344425 -0.23273492 -0.40255314 0.54855764 -0.33015066
0.3453131 -0.5435647 0.50537103 -0.030668199 0.46023926 0.1555909 -0.29381007 0.05973786
-0.05584532 -0.21977457 0.5076812 0.1701665 -0.3578017 0.56560814 0.062242776 0.11752918
-0.0810053 -0.21830401 -0.11876825 -0.23211476 0.55177623 0.3623328 0.4529873 -0.23334117
-0.16992593 -0.035336733 -0.17910182 0.28599793 0.06696833 -0.47018087 0.10027903 0.09267831
-0.3266909 0.3206684 -0.33340976 -0.26067662 -0.42834973 0.23661461 -0.18322363 -0.5107698
-0.37992832 -0.23994607 0.25627798 -0.029671 -0.13591126 -0.5562626 0.55664146 -0.17870793
0.5345583 0.36495864 -0.050977465 0.20220631 0.2629388 -0.075220704 -0.44148296 -0.45237032
0.4124276 0.06625824 -0.2564909 -0.54808134 -0.31449524 -0.4301903 -0.12043303 -0.23324466
0.48564437 0.34500152 0.18407641 0.40941504 0.49381718 -0.27927998 0.1545505 -0.51498854
0.52549535 0.109846026 -0.3501398 0.31092098 -0.2978476 -0.23292603 -0.17730603 0.21011549
0.37008077 -0.48121685 0.19397801 0.55225605 0.4627663 0.36316597 0.32290313 -0.35697532
-0.2642105 0.2133013 -0.31945434 -0.5036896 -0.3215027 0.16959333 0.3798386 -0.28989384
-0.24649136 0.18218139 0.016823005 -0.13073862 -0.3995362 0.22319114 -0.33947036 -0.09310277
0.30019578 0.42066717 -0.432304 -0.03362969 -0.30657783 0.086917035 0.34241962 0.30041522
-0.37728706 0.4417742 -0.27155346 -0.39020178 0.41792065 0.28497097 -0.22003081 -0.28793487
00000000: c7bb f13d f104 f93e a87a a93e aa0e 95be
00000010: 4c30 863e 14e6 ab3e 629b 983d 18e1 b13e
00000020: 1041 923e 94e3 813e 8b34 143f a8ba e83e
00000030: 36fd c9be 3142 44be 3e4f 33be e168 12bf
00000040: fc4a 79bd 11f2 6f3e 0ea7 af3e 3518 1abe
00000050: 0aa9 12bf 70ab cf3e 3a38 933e e31a 83be
00000060: f8f6 9cbe 7f64 823e b09a 9d3e 2cc1 abbe
00000070: 6cf2 6cbe a817 5abe 3c33 8f3c dffe 383e
00000080: 30ac d5be 36b9 a2be 9c88 f4be 22f9 8b3e
00000090: 1f6b 03bf 63f0 123e 9a9b c03e 7e65 02be
000000a0: ad54 f33e 00db 91be 38e4 fd3e 2afa e93e
000000b0: ebe9 d8be 0839 df3e fe7a 0dbd 875d b33e
000000c0: fc5f f83e 01ed c23e f3ce e2bd 5902 363d
000000d0: 9ac3 2f3e b97c 44bd 6bc7 52be 0303 efbe
000000e0: 9b2f f0be 2ab5 c63c 9019 fa3e 585d e0be
000000f0: 97ca c43e 3ef6 9ebe 1222 f2bc f883 c53d
00000100: 4010 503d 4bac 96be 1077 1cbd 533e 96be
00000110: 1052 6ebe 721b cebe 466e 0c3f 8209 a9be
00000120: e1cc b03e 0e27 0bbf ff5f 013f e03b fbbc
00000130: 7ba4 eb3e 3953 1f3e 466e 96be b0af 743d
00000140: 10be 64bd 960c 61be 65f7 013f 2140 2e3e
00000150: c931 b7be b2cb 103f 48f2 7e3d 24b3 f03d
00000160: 1be6 a5bd 168b 5fbe c53c f3bd 7eaf 6dbe
00000170: 3541 0d3f af83 b93e f4ed e73e fdf0 6ebe
00000180: 1001 2ebe 40bd 10bd 7866 37be 526e 923e
00000190: b126 893d 8cbb f0be 185f cd3d 20ce bd3d
000001a0: 0844 a7be a62e a43e afb4 aabe 6877 85be
000001b0: a850 dbbe 1a4b 723e fa9e 3bbe cfc1 02bf
000001c0: f785 c2be 6cb4 75be de36 833e 9910 f3bc
000001d0: 522c 0bbe 3a67 0ebf 0e80 0e3f 36ff 36be
000001e0: d0d8 083f dcdb ba3e bfcd 50bd 2c0f 4f3e
000001f0: ea9f 863e 500d 9abd 0e0a e2be 159d e7be
00000200: b629 d33e 66b2 873d c652 83be 0f4f 0cbf
00000210: 8505 a1be e741 dcbe 98a5 f6bd b0d7 6ebe
00000220: 61a6 f83e 0aa4 b03e 877e 3c3e d99e d13e
00000230: 9bd5 fc3e c9fd 8ebe 7c42 1e3e 4ad6 03bf
00000240: dd86 063f f4f6 e03d 8645 b3be 0931 9f3e
00000250: 7b7f 98be 2984 6ebe b68f 35be 8428 573e
00000260: 3a7b bd3e 0e62 f6be 2ca2 463e a760 0d3f
00000270: b4ef ec3e e4f0 b93e 8f53 a53e 78c5 b6be
00000280: 9946 87be a86b 5a3e 858f a3be cdf1 00bf
00000290: 009c a4be e0a9 2d3e 347a c23e f76c 94be
000002a0: 3b68 7cbe c28d 3a3e 66d0 893c 58e0 05be
000002b0: 0290 ccbe 388c 643e 0fcf adbe aaac bebd
000002c0: 43b3 993e b061 d73e f356 ddbe 49bf 09bd
000002d0: c5f7 9cbe 8f01 b23d a051 af3e 06d0 993e
000002e0: c52b c1be 3a30 e23e 0e09 8bbe 87c8 c7be
000002f0: b2f9 d53e b7e7 913e c24f 61be 336c 93be

fc1.bias f4 [64]
-0.389482 -0.31272715 -0.12287134 0.2870013 0.22275919 -0.06827994 0.4384702 -0.5573358
0.53773326 0.35458198 0.5206814 -0.4353518 -0.24739489 0.09396466 -0.3065925 0.080448456
-0.11457556 0.4039152 0.4500884 0.0636341 0.1459409 -0.10526958 -0.25723776 0.365661
-0.23013498 -0.3042308 -0.47568107 -0.064863496 -0.3983399 0.24219318 0.28251982 -0.29770604
-0.47905895 -0.15494357 -0.38929665 -0.29288745 0.50267094 0.57069206 -0.18043858 -0.5607117
0.11794104 -0.4832143 0.5259004 0.076412156 -0.14832243 -0.103657804 0.4529049 -0.46248707
0.55856544 0.23730142 -0.53244835 0.56982255 0.42262742 -0.39125687 0.30373487 -0.4075089
0.10810995 -0.30114928 -0.19871081 0.27909786 0.33174622 0.45515954 0.31725895 -0.027449822
00000000: 2f6a c7be c61d a0be f8a3 fbbd d6f1 923e
00000010: fc1a 643e 5ad6 8bbd 2b7f e03e 8fad 0ebf
00000020: e3a8 093f c58b b53e 604b 053f 6ee6 debe
00000030: 1655 7dbe 8b70 c03d b1f9 9cbe 29c2 a43d
00000040: 97a6 eabd f9cd ce3e fd71 e63e 9852 823d
00000050: 8871 153e 9497 d7bd abb4 83be eb37 bb3e
00000060: 81a8 6bbe 24c4 9bbe 788c f3be 27d7 84bd
00000070: 35f3 cbbe 7d01 783e 70a6 903e ed6c 98be
00000080: 3747 f5be 87a9 1ebe e451 c7be 58f5 95be
00000090: 0baf 003f e018 123f e4c4 38be cd8a 0fbf
000000a0: 128b f13d dd67 f7be 69a1 063f fa7d 9c3d
000000b0: d6e1 17be 8b4a d4bd 27e3 e73e 1bcb ecbe
000000c0: 25fe 0e3f 25ff 723e 894e 08bf e4df 113f
000000d0: 9f62 d83e d252 c8be 2383 9b3e 02a5 d0be
000000e0: c068 dd3d 3d30 9abe d97a 4bbe eae5 8e3e
000000f0: a4da a93e ac0a e93e c46f a23e 73de e0bc

fc2.weight f4 [64, 64]
-0.056900024 0.018869694 -0.022783304 0.095669635 -0.11788872 -0.08739481 -0.07538193 -0.069969684
-0.040666617 0.087802045 -0.02261402 -0.08186093 -0.048905406 0.0394545 0.059051014 0.10692376
-0.062165927 -0.024587594 0.08219999 0.06202899 0.016253697 -0.06675272 -0.005662173 -0.027319169
-0.009354323 -0.059543192 -0.02951914 -0.0880304 -0.09422164 -0.0843509 0.027401421 -0.1240104
-0.022026569 0.07580962 0.050275117 0.075448446 0.029139088 0.09625609 0.046074666 0.023553506
-0.11881316 -0.10129118 0.026592942 0.06081106 0.05443597 0.072130404 -0.031613566 -0.11540285
0.09893334 0.02762444 0.0015718937 0.000659764 0.06702406 -0.11346762 0.0016440323 0.064232364
-0.019818855 0.11700991 0.034966264 -0.091272786 -0.09361632 0.08185158 -0.029818323 0.05020839
-0.10083787 0.05637808 -0.019456089 -0.101040184 -0.03336612 0.04673551 0.06344025 0.042645156
-0.026308844 0.10882627 0.11058843 0.027224854 -0.037700593 -0.053219818 0.07156895 -0.077319704
0.03467652 -0.11015375 -0.024707844 -0.05523229 -0.042444225 0.07546972 -0.010425404 0.02528188
-0.06615747 0.060266316 -0.04452704 0.03837964 -0.039562717 0.113284186 0.056927476 0.108548336
-0.01057215 -0.014176264 0.012962073 1.9432686e-05 -0.05463889 0.031174853 0.059380464 -0.059218243
0.078391075 0.09669542 -0.110605635 0.12497056 0.09612149 0.107123375 0.012035694 0.07132952
-0.017668696 -0.031255443 0.10274263 0.0011786532 -0.052463207 -0.11031151 -0.04383875 -0.0021878332
-0.089572646 -0.09510316 -0.035609752 0.053266313 -0.06270702 -0.056793544 -0.0006396755 0.023217382
-0.06842114 -0.11708133 0.09213174 0.12073921 0.094299495 -0.11825582 -0.004899527 0.08025268
-0.050653156 0.057626788 0.047957815 -0.021524772 -0.1250005 0.11501685 0.0604321 -0.029656425
0.013275519 -0.047982167 0.03565302 -0.07102612 0.06629259 -0.063784 -0.08119969 -0.08795278
0.09984666 -0.05438786 0.11985886 -0.054537505 0.025762742 0.033509042 0.09863453 0.091014236
-0.061640292 -0.0037852395 0.07272123 0.10262319 0.116186954 -0.041665033 -0.05651211 0.09011038
0.09523161 -0.017799824 0.05008549 0.08402522 0.092364 -0.0674918 -0.037283942 0.117180586
-0.09664211 0.06525656 -0.07735731 0.09090221 0.08521272 -0.091114074 -0.09659268 -0.04036793
0.01650748 -0.094836175 0.06719769 0.061513487 -0.013494119 -0.047525708 -0.08279742 -0.035336923
-0.08525762 -0.053087145 0.12034504 -0.09986924 0.10319252 0.037947416 -0.008560598 0.122210816
0.09389247 0.028664723 0.10797927 0.11596836 0.030661538 -0.1126952 0.058991835 -0.00015076995
-0.09640376 -0.10945468 -0.09333746 -0.0063076317 0.11988993 -0.034986824 0.060843796 0.04889086
0.000549078 -0.06616047 -0.05233574 -0.11461569 -0.115951285 -0.07254316 -0.10581511 0.09632765
-0.10322395 0.122604564 0.055622756 0.0999894 -0.038976595 -0.040283397 -0.053097486 0.10465802
0.016476497 -0.08846912 0.07804993 -0.10962072 0.091149956 0.09098855 0.033571124 -0.10792418
-0.009243056 -0.092305094 -0.031359106 -0.08332206 -0.08168042 0.04449874 -0.011640012 0.108964324
0.056557313 -0.08348489 -0.121564984 0.08770321 -0.0714799 0.10677566 0.08353375 0.038384825
00000000: 0010 69bd 9e94 9a3c 0da4 babc 71ee c33d
00000010: a46f f1bd 0dfc b2bd d761 9abd 444c 8fbd
00000020: 0a92 26bd 8fd1 b33d 0a41 b9bc b4a6 a7bd
00000030: 0951 48bd 0b9b 213d 7adf 713d d8fa da3d
00000040: b3a1 7ebd ec6b c9bc 7858 a83d 1c12 7e3d
00000050: 7926 853c a6b5 88bd c089 b9bb 73cc dfbc
00000060: e042 19bc 90e3 73bd 20d2 f1bc 4849 b4bd
00000070: 46f7 c0bd 2ac0 acbd f278 e03c 2af9 fdbd
00000080: 1071 b4bc 1342 9b3d 48ed 4d3d b784 9a3d
00000090: 19b5 ee3c ea21 c53d cab8 3c3d 48f3 c03c
000000a0: 5054 f3bd c071 cfbd 71d9 d93c 0515 793d
000000b0: 40f8 5e3d 1bb9 933d 3a7d 01bd 5458 ecbd
000000c0: 909d ca3d a64c e23c 0008 ce3a 03f4 2c3a
000000d0: e943 893d b661 e8bd 927c d73a 428c 833d
000000e0: 275b a2bc e4a2 ef3d c938 0f3d 3aed babd
000000f0: eab9 bfbd cda1 a73d 8e45 f4bc 50a7 4d3d
00000100: 1684 cebd b4ec 663d 6062 9fbc 28ee cebd
00000110: eaaa 08bd bc6d 3f3d f6ec 813d b0ac 2e3d
00000120: a585 d7bc 4fe0 de3d 307c e23d a806 df3c
00000130: f06b 1abd 06fd 59bd be92 923d cb59 9ebd
00000140: f708 0e3d 4a98 e1bd 1b68 cabc 413b 62bd
00000150: ffd9 2dbd de8f 9a3d 50cf 2abc f21b cf3c
00000160: 917d 87bd d0d9 763d fc61 36bd f833 1d3d
00000170: 840c 22bd 8a01 e83d c92c 693d 974e de3d
00000180: d036 2dbc 9043 68bc e05e 543c 6003 a337
00000190: 07cd 5fbd 6862 ff3c ee38 733d d48e 72bd
000001a0: 808b a03d 4008 c63d 3585 e2bd 91f0 ff3d
000001b0: 58db c43d 8063 db3d 5c31 453c 3615 923d
000001c0: f1bd 90bc b505 00bd ba6a d23d 0a7d 9a3a
000001d0: a9e3 56bd 00eb e1bd 4390 33bd c061 0fbb
000001e0: dd71 b7bd 72c5 c2bd 88db 11bd c72d 5a3d
000001f0: 8a6c 80bd 59a0 68bd e5af 27ba 6132 be3c
00000200: 6220 8cbd 56c8 efbd 91af bc3d 1e46 f73d
00000210: 1820 c13d 1b30 f2bd 368c a0bb 845b a43d
00000220: af79 4fbd 110a 6c3d 6a6f 443d b854 b0bc
00000230: 2200 00be f48d eb3d a687 773d 08f2 f2bc
00000240: 9081 593c f388 44bd e708 123d 2476 91bd
00000250: 69c4 873d 30a1 82bd 064c a6bd 9620 b4bd
00000260: 687c cc3d cec5 5ebd 9078 f53d b862 5fbd
00000270: 630c d33c c740 093d e700 ca3d ac65 ba3d
00000280: 887a 7cbd c811 78bb deee 943d 1b2c d23d
00000290: 6df3 ed3d f4a8 2abd 3e79 67bd ca8b b83d
000002a0: ca08 c33d f0d0 91bc 7126 4d3d 6a15 ac3d
000002b0: 5629 bd3d 2439 8abd 0cb7 18bd 60fc ef3d
000002c0: 4cec c5bd 3ba5 853d 826d 9ebd f02a ba3d
000002d0: 0284 ae3d 049a babd 62d2 c5bd d858 25bd
000002e0: b23a 873c 7839 c2bd f19e 893d 91f5 7b3d
000002f0: 7016 5dbc 51aa 42bd b291 a9bd 73bd 10bd
00000300: 8c9b aebd e871 59bd 7677 f63d 3e88 ccbd
00000310: 9a56 d33d c06e 1b3d c041 0cbc aa49 fa3d
00000320: b24a c03d 48d2 ea3c 3c24 dd3d d280 ed3d
00000330: e82d fb3c becc e6bd 6ca1 713d 0018 1eb9
00000340: 566f c5bd c629 e0bd b627 bfbd 40b0 cebb
00000350: da88 f53d 584e 0fbd 5837 793d c841 483d
00000360: 00f0 0f3a 247f 87bd 005e 56bd a2bb eabd
00000370: de77 edbd 8291 94bd 98b5 d8bd 6e47 c53d
00000380: 1467 d3bd 1a18 fb3d b0d4 633d 3ec7 cc3d
00000390: eca5 1fbd 3400 25bd c07c 59bd f256 d63d
000003a0: b8f9 863c 4c2f b5bd a4d8 9f3d d480 e0bd
000003b0: d4ac ba3d 3458 ba3d e081 093d 5a07 ddbd
000003c0: 3070 17bc 740a bdbd 6872 00bd c2a4 aabd
000003d0: 1048 a7bd 5044 363d c0b5 3ebc b028 df3d
000003e0: a4a8 673d 20fa aabd 10f7 f8bd be9d b33d
000003f0: 0e64 92bd 32ad da3d be13 ab3d 6839 1d3d

fc2.bias f4 [64]
-0.07259577 0.10480317 0.027750688 -0.033234105 -0.103573754 0.045480065 0.08746832 0.030857762
-0.03975153 -0.08760678 0.10939135 -0.09857581 0.030251473 0.07281768 0.10180697 -0.01175046
0.0006753504 -0.028574444 0.07474028 0.0350606 -0.006684577 -0.038190227 -0.06419134 0.12532346
0.0026284205 0.09899051 -0.118755266 -0.11646591 -0.065608054 0.044585586 0.011114901 -0.12443979
0.0036099455 0.07520159 -0.050075397 0.036787603 -0.07475314 0.03143117 -0.09301856 -0.006388763
0.11415607 -0.08917259 -0.018053725 0.014741451 0.09237574 -0.0897796 0.06864562 -0.098434985
0.05523841 -0.02515473 -0.08531336 0.05946204 -0.047993246 -0.080471314 0.06345402 -0.0040772194
0.0373559 0.08497813 0.04849532 0.002754194 0.10312572 0.10707848 0.09452725 0.053119212
00000000: 17ad 94bd 0ba3 d63d 6955 e33c 7c20 08bd
00000010: 7a1e d4bd 4e49 3a3d 9722 b33d 6bc9 fc3c
00000020: 80d2 22bd 2f6b b3bd 9208 e03d 1de2 c9bd
00000030: f0d1 f73c 7021 953d 2c80 d03d 0085 40bc
00000040: 000a 313a f414 eabc 6f11 993d b49b 0f3d
00000050: 4c0a dbbb 5b6d 1cbd c076 83bd cb54 003e
00000060: 9441 2c3b 89bb ca3d f635 f3bd ae85 eebd
00000070: 845d 86bd 609f 363d 461b 363c 4ada febd
00000080: d694 6c3b 4b03 9a3d dc1b 4dbd 99ae 163d
00000090: 2d18 99bd f8bd 003d 8480 bebd d458 d1bb
000000a0: a8ca e93d 1ea0 b6bd 68e5 93bc 2086 713c
000000b0: 7e2f bd3d 5ede b7bd 1396 8c3d 4898 c9bd
000000c0: ac41 623d 4b11 cebc c5b8 aebd 788e 733d
000000d0: 9194 44bd 25ce a4bd 2ef4 813d 329a 85bb
000000e0: 8002 193d 0409 ae3d 07a3 463d b57f 343b
000000f0: 9433 d33d f64b db3d 8197 c13d 8893 593d

fc3.weight f4 [1, 64]
0.11274094 -0.053786404 -0.04695081 0.03168015 -0.06673463 -0.00603334 -0.0786149 -0.11423049
0.01813434 -0.07540422 0.017776975 0.045935843 0.11921847 0.044627186 0.027472578 0.11300625
-0.062114492 0.025098221 -0.10663404 0.0212502 0.015128981 0.10239573 -0.05792211 -0.007795072
-0.033117007 0.036228694 0.082799464 -0.0013943911 0.07083469 -0.04094954 -0.11915333 0.042217717
0.08484668 0.095425524 -0.05451885 -0.04310042 0.003278383 -0.024731934 -0.016534299 0.12302835
-0.062349092 0.07646294 -0.09296973 0.051132187 -0.09564505 0.04948487 -0.00044186297 -0.054598436
-0.029837385 -0.012831005 0.011440618 0.014102131 0.11097483 0.016660266 0.0911559 0.04406496
0.013616829 -0.07758625 0.052999787 0.10302433 -0.084571354 0.098960355 0.05773411 0.0008033361
00000000: b9e4 e63d 224f 5cbd 7e4f 40bd 0cc3 013d
00000010: 2aac 88bd 53b3 c5bb d900 a1bd adf1 e9bd
00000020: 788e 943c 876d 9abd 05a1 913c 3927 3c3d
00000030: d028 f43d ffca 363d 2c0e e13c d26f e73d
00000040: c46b 7ebd c99a cd3c f362 dabd e614 ae3c
00000050: 8cdf 773c dab4 d13d bc3f 6dbd ce6d ffbb
00000060: b3a5 07bd 8a64 143d c492 a93d 00c4 b6ba
00000070: c711 913d b4ba 27bd a906 f4bd 7cec 2c3d
00000080: 19c4 ad3d 756e c33d 284f 5fbd 118a 30bd
00000090: 24da 563b a09a cabc f072 87bc 4af6 fb3d
000000a0: c361 7fbd 9a98 9c3d ea66 bebd fc6f 513d
000000b0: 8de1 c3bd a6b0 4a3d d8a9 e7b9 9ca2 5fbd
000000c0: 886d f4bc 2339 52bc 6e71 3b3c a00c 673c
000000d0: c646 e33d 1c7b 883c f2af ba3d 767d 343d
000000e0: 1f19 5f3c 8ae5 9ebd 4e16 593d 6cfe d23d
000000f0: bf33 adbd baab ca3d 9a7a 6c3d f996 523a
