public/api/hepatitis_model.pth (torch, 20632 bytes, 5 tensors)

fc1.weight f4 [64, 3]
-0.5332626 0.0128967315 -0.062111724 0.17756121 -0.42516112 -0.50528777 0.2550378 0.20433849
0.21019487 0.029157266 0.3743274 0.46044186 0.56131685 -0.087805636 -0.2034626 0.33420607
-0.18059795 -0.55619514 0.38672054 -0.53089464 0.53449047 0.34366086 -0.18269809 -0.3052188
0.19382183 -0.29689738 -0.12542433 -0.046865206 -0.3980602 -0.19126657 0.45287538 0.014602324
0.044100527 -0.4178002 0.54486495 -0.18413457 -0.5494894 0.102236755 0.064830005 -0.30022997
0.4883447 -0.37159485 -0.20383817 0.24518505 0.49130288 -0.23875275 -0.24635741 -0.36429855
0.4305621 -0.06727042 -0.12167095 0.16516206 0.5382327 -0.22349934 0.3918882 -0.17044805
0.102532014 -0.22288081 0.39631644 -0.23550192 0.28314766 0.14301366 0.05561622 -0.21666953
-0.18120705 -0.18984486 0.45238712 -0.06984587 0.20848551 -0.12707467 -0.06393801 -0.23432913
-0.07824539 0.1493056 -0.55967104 0.4378444 -0.19787182 0.10962895 0.014248637 -0.37974244
0.20555204 0.5093306 -0.20826823 0.4359 0.5372407 0.3896855 -0.2981291 -0.07202935
-0.32385996 -0.4455974 0.46881166 0.27393883 -0.41601527 0.5239654 -0.18438414 0.033748817
-0.28188303 -0.0873177 0.066214934 -0.09709765 -0.53988963 0.41473827 -0.11929072 0.34901932
0.1440312 0.3876746 0.15564494 -0.1378811 -0.4315501 -0.51965046 -0.09063749 -0.45851544
0.46901944 0.16479348 -0.09133153 -0.28104687 -0.02232273 0.22653286 0.34425965 -0.45700085
0.47326556 0.5031227 -0.4389842 -0.42644408 -0.36426046 0.55822366 -0.18435863 -0.042684734
0.5757869 0.040260717 0.16154341 0.57781523 0.20879874 0.44138896 0.101178095 -0.011393115
0.18583918 -0.20051676 -0.31768495 0.20593888 0.2437607 -0.33333597 -0.19442418 0.1054873
-0.16680345 -0.048197683 0.31792763 -0.25268075 -0.19458249 -0.4507143 -0.2878495 0.24709885
-0.34436327 0.4827135 0.031923536 0.18435828 -0.46467713 0.25824532 -0.4281147 -0.28595918
0.02555524 0.09699668 -0.468386 -0.35403362 -0.3398782 -0.331031 0.058949888 0.22374235
-0.13706958 -0.14687799 0.48513857 -0.25479078 -0.12278933 -0.088385016 0.17785415 -0.060288277
0.52699524 0.31875333 0.44143453 0.021426093 0.32580775 0.18146011 0.15253401 -0.11941378
-0.043806203 0.2971611 0.42523012 0.0012363816 -0.211622 0.40949264 -0.353877 0.1914282
00000000: e683 08bf d04c 533c dd68 7ebd 9bd2 353e
00000010: b8ae d9be 8a5a 01bf 5194 823e 1c3e 513e
00000020: 533d 573e 38db ee3c d7a7 bf3e 09bf eb3e
00000030: 76b2 0f3f 71d3 b3bd 8058 50be 0f1d ab3e
00000040: abee 38be ce62 0ebf 3c00 c63e b6e8 07bf
00000050: 5ed4 083f 51f4 af3e 3515 3bbe a345 9cbe
00000060: 3b79 463e ef02 98be 3c6f 00be bbf5 3fbd
00000070: 8cce cbbe 62db 43be 48df e73e 963e 6f3c
00000080: c1a2 343d e8e9 d5be 457c 0b3f c68d 3cbe
00000090: 56ab 0cbf 8161 d13d 98c5 843d beb7 99be
000000a0: 5108 fa3e ae41 bebe f4ba 50be ca11 7b3e
000000b0: 0d8c fb3e 9a7b 74be 1e45 7cbe 5785 babe
000000c0: a372 dc3e 13c5 89bd 9e2e f9bd 3e20 293e
000000d0: 9ec9 093f 03dd 64be 92a5 c83e ef89 2ebe
000000e0: 4efc d13d de3a 64be fde9 ca3e 6a27 71be
000000f0: bbf8 903e 2c72 123e d5cd 633d 9ede 5dbe
00000100: 578e 39be b166 42be 499f e73e 5a0b 8fbd
00000110: 3a7d 553e dd1f 02be eef1 82bd faf3 6fbe
00000120: 1e3f a0bd 91e3 183e 9a46 0fbf 242d e03e
00000130: e99e 4abe 2585 e03d 1d73 693c 9a6d c2be
00000140: 3c7c 523e 7d63 023f 4444 55be 492e df3e
00000150: 9b88 093f dc84 c73e 61a4 98be 2084 93bd
00000160: f9d0 a5be 5825 e4be 1508 f03e b641 8c3e
00000170: f4ff d4be 9922 063f 32cf 3cbe 333c 0a3d
00000180: f952 90be 9fd3 b2bd b29b 873d 22db c6bd
00000190: 3536 0abf 9358 d43e b14e f4bd a9b2 b23e
000001a0: ea7c 133e 497d c63e 6361 1f3e b430 0dbe
000001b0: 22f4 dcbe d007 05bf 26a0 b9bd 89c2 eabe
000001c0: 5123 f03e 9fbf 283e 060c bbbd 60e5 8fbe
000001d0: 28de b6bc 3bf8 673e cd42 b03e 04fc e9be
000001e0: dd4f f23e a6cc 003f 89c2 e0be e156 dabe
000001f0: 5980 babe bfe7 0e3f 82c8 3cbe 30d6 2ebd
00000200: c566 133f 6ce8 243d a36b 253e b3eb 133f
00000210: 56cf 553e bcfd e13e 7636 cf3d 30aa 3abc
00000220: a04c 3e3e 4454 4dbe 9aa7 a2be a4e1 523e
00000230: 689c 793e 03ab aabe 2217 47be ba09 d83d
00000240: 86ce 2abe ef6a 45bd 69c7 a23e 5f5f 81be
00000250: a240 47be 06c4 e6be 0261 93be 7b07 7d3e
00000260: 6250 b0be 3926 f73e 41c2 023d 6bc8 3c3e
00000270: 29ea edbe bb38 843e da31 dbbe 3e69 92be
00000280: 3959 d13c 32a6 c63d 4ad0 efbe e543 b5be
00000290: 8404 aebe e57c a9be 7075 713d b71c 653e
000002a0: f85b 0cbe 2f67 16be 1564 f83e f073 82be
000002b0: f978 fbbd 3403 b5bd 661f 363e d7f0 76bd
000002c0: 29e9 063f a333 a33e b503 e23e c685 af3c
000002d0: 46d0 a63e aed0 393e e031 1c3e 368f f4bd
000002e0: 226e 33bd 8025 983e c3b7 d93e 150e a23a
000002f0: 70b3 58be 05a9 d13e 5e2f b5be c105 443e

fc1.bias f4 [64]
-0.44870368 0.44107357 0.18403056 -0.018492732 -0.3356868 0.4383329 -0.084852085 0.29859534
0.17654403 0.25582427 -0.26679882 -0.32026708 0.1015537 -0.39006338 0.19427176 -0.14890015
0.18285376 -0.04612041 -0.026212243 0.53241724 0.38737664 -0.40516618 -0.080229655 -0.4002766
-0.41248116 0.27467304 0.11624473 -0.109394714 0.06404534 0.4960069 -0.5160029 0.5066124
0.12339123 0.27527028 -0.03600855 0.3984717 -0.43115908 -0.45271474 -0.2263775 -0.039715033
0.54146314 0.34128702 -0.16732185 0.4060423 0.26662245 0.5690645 -0.30313364 0.28828633
-0.45909563 0.48789838 0.24296091 0.53777456 -0.15572646 0.5638767 -0.3972509 0.08847161
-0.12527417 0.4943368 0.39897478 -0.27547738 -0.12694073 -0.5397292 -0.5155738 -0.29354453
00000000: 7dbc e5be 65d4 e13e 8272 3c3e 127e 97bc
00000010: 24df abbe 2b6d e03e eec6 adbd 7de1 983e
00000020: f5c7 343e 66fb 823e db99 88be 0cfa a3be
00000030: 63fb cf3d 63b6 c7be 2def 463e 4879 18be
00000040: 043e 3b3e c1e8 3cbd 0fbb d6bc 7f4c 083f
00000050: 3b56 c63e f171 cfbe 724f a4bd 0ef1 ccbe
00000060: bb30 d3be f2a1 8c3e b811 ee3d 560a e0bd
00000070: 342a 833d 9ef4 fd3e c418 04bf 5ab1 013f
00000080: 8bb4 fc3d 3af0 8c3e b47d 13bd 7c04 cc3e
00000090: e2c0 dcbe 3aca e7be 81cf 67be 3bac 22bd
000000a0: 549d 0a3f 2cbd ae3e 6b56 2bbe c7e4 cf3e
000000b0: bd82 883e 36ae 113f 5534 9bbe 449a 933e
000000c0: 950e ebbe d1cd f93e bfca 783e 98ab 093f
000000d0: c276 1fbe 395a 103f 7864 cbbe 9a30 b53d
000000e0: df47 00be b719 fd3e 6c46 cc3e 5f0b 8dbe
000000f0: c0fc 01be b12b 0abf a5fc 03bf 784b 96be

fc2.weight f4 [64, 64]
-0.09680669 0.05455371 -0.03710187 -0.03918168 0.03518679 0.06057422 0.098306045 0.07176292
-0.12070433 -0.031277776 -0.08472425 0.05757678 -0.078484066 0.10451836 -0.032614037 0.019603997
0.06787415 0.01636741 0.072415024 0.095514245 0.07343674 0.10244481 -0.118206516 -0.020944089
-0.012636259 0.053449783 0.082963936 0.015635952 -0.052450437 -0.07365699 0.027657822 -0.03196536
0.016521405 -0.1128291 -0.045024265 0.10542801 -0.060909748 -0.095688716 -0.09682776 -0.06040311
-0.088831864 0.10380848 0.09396965 0.01911342 0.04202966 -0.10426546 -0.056635007 -0.017341174
0.091079235 -0.013903044 -0.10398103 -0.06210207 -0.10044433 -0.12852463 0.12469827 0.07787006
0.03925376 -0.025828563 0.025129065 0.05220648 0.06993659 0.069306955 -0.089219585 0.08318762
-0.03541352 0.105012104 0.087527305 -0.00462752 -0.038091946 -0.020705637 0.07414949 0.08411317
0.029022064 -0.11561615 0.03183353 -0.029779747 0.11823071 -0.07476261 -0.09299711 0.018225417
0.096011125 0.010285622 -0.046381574 0.03957549 -0.07748496 -0.12090956 -0.050868995 0.0937476
-0.02599217 -0.0149324145 0.10545652 0.104668 0.076992996 -0.030253794 0.07153787 -0.054380488
0.108486414 0.092160605 -0.06233775 -0.027853992 -0.10750969 0.08371435 0.06278168 -0.05098553
0.06551316 -0.11587036 -0.07335886 -0.022226762 -0.11801206 -0.07560155 0.10179944 -0.04438017
0.060370952 0.0905613 -0.03102107 -0.01628649 0.0691061 -0.020277612 -0.06509113 -0.109030575
-0.037585076 0.017007872 -0.016635988 -0.09547248 0.07192918 0.00011667609 -0.005596027 -0.06282264
-0.06303975 -0.06910901 0.022157103 -0.07998754 -0.07455526 0.07676241 -0.07956521 -0.052224264
0.10004045 -0.051015124 0.02737923 -0.11103824 -0.06488499 0.032694265 -0.008944944 -0.086990625
0.04253106 -0.08480498 -0.1159046 -0.05748135 0.07164277 -0.04698564 -0.107249245 -0.07774483
0.07004212 -0.052539438 -0.022621557 -0.0006812066 0.122656316 0.028310016 0.014368042 -0.069928885
0.052589968 0.02011536 -0.033331275 -0.050113916 -0.03588018 0.094061315 -0.015166596 0.0824465
-0.08072783 0.02109094 0.05460283 0.015125021 -0.08633791 0.060977966 0.030633539 0.11319673
-0.079614624 0.039762765 -0.025556177 -0.01360859 -0.07828118 -0.047489405 -0.009355649 0.1062161
-0.07929602 0.08688064 0.011112511 -0.09525399 0.08482264 -0.017261147 0.09918767 -0.0060848743
-0.02126275 0.05272746 0.054150034 0.11218995 -0.12574564 0.024199437 -0.117496006 0.032059167
-0.021159228 0.04879666 -0.011259295 -0.10129118 -0.045757476 -0.06686539 -0.11474654 -0.06754552
0.09269767 0.09405644 0.06238491 -0.062465966 -0.0670629 0.039795697 0.06387382 0.08973727
-0.026572526 0.04897829 0.011537019 0.08103188 0.030265661 0.07902012 0.076861545 0.03831022
0.10493931 -0.123697594 0.07382765 0.01705439 0.10557151 -0.1144463 0.10881449 0.015234085
0.07563263 -0.01695443 -0.024230337 -0.09874079 -0.044303533 -0.10864391 0.09562218 -0.08064266
0.051557526 0.08072767 -0.10441922 0.06121516 -0.035607323 -0.054307498 -0.10506816 -0.10774258
0.10814847 -0.06395628 -0.071557425 0.118219644 -0.0069915457 0.1068017 0.050528914 -0.07727755
00000000: 9642 c6bd b673 5f3d 21f8 17bd f87c 20bd
00000010: 0620 103d ac1c 783d ae54 c93d 70f8 923d
00000020: d533 f7bd 201d 00bd e883 adbd a1d5 6b3d
00000030: 41bc a0bd b90d d63d 4c96 05bd 9098 a03c
00000040: 9a01 8b3d f214 863c 544e 943d f99c c33d
00000050: 0066 963d 96ce d13d 4216 f2bd f092 abbc
00000060: 5008 4fbc 29ee 5a3d ffe8 a93d f816 803c
00000070: 45d6 56bd 7ad9 96bd a892 e23c 1cee 02bd
00000080: e657 873c f112 e7bd 5d6b 38bd a4ea d73d
00000090: 807c 79bd 72f8 c3bd a24d c6bd 4069 77bd
000000a0: 7bed b5bd 8a99 d43d 2973 c03d bf93 9c3c
000000b0: 4b27 2c3d 2189 d5bd 1cfa 67bd 140f 8ebc
000000c0: c087 ba3d 98c9 63bc 02f4 d4bd bd5e 7ebd
000000d0: c2b5 cdbd f69b 03be ce61 ff3d 577a 9f3d
000000e0: 8dc8 203d 6c96 d3bc 78db cd3c 76d6 553d
000000f0: ea3a 8f3d cef0 8d3d c2b8 b6bd 455e aa3d
00000100: c40d 11bd 9610 d73d 8441 b33d 74a2 97bb
00000110: 4d06 1cbd de9e a9bc b0db 973d 8743 ac3d
00000120: aebf ed3c 29c8 ecbd e063 023d a8f4 f3bc
00000130: f122 f23d 241d 99bd 4575 bebd 784d 953c
00000140: 7ba1 c43d 0785 283c 9bfa 3dbd e919 223d
00000150: 6fb0 9ebd 6e9f f7bd 025c 50bd befe bf3d
00000160: 88ed d4bc 16a7 74bc 97f9 d73d 2d5c d63d
00000170: 81ae 9d3d ced6 f7bc 7282 923d 13be 5ebd
00000180: 202e de3d b3be bc3d de55 7fbd 0e2e e4bc
00000190: 0a2e dcbd 6e72 ab3d ae93 803d 34d6 50bd
000001a0: c32b 863d 704d edbd 2c3d 96bd e614 b6bc
000001b0: 4fb0 f1bd fcd4 9abd 3a7c d03d fbc7 35bd
000001c0: 8847 773d 3478 b93d e61f febc 3f6b 85bc
000001d0: 8087 8d3d 3c1d a6bc 804e 85bd 6c4b dfbd
000001e0: cff2 19bd 1854 8b3c 3248 88bc 1387 c3bd
000001f0: 9b4f 933d 00b0 f438 e05e b7bb 28a9 80bd
00000200: fc1a 81bd 0689 8dbd d082 b53c 82d0 a3bd
00000210: 6eb0 98bd 9c35 9d3d 16f3 a2bd 1ce9 55bd
00000220: 02e2 cc3d 3cf5 50bd 684a e03c 0468 e3bd
00000230: 6ce2 84bd 6cea 053d d08d 12bc 2428 b2bd
00000240: 0c35 2e3d 3cae adbd 645f edbd 9071 6bbd
00000250: 72b9 923d 0474 40bd 7ea5 dbbd ae38 9fbd
00000260: 3e72 8f3d 9833 57bd d850 b9bc 0093 32ba
00000270: 3c33 fb3d 68ea e73c f067 6b3c e036 8fbd
00000280: 9468 573d f8c8 a43c 6086 08bd 4044 4dbd
00000290: 18f7 12bd 38a3 c03d 507d 78bc b6d9 a83d
000002a0: a254 a5bd e8c6 ac3c 38a7 5f3d f0ce 773c
000002b0: eed1 b0bd 08c4 793d 30f3 fa3c b0d3 e73d
000002c0: fe0c a3bd 48de 223d 305b d1bc 90f6 5ebc
000002d0: e251 a0bd 4084 42bd 7048 19bc d487 d93d
000002e0: f465 a2bd 7aee b13d 4011 363c 8614 c3bd
000002f0: 7eb7 ad3d 4067 8dbc e822 cb3d a063 c7bb
00000300: 382f aebc c0f8 573d 6dcc 5d3d d8c3 e53d
00000310: 77c3 00be e63d c63c bfa1 f0bd 7950 033d
00000320: 1e56 adbc 02df 473d e878 38bc c071 cfbd
00000330: 316c 3bbd b9f0 88bd 3c00 ebbd 4e55 8abd
00000340: 47d8 bd3d aaa0 c03d 5287 7f3d 50dc 7fbd
00000350: 4658 89bd d000 233d 47d0 823d 2cc8 b73d
00000360: a0ae d9bc 769d 483d c405 3d3c 0bf4 a53d
00000370: b1ef f73c 4dd5 a13d 9669 9d3d 2deb 1c3d
00000380: 6cea d63d 2a55 fdbd f332 973d a6b5 8b3c
00000390: e035 d83d d262 eabd 22da de3d 6298 793c
000003a0: 48e5 9a3d 04e4 8abc b37e c6bc 9c38 cabd
000003b0: 9f77 35bd b380 debd 90d5 c33d fb27 a5bd
000003c0: fc2d 533d 8c54 a53d bed9 d5bd bfbc 7a3d
000003d0: fcd8 11bd 8a71 5ebd fa2d d7bd 24a8 dcbd
000003e0: f27c dd3d 83fb 82bd b38c 92bd 241d f23d
000003f0: 5619 e5bb daba da3d 68f7 4e3d b143 9ebd

fc2.bias f4 [64]
0.07618726 0.037127327 -0.07187684 0.03769195 0.025676446 -0.07714525 0.041059803 -0.027853614
0.07536883 -0.10841903 -0.08440347 -0.023070231 0.07177677 0.07966494 -0.008548773 -0.09678896
-0.07643518 -0.0036936463 -0.06169032 0.0136148045 0.09913126 -0.03281305 0.041408326 0.10788024
-0.054139696 -0.0040104575 -0.0018224418 0.095046304 0.10954825 -0.12007592 -0.008381068 0.014438633
0.022100292 -0.103954144 0.04137111 0.117143236 0.058359686 0.104150936 -0.11073457 0.09823633
0.11934351 -0.037099544 0.095660634 -0.09650059 -0.108220026 -0.0055275853 0.094485596 -0.06955166
-0.10290456 0.0919867 0.092487834 -0.038680896 0.035769746 0.036874212 -0.08770968 -0.06015475
-0.07565787 -0.122913435 0.097089045 0.0035652216 -0.09837518 0.044138264 -0.013615257 0.0684559
00000000: 1108 9c3d d312 183d 2a34 93bd e062 1a3d
00000010: 6957 d23c 54fe 9dbd 532e 283d 432d e4bc
00000020: f95a 9a3d cc0a debd badb acbd c8fd bcbc
00000030: b3ff 923d 5f27 a33d 2710 0cbc 4a39 c6bd
00000040: 0c8a 9cbd 1a11 72bb fdae 7cbd a110 5f3c
00000050: 5405 cb3d fa66 06bd c79b 293d 51f0 dc3d
00000060: 96c1 5dbd 286a 83bb 00df eeba a3a7 c23d
00000070: d55a e03d 5dea f5bd bf50 09bc 0490 6c3c
00000080: ac0b b53c e9e5 d4bd c174 293d cbe8 ef3d
00000090: 910a 6f3d 164d d53d cec8 e2bd 2130 c93d
000000a0: 5f6a f43d b1f5 17bd b9e9 c33d 1aa2 c5bd
000000b0: 76a2 ddbd bf20 b5bb aa81 c13d 1a71 8ebd
000000c0: a0bf d2bd 8663 bc3d 436a bd3d dc6f 1ebd
000000d0: 4c83 123d 6a09 173d 22a1 b3bd d464 76bd
000000e0: 83f2 9abd 0aba fbbd 9fd6 c63d 7ea6 693b
000000f0: ed78 c9bd 53ca 343d 8712 5fbc 9b32 8c3d

fc3.weight f4 [1, 64]
-0.018820556 -0.036798842 0.033714548 -0.046375725 0.030591948 -0.09026141 -0.09066514 -0.102392085
-0.11582712 0.08570867 0.0020654453 0.05394627 -0.082653075 -0.06821193 0.015918147 0.047266454
-0.05696529 -0.09759697 -0.010727268 -0.0547111 -0.0071396977 -0.07322671 -0.1167891 -0.09364641
-0.080301434 0.111272074 0.05368276 0.08883637 -0.06608238 -0.10036082 -0.0010269653 -0.08357887
0.024903713 -0.04948492 -0.11227513 0.09493332 -0.021046234 0.05074498 0.1137812 -0.007698433
0.004053813 -0.08827204 -0.11013725 0.121996686 0.038109664 -0.0051081297 0.08385127 -0.07563975
-0.050862875 0.059393924 -0.08323291 0.12854943 0.07652721 0.12351276 0.00024797022 0.005139813
-0.11209515 -0.019301325 0.08632168 -0.05047931 0.038481534 0.048298895 -0.046554215 0.0863593
00000000: 912d 9abc 62ba 16bd 4418 0a3d 79f4 3dbd
00000010: f79b fa3c f9da b8bd a5ae b9bd f1b2 d1bd
00000020: c536 edbd 0788 af3d 6c5c 073b c4f6 5c3d
00000030: 0446 a9bd b2b2 8bbd c666 823c 789a 413d
00000040: 7054 69bd ece0 c7bd 6cc1 2fbc bf18 60bd
00000050: 20f4 e9bb e3f7 95bd 202f efbd b0c9 bfbd
00000060: 1475 a4bd 9de2 e33d 74e2 5b3d d8ef b53d
00000070: 3356 87bd f989 cdbd 3d9b 86ba 662b abbd
00000080: df02 cc3c b3b0 4abd 81f0 e5bd 676c c23d
00000090: 2769 acbc f8d9 4f3d 1e06 e93d 2343 fcbb
000000a0: d9d5 843b f9c7 b4bd a38f e1bd 66d9 f93d
000000b0: e118 1c3d 1962 a7bb 37ba ab3d 03e9 9abd
000000c0: 9755 50bd 0b47 733d 0476 aabd 76a2 033e
000000d0: 4cba 9c3d 42f4 fc3d 0002 8239 e06b a83b
000000e0: 2492 e5bd d01d 9ebc 6cc9 b03d 65c3 4ebd
000000f0: d09e 1d3d 10d5 453d a2af 3ebd 25dd b03d
