public/api/hepatitis_model.pth (torch, 20632 bytes, 5 tensors)

fc1.weight f4 [64, 3]
00000000: 8b82 d5bd a213 1ebc 0b9f b3be a74f 8abe
00000010: 7bc4 c33e 533c 24be 53b9 0c3e edb5 a8be
00000020: 535d 863e 68ae d138 f121 563e 550d c73e
00000030: 7cd4 14be 04c4 323d 0b74 dc3e e057 6c3e
00000040: a447 f6be 4b1b 743e a5d1 5c3e 976f 153e
00000050: 9181 053e 3044 70be 5f49 e6be faff d53d
00000060: 1074 863e b953 ac3e 538a 3a3e 2b68 91be
00000070: f5ba c4be 6bb3 e53d 247c 8a3e db34 643e
00000080: 9744 02bf 9280 963e 4379 e73e 5de2 0dbf
00000090: 8634 e83d aaba 4abd 451f 9bbd 2fd2 e7be
000000a0: ef00 8f3e 52af 1cbe 704a 92bd 2de0 e6be
000000b0: ce9f 3a3d a15f 113f fd47 06bf 830d edbe
000000c0: 2d57 3fbd 5760 e7be 7461 38be 49c7 9f3d
000000d0: 5b90 0a3f 9154 cbbe 3aa7 a93d 088b b53e
000000e0: 0b7a ddbd 7d0e 05bf 1264 12bf a757 1abe
000000f0: f084 e33e 8243 0b3f 3f66 b43e 3032 d9bc
00000100: 067a eb3e f28f b13e 7394 8b3e 75d6 babd
00000110: 0ab1 bebe d5e2 4ebc a843 be3e d08b 973e
00000120: a1a0 8c3e e70d 9fbd 4b94 09bf bb7f 093f
00000130: 8a42 923e d8f4 a43c dbd1 93be b70a 63bd
00000140: 3798 01bf 1eb1 17be 6036 ac3e ba9c 2f3e
00000150: 5b65 bcbe 2162 133f 0bc3 163e a74d a4be
00000160: deb8 ac3d 8490 0a3f 59d3 00bf d511 d63d
00000170: 5467 01be 9852 22be e741 bb3e a7aa a83e
00000180: 09b1 e73d 487c e83e 8901 f9bd f4a3 c6be
00000190: 4eb0 9f3e b815 59be f22f adbd bce6 3cbe
000001a0: 2a4a 53be dccf e8be c82d d03d 1fda 96be
000001b0: 6c1a 123f 7576 58bd f4ea d53e 9f20 d9be
000001c0: 006b f13d 2acb be3e d292 b63e d178 ab3e
000001d0: f7ca a1be c2ac 9ebe 11d5 97be ca84 c23e
000001e0: c987 07bf 086f 393e 7ce2 02bf df30 dc3c
000001f0: 5ca4 d23e 4921 f8be 0057 58bc dc36 fa3e
00000200: c26f b5be 434f 683e 0249 093f f660 103f
00000210: e313 a43e 09f4 b03e 5fb9 b73e c891 c5be
00000220: ffe7 e33e 65fb f23e a868 a93e 8357 a33d
00000230: 5b4a 1fbd 7815 b9be 05b4 5d3e 1734 993e
00000240: 5b1c aabe acea 03bf 333d 8ebe 3df0 4ebd
00000250: 5ed2 f83e 034a 413e 751a f7bd 0d0e a0be
00000260: 46f6 033f e600 b3bd 09d2 cbbe bf36 2fbe
00000270: 3141 953e 812b b8be 6224 ce3e 57bb 233c
00000280: 2a42 e8bd 162a 9abe ef7e c03c cb9a 08bf
00000290: e2f7 90be 3c20 3e3e 2d9b 85be 6ea8 a1bd
000002a0: 5ae2 15be aafb a03b a15e 99be 1235 d73a
000002b0: 2511 6b3e 15d5 a9be 2cd3 373e 4e56 8c3e
000002c0: a49a 343d a8a1 e3bd cf34 a4be 5079 af3c
000002d0: dce4 073f 7324 9c3d b2b9 d2bd d5d7 e8be
000002e0: dd9c 9b3e 9dc7 e83e 1d10 ad3e 9d07 6c3c
000002f0: 5f5b e2be 3d16 fd3e c801 7dbe 8116 bfbe
-0.1042529 -0.0096482355 -0.35082278 -0.27013895 0.3823584 -0.16038637 0.1374257 -0.32951298
0.26243076 9.998382e-05 0.20911385 0.3887736 -0.14534181 0.043643966 0.43057284 0.23080397
-0.48101532 0.23838536 0.21564348 0.1459335 0.13037707 -0.23463511 -0.44977853 0.10449214
0.26260424 0.33657625 0.18216829 -0.28399786 -0.38423887 0.11215862 0.27047837 0.22285788
-0.5088591 0.29394966 0.45209703 -0.5542353 0.11338143 -0.049494423 -0.075743236 -0.45277545
0.279304 -0.15301254 -0.07143104 -0.45092908 0.045562558 0.56786543 -0.52453595 -0.4629937
-0.046713997 -0.4519069 -0.18005925 0.078016825 0.5412652 -0.39712957 0.08283849 0.35457635
-0.108142935 -0.5197523 -0.57183945 -0.15072499 0.4443736 0.54399884 0.35234258 -0.02651319
0.45991534 0.34680134 0.27261695 -0.09122936 -0.37244445 -0.012627323 0.37160993 0.29598856
0.274663 -0.077663235 -0.537419 0.53710526 0.2856639 0.020136282 -0.28871045 -0.05543014
-0.50622886 -0.14813659 0.33635235 0.1714963 -0.36796078 0.5757161 0.1472284 -0.32090494
0.08433698 0.54126763 -0.5032249 0.1045262 -0.12637073 -0.1585182 0.36573717 0.32942697
0.11313064 0.4540732 -0.12158496 -0.3879696 0.31189197 -0.21199691 -0.084564105 -0.18447393
-0.2063376 -0.45471084 0.10164982 -0.29463288 0.57071567 -0.052847344 0.41780818 -0.424077
0.11787987 0.37264377 0.3565889 0.33490613 -0.31600162 -0.3099118 -0.29654744 0.37991935
-0.52941567 0.18108761 -0.5112684 0.026878772 0.4114102 -0.48462895 -0.013204336 0.4886998
-0.35436827 0.22686486 0.53627026 0.5639795 0.32046422 0.34561184 0.35883614 -0.38587785
0.44512936 0.47457424 0.3308766 0.07975676 -0.03888927 -0.36149192 0.21650703 0.29922554
-0.33224759 -0.51529956 -0.27781066 -0.050522078 0.48597997 0.1887589 -0.12065593 -0.3126072
0.5154766 -0.08740406 -0.39808682 -0.17110728 0.291513 -0.3597069 0.40262133 0.009993396
-0.11340745 -0.30110234 0.023498027 -0.53361195 -0.2831412 0.18566984 -0.26094952 -0.078934535
-0.14637128 0.004912813 -0.2995501 0.0016419014 0.22955759 -0.3317038 0.1795165 0.27409595
0.04409279 -0.11114818 -0.3207154 0.021420151 0.53083587 0.0762414 -0.10289325 -0.45477167
0.30393115 0.45464793 0.33801356 0.014406112 -0.44210336 0.4943103 -0.2470771 -0.37321857

fc1.bias f4 [64]
00000000: 1117 ccbe 0fd2 abbd 2d05 c93e 5594 123f
00000010: 3b37 83be a0d8 5b3b c18e f4be 065c c03d
00000020: b3d1 833e beed af3e c022 d8bc 4d60 953e
00000030: 80f6 0abe dc5a 4bbe 5501 46bc c805 98be
00000040: 985e f03e 562d a23c 5f25 d63b 58fb 49be
00000050: 9835 3d3e 66a9 83be 4ebb 8bbe 7a55 1ebe
00000060: 974e 16be 64a0 df3e bff5 aabd 8c93 74be
00000070: 5237 023f 85b7 81be af8c c9be 2117 013f
00000080: 6f46 863e cfba 2ebd d704 0e3f 5670 ad3e
00000090: 1cfb 59be 661b e5be 75f9 d4be 55e4 993d
000000a0: d929 d73e 5a74 0abf acd3 e93e f428 a23e
000000b0: ba51 eabe d59c 083d b23f a83d b539 d9bd
000000c0: 541a 3abe 98a5 d9be 52fe 873d 2a6b e83e
000000d0: 44f2 c73d 3e0f 5fbe c58b e73e 7e43 ddbe
000000e0: fe5b aa3e f8d3 f1be e06b 7bbe afeb 30bd
000000f0: c15e 10bf fbe6 073e 47fc e23e 8cbd 013e
-0.39861348 -0.08389675 0.3926176 0.57257587 -0.25628075 0.0033545867 -0.47765163 0.09392552
0.25745925 0.3436107 -0.026383758 0.29175034 -0.13570595 -0.19858879 -0.0120852785 -0.2969191
0.4694717 0.019797008 0.0065352167 -0.19724786 0.18477476 -0.25715178 -0.2729134 -0.15462294
-0.14678417 0.43677056 -0.083476536 -0.2388441 0.5086566 -0.25335327 -0.39365146 0.50425917
0.26225612 -0.042658623 0.55476135 0.33874768 -0.21287197 -0.44747466 -0.4159657 0.07514254
0.42024115 -0.5408379 0.45669305 0.3167187 -0.45765477 0.03335269 0.08215274 -0.1060671
-0.18174106 -0.4250915 0.066403046 0.4539426 0.097630054 -0.21783158 0.45223823 -0.43215555
0.3327331 -0.47232032 -0.2455287 -0.043193515 -0.56394583 0.13271706 0.44333097 0.12669963

fc2.weight f4 [64, 64]
00000000: 2036 3cbd a6e5 903d 44ca 7dbd 14f5 4cbd
00000010: 8a31 efbd aa7c d2bd 1051 fd3c fae7 913d
00000020: 8c49 02bd 160e c5bd bc9a 993d 40c7 063d
00000030: bc16 5abd 80b6 c73b bac8 9d3d d85d e43d
00000040: 8872 9ebc 4caa d43d e06c 95bc 5829 823d
00000050: e035 44bd a295 f1bd c43d 463d 00b5 873a
00000060: ac79 863d 000c 72bd 48e1 64bd 5669 84bd
00000070: ccec 94bd 9cee 88bd b895 88bc 9e81 83bd
00000080: 78f8 e0bd e076 713c 7600 bcbd 78d5 ffbd
00000090: 3052 0a3d d060 d0bc 2480 e83d 94eb debd
000000a0: 2632 8abd c8f2 dcbc 1ce8 26bd b8fa 82bc
000000b0: 0a95 b8bd c61e 8abd 6ce8 12bd be50 903d
000000c0: a0f0 3ebd 02dc dc3d e4a2 b13d 3afa 933d
000000d0: 1a63 ad3d 80e6 c33a d0a1 46bc d60c 823d
000000e0: 7059 34bc 0c6d 47bd e4dc 62bd 28b5 6cbd
000000f0: 5c87 24bd 60c9 6ebd 188f b03c 28e2 43bd
00000100: 6830 be3c 2c7e 5e3d 605c 29bc ce7a e7bd
00000110: 0a73 8c3d 88b7 4e3d f0a9 fc3c 208e b0bc
00000120: 56d6 d63d a27a dbbd 101b d63d 7254 b13d
00000130: 1458 e63d 5249 d0bd 8093 423d ac15 70bd
00000140: d88b 30bd 4686 f1bd 4299 963d b68c aebd
00000150: 10ee bebc 7277 aebd 866b da3d 06ed b5bd
00000160: 3800 3dbd 746e ddbd faeb b93d c0fa 94bd
00000170: 084a 7fbd c603 84bd 380d 1fbd 0480 6bbd
00000180: 92fb b3bd 2e6a 883d 3efa d9bd f6a4 e33d
00000190: 5092 3d3d 6617 b5bd 4a44 943d 9486 be3d
000001a0: 68b0 9f3c 7c6e c9bd 0cbe c1bd 145e 583d
000001b0: 08e0 95bc 8657 db3d 006c ae3b 664b 803d
000001c0: 42ac 92bd 16d5 ec3d 8ced 2f3d 40c5 ae3d
000001d0: 40f4 3f3c 5a27 dfbd da4d 823d 468e a5bd
000001e0: 88e0 abbd 4660 c23d b2f1 edbd d2f3 96bd
000001f0: 8c06 013d 0007 023a e002 adbb b81d d03d
00000200: 181c bc3c e868 bc3c 9b09 e7bd 3787 ffbd
00000210: 90a1 4b3d 27b3 493c 34b9 81bd 402b f43c
00000220: 9091 a2bd fea3 20bd b8c3 b4bb 3755 993d
00000230: 944f 81bd b009 883c 5860 af3c 9b5d d33d
00000240: 5249 5dbc 70d9 12bd afb0 c93d 6c6a b93d
00000250: 8c03 9f3d 92c3 d2bd 7bde b03d 7ced c73d
00000260: 4d49 51bd ad11 a2bd 408d 07bb 0ecd eebd
00000270: 603b c1bd 1052 c4bd 28a6 eabd a362 16bc
00000280: 0b9a afbd 4892 cd3d ee68 14bd fe63 7abc
00000290: ecad 39b9 806f 85bb 90d4 a3bd 7269 dcbd
000002a0: 3bf8 a93c 8429 40bd aec8 a4bc 3652 aa3d
000002b0: 1616 e2bd 90a4 47bd 8afa a53d 6611 c2bd
000002c0: 9084 1b3d 58e1 c2bc b2ae a63d aad0 353d
000002d0: 2f88 4b3d 82a7 c3bd c137 883d a076 c0bd
000002e0: a4fc 9bbb 3041 c33d 7603 eebd 80e1 f63d
000002f0: a86e a7bc 70d2 a2bd 4fb9 25bc 7c57 d73d
00000300: 0034 7abc 8086 e23d f2e7 e33d 5186 f83d
00000310: 2640 bc3d 06fa df3d 88f3 c9bd 79fa 4ebd
00000320: 528e 8d3d 9318 e3bd 827a 8d3d 89da 583d
00000330: 929f b73d acc1 f93d ec1e ed3d cc24 85bd
00000340: 1d5e f23d 4054 f13d fbb7 ea3d 0e24 97bd
00000350: e63d 66bc 83a7 77bd 41f4 11bd ab63 b83c
00000360: 192f bc3d e02d a3bd 7c98 8a3d bb16 93bb
00000370: 500b d2bd 3cab d0bd b6e1 803d 8f42 96bd
00000380: 3ace c5bc 6da8 aebd ddfd 0e3d dcce 113d
00000390: 2d16 ef3d 8e12 a7bd 5c2a 943d e4e1 98bd
000003a0: 7b20 df3d 94a1 5d3d fa30 dabd 2c01 7f3d
000003b0: 3290 fdbc bc16 bbbd f2cb 82bd cf03 a13d
000003c0: 808d 5bbb db78 97bd 23a4 d33d 3834 99bc
000003d0: 7fd3 9e3d d868 84bd f08a 0cbb 18d7 e63c
000003e0: a600 ccbd 40c9 36bc 2ec9 8c3d 40e6 493c
000003f0: 802f e83b 9d06 0ebd 3aba 1d3d 2ef7 22bd
-0.045950055 0.07075052 -0.061960474 -0.050038412 -0.11679371 -0.10277684 0.030922443 0.07124324
-0.03180842 -0.09621827 0.07500216 0.032904863 -0.053244337 0.0060947537 0.07704301 0.11150712
-0.019341722 0.10384044 -0.018240392 0.06355542 -0.04790294 -0.11796118 0.048398748 0.0010353625
0.06566176 -0.059093475 -0.055878907 -0.06465404 -0.07271728 -0.06686136 -0.016672954 -0.06421207
-0.10984892 0.014737815 -0.091797754 -0.12491888 0.033769786 -0.025436789 0.11352566 -0.10884777
-0.06747846 -0.026971236 -0.0407487 -0.015988693 -0.09012802 -0.06744151 -0.035866186 0.0704665
-0.046616197 0.10784151 0.08673647 0.07225461 0.08466168 0.0014946014 -0.01212354 0.063501045
-0.011007652 -0.04868798 -0.05538644 -0.05778995 -0.04016815 -0.058297515 0.021552607 -0.0478231
0.023216441 0.054319546 -0.010336965 -0.1130272 0.068578795 0.050467998 0.030842751 -0.021552145
0.104901 -0.1071675 0.104543805 0.08658685 0.11247268 -0.10170235 0.04750395 -0.058614418
-0.043102115 -0.11793189 0.0735345 -0.08522932 -0.023306876 -0.08518876 0.1066504 -0.08883099
-0.046142787 -0.10812083 0.09078212 -0.07274389 -0.06232646 -0.06446032 -0.038830966 -0.057495132
-0.087882176 0.06660877 -0.10643433 0.11115448 0.046282113 -0.088423535 0.072395876 0.093030125
0.019493297 -0.09835526 -0.09460077 0.052824095 -0.018295303 0.10710053 0.005322933 0.06264381
-0.07161762 0.115640804 0.04295115 0.08533716 0.011715949 -0.108961776 0.06362505 -0.08083777
-0.08392435 0.09491019 -0.11618365 -0.07370724 0.031500384 0.00049601495 -0.0052798837 0.101619184
0.022962615 0.022999242 -0.11281129 -0.12476962 0.049714625 0.01231078 -0.06334153 0.02980578
-0.0793792 -0.039218895 -0.0055164956 0.074869566 -0.063140064 0.016606182 0.021408245 0.10320588
-0.01350625 -0.035851896 0.09848153 0.090535015 0.077643484 -0.10291208 0.08636185 0.097620934
-0.051095296 -0.07913528 -0.0020683557 -0.11660205 -0.09435153 -0.09585965 -0.11457473 -0.00917879
-0.08574303 0.100376666 -0.03623288 -0.015282629 -0.00017707766 -0.0040721297 -0.079995275 -0.107622996
0.020748248 -0.046914592 -0.020115223 0.08316462 -0.11039369 -0.048740923 0.08104427 -0.09475975
0.03796822 -0.023789093 0.08138789 0.04438845 0.04969042 -0.09553434 0.06651259 -0.09397626
-0.0047603417 0.09533918 -0.11621754 0.120547295 -0.020438507 -0.07950294 -0.010114982 0.10514733
-0.015271187 0.1106081 0.111282244 0.12134994 0.09191923 0.1093636 -0.09860903 -0.050531838
0.06911911 -0.110886715 0.06908132 0.052942786 0.089659825 0.12195143 0.115781635 -0.06501159
0.11834357 0.117836475 0.11460873 -0.07379924 -0.014052844 -0.060462486 -0.03563333 0.022508463
0.09188671 -0.07967734 0.06767365 -0.0044887937 -0.10256064 -0.1018891 0.06293051 -0.07336914
-0.024146188 -0.085282184 0.03491007 0.035597667 0.116741516 -0.08157836 0.07234642 -0.0746496
0.10894867 0.05410917 -0.10653873 0.062256977 -0.030952547 -0.091351956 -0.06386556 0.078620546
-0.0033501089 -0.07396098 0.10334041 -0.018701658 0.077551834 -0.0646531 -0.0021445118 0.028178737
-0.09961061 -0.01115638 0.068743095 0.012322962 0.0070857406 -0.034674276 0.038507678 -0.03978651

fc2.bias f4 [64]
00000000: c2da 90bd 38a7 9a3d 7fdc a93c 7c25 043e
00000010: 2eb5 bb3d a5be c63d 68eb 003e 12d6 c83d
00000020: ac36 e23d a80c 923c 1049 e53d 3e83 7dbd
00000030: c313 ccbc 30af b53d c158 5abc fea8 143b
00000040: 8ff3 013e c2f8 893d a6b3 b6bc 4c90 d3bc
00000050: 0220 a63d 1f55 76bc c92b 503d 243d c43c
00000060: 4826 e53d e5d5 cabd 5ee7 87bd 26d1 db3d
00000070: a387 03bd 7ba7 5d3d c16f a13d 5df5 c2bd
00000080: 82a0 ae3d a474 7cbd 188a 893d e66f be3b
00000090: 6f4f 173d 3f13 9e3d a9a6 adbd bfe4 85bd
000000a0: a35a 15bd ae67 d43d 384f 11bd 1a9f d3bd
000000b0: 26e8 e33d 0041 2d3a 80c8 16bc f266 9cbc
000000c0: b2db c3bd eaf7 1f3d d0eb 883c afd8 b03c
000000d0: cc53 0cbd b454 ba3d 7f37 c73d dbb5 c13d
000000e0: 9ec7 b83d c0d8 1f3c 1c83 523d 5275 353d
000000f0: f697 9ebd e746 c8bd fc06 d63d 861c c73d
-0.07072975 0.07551426 0.020735024 0.12904924 0.09165417 0.09704331 0.125898 0.09806456
0.11045584 0.0178283 0.11195576 -0.06189274 -0.024911767 0.08871305 -0.013326825 0.0022683735
0.12690566 0.067369 -0.02230246 -0.025825642 0.08111574 -0.015034943 0.050823007 0.023954935
0.11188942 -0.099040784 -0.06635927 0.10733251 -0.032111775 0.0541148 0.078826435 -0.095194556
0.08526708 -0.061634675 0.067157924 0.005811679 0.03694099 0.07718515 -0.084790535 -0.065377705
-0.03646339 0.10371338 -0.03547594 -0.103330806 0.11128263 0.0006609112 -0.009203076 -0.019092057
-0.09563388 0.03905479 0.016714007 0.021587698 -0.034259602 0.09098187 0.09727382 0.09458514
0.09022449 0.009756267 0.051394567 0.04430134 -0.07743828 -0.097791485 0.10450551 0.09722237

fc3.weight f4 [1, 64]
00000000: 26af a5bd 3499 d83d a64e 8fbd 62be a23d
00000010: bf3d f5bd e75c 15bd d320 5a3d 46e4 003e
00000020: 9a84 ba3d 9c73 c2bd 76e3 ce3d 8da6 f73b
00000030: d3bf 2c3d 9177 fc3d d5de c93c 3720 b4bc
00000040: 66b2 b23d a469 3bbd d918 423c 1543 b93d
00000050: e10c 97bd e09d 4a3d ca0e 18bd aab5 503d
00000060: b07b 943d 36d0 843c 667f 8e3d aeb7 823d
00000070: 6f0a febc 90b3 9ebd e099 493d dc03 8e3d
00000080: 8414 3bbd c022 273d 9f02 bcbd c225 e2bd
00000090: a330 7f3c 289b 2bbc 5f4e 693d e98e 813d
000000a0: 38f7 d9bd cfa0 e5bd 18cd c53d ae22 9bbd
000000b0: b5e4 21bd c8b6 2e3d a077 65bc ac30 2e3d
000000c0: 781b dfbd 39c1 ed3c 6c1b 363d 9b78 ca3c
000000d0: d853 abbc d93f a53d dc07 f6bd 2bf4 17bd
000000e0: 845b dfbb ba96 963d 484e 823d ce5e 41bd
000000f0: 60cb b93c 8850 e7bc e4fd 843c 22d6 623d
-0.080900475 0.10576096 -0.06997423 0.07946469 -0.11974668 -0.03646555 0.05325396 0.1258708
0.09107323 -0.09494707 0.101019785 0.007557696 0.042175125 0.12327493 0.024642387 -0.021988017
0.08725433 -0.045755044 0.011846744 0.09045998 -0.07375503 0.049466968 -0.03712348 0.0509545
0.07250154 0.016212564 0.06957893 0.0638269 -0.031010835 -0.077490926 0.049219012 0.0693433
-0.045673862 0.040804625 -0.091801874 -0.11042358 0.015575561 -0.010474004 0.056959506 0.06326086
-0.10642856 -0.112123124 0.09658259 -0.07574974 -0.039524753 0.042654783 -0.014005572 0.042526886
-0.10893911 0.0290228 0.044459745 0.024715712 -0.020914003 0.080688186 -0.12013218 -0.03709809
-0.0068163294 0.073529676 0.06362587 -0.047209553 0.022679985 -0.028236642 0.016234346 0.055379994
