public/api/measles_model.pth (torch, 20612 bytes, 5 tensors)

fc1.weight f4 [64, 3]
0	0xbd33a38b	-0.04385714
1	0xbe278b2b	-0.16361682
2	0x3e94854c	0.29007947
3	0xbd96c222	-0.07361247
4	0xbf0c7ab0	-0.54874706
5	0x3f091042	0.5354043
6	0x3e652fc7	0.22381507
7	0xbd611e3d	-0.054960478
8	0x3ea3a0b8	0.31958556
9	0x3ea04ceb	0.31308684
10	0xbd90a7dc	-0.07063267
11	0xbe72e2ef	-0.23719381
12	0x3eb42220	0.35182285
13	0xbeb9b9bf	-0.36274526
14	0x3afbae97	0.0019201812
15	0xbe49e592	-0.1971648
16	0xbecc8168	-0.3994248
17	0x3e2d5eff	0.1693077
18	0x3e8925fe	0.26786798
19	0x3e40d31e	0.18830535
20	0xbea51bf2	-0.32247883
21	0xbe7d0c20	-0.24711657
22	0xbecd4efe	-0.4009933
23	0x3eb50b1e	0.35360044
24	0xbf0f068a	-0.5586935
25	0x3e9fec69	0.31235054
26	0xbf0b2235	-0.5434907
27	0xbe267870	-0.16256881
28	0x3f0a6a73	0.5406868
29	0xbedfc043	-0.43701372
30	0xbee67ca0	-0.45016956
31	0x3b90aaca	0.004414891
32	0x3ee29dcc	0.44261014
33	0x3ebed3bc	0.37270916
34	0x3ef024a1	0.46902946
35	0xbed55faa	-0.41674548
36	0xbef4872d	-0.4775938
37	0xbebf5a95	-0.37373796
38	0xbe3c0735	-0.18362124
39	0xbec6b4d7	-0.38809845
40	0x3e831d07	0.25608084
41	0xbc33a1a6	-0.010963833
42	0xbf0f77e6	-0.56042325
43	0xbe06b7a2	-0.13155988
44	0xbe9392bd	-0.2882289
45	0xbe4776f9	-0.19478978
46	0xbdc1b303	-0.09457972
47	0xbe8ecbe9	-0.27889946
48	0xbed4e972	-0.41584355
49	0x3ef84244	0.48488057
50	0xbe8a5460	-0.27017498
51	0xbece55c6	-0.40299815
52	0xbdbd1a7f	-0.09233569
53	0x3e82c6d4	0.2554232
54	0xbe93805e	-0.28808874
55	0xbecee086	-0.40405673
56	0x3f094a4f	0.5362901
57	0xbe42152d	-0.1895339
58	0xbe0596a8	-0.13045752
59	0xbe389585	-0.18025787
60	0xbeaef3f9	-0.3417051
61	0xbe432453	-0.19056825
62	0xbe885a76	-0.26631516
63	0xba14dfca	-0.0005679099
64	0x3ea128fa	0.31476575
65	0x3e48241e	0.19545028
66	0xbe29a190	-0.16565537
67	0x3e7c5f69	0.24645771
68	0xbef1add6	-0.4720294
69	0x3ecab4e2	0.39591128
70	0xbea2fefd	-0.31835166
71	0x3e69bb6e	0.22825405
72	0xbe23c66b	-0.15993659
73	0xbf06ff92	-0.5273372
74	0x3e4e2f33	0.20135193
75	0x3eb06b6f	0.34456965
76	0x3e8965d0	0.2683549
77	0x3eb55894	0.35419142
78	0xbeda6256	-0.4265315
79	0xbd0c6748	-0.034278184
80	0xbe249b9d	-0.16074987
81	0xbeb3b87c	-0.35101688
82	0xbee98893	-0.4561201
83	0x3ec67821	0.38763526
84	0xbdcfa790	-0.10139382
85	0xbcf80adc	-0.030278616
86	0x3daa5a4c	0.08318004
87	0xbe220ba6	-0.15824756
88	0x3f03313e	0.5124701
89	0x3eeffce5	0.4687263
90	0x3e7a8b86	0.24467286
91	0xbea90b69	-0.33016518
92	0xbd4d1ac4	-0.050074354
93	0x3e8a1070	0.26965666
94	0xbefad941	-0.48993877
95	0xbee58066	-0.44824523
96	0xbf0cc8fb	-0.5499417
97	0x3eb5c8f5	0.3550488
98	0xbe9fc284	-0.3120309
99	0x3ee0b2f3	0.43886527
100	0xbef5e7fb	-0.4802855
101	0xbe0d41e7	-0.13794671
102	0x3d8362ed	0.06415353
103	0x3d60fb56	0.054927193
104	0x3ef83491	0.48477605
105	0xbd780597	-0.060552206
106	0x3e80a38b	0.25124773
107	0xbe8cf853	-0.27533206
108	0x3e7d8711	0.24758555
109	0x3e32b190	0.17450547
110	0xbca50ebc	-0.020148627
111	0x3ef2a3e7	0.47390673
112	0xbd20bc51	-0.039242093
113	0xbeac55be	-0.33659166
114	0x3e851154	0.25989783
115	0xbec12e46	-0.37730616
116	0xbde41b8f	-0.11138069
117	0x3f0fed4a	0.5622145
118	0xbe2f82d7	-0.17139755
119	0x3ead66d8	0.33867526
120	0x3e7da417	0.24769627
121	0x3e78255a	0.24232998
122	0xbef92a37	-0.4866502
123	0xbea80dbc	-0.32822978
124	0xbe6d5b89	-0.23179449
125	0xbeabdf12	-0.33568627
126	0xbec75759	-0.38933828
127	0xbeddc7cb	-0.43316492
128	0x3ec97471	0.3934665
129	0xbd89ab78	-0.06722158
130	0x3ec77a37	0.3896043
131	0xbde937ba	-0.11387582
132	0x3eb2ded6	0.34935635
133	0x3f038995	0.5138181
134	0x3e11f98f	0.14255355
135	0x3ebbfdce	0.36717075
136	0xbef3347b	-0.47500977
137	0x3ed9137b	0.42397675
138	0xbef52e51	-0.478869
139	0x3e613861	0.21994163
140	0xbccfd806	-0.025371563
141	0xbed2eb69	-0.4119523
142	0xbf0c74f1	-0.5486594
143	0xbecb1ca0	-0.39670277
144	0xbe2430fb	-0.1603431
145	0x3dd17c35	0.10228769
146	0x3da9a8a2	0.08284117
147	0x3d8ff266	0.07028656
148	0x3e1225d6	0.14272246
149	0xbe8b2edf	-0.27184197
150	0x3e8d3f4a	0.27587348
151	0x3cf7c03d	0.030243034
152	0xbdef50df	-0.11685347
153	0xbe966a86	-0.29378146
154	0xbf0a6017	-0.5405287
155	0x3f07eb33	0.5309326
156	0x3e1bd076	0.1521624
157	0x3f0d3724	0.5516226
158	0x3eda7d5f	0.42673776
159	0xbef00bef	-0.46884105
160	0x3eea9506	0.4581682
161	0xbef2e36f	-0.47439143
162	0xbe8efca1	-0.27927116
163	0x3e8c3dba	0.27390844
164	0xbe7ad257	-0.24494301
165	0x3ef5ecd2	0.48032242
166	0x3eb596cd	0.35466614
167	0x3da1c1a9	0.07898266
168	0xbe288250	-0.1645596
169	0xbed79230	-0.4210372
170	0x3eb82aaa	0.3597005
171	0x3ecb1ce9	0.39670494
172	0xbeb605d4	-0.35551322
173	0xbefb11ad	-0.49036923
174	0xbf062214	-0.5239575
175	0xbef46b48	-0.477381
176	0xbec71f58	-0.388911
177	0xbea70752	-0.32622772
178	0xbe2b6800	-0.16738892
179	0xbe2eecf5	-0.1708258
180	0x3e625d64	0.22105938
181	0xbe74d760	-0.23910284
182	0xbd85d2e3	-0.06534364
183	0x3efcdab7	0.49385616
184	0xbe8170f5	-0.25281492
185	0xbebc0373	-0.36721382
186	0xbe88411c	-0.26612175
187	0x3e0196fe	0.12655255
188	0x3e06725e	0.13129565
189	0x3e59fc34	0.21287614
190	0xbead10be	-0.33801836
191	0x3cc9c63b	0.024630656

fc1.bias f4 [64]
0	0x3edc0f8d	0.42980614
1	0xbeea9f43	-0.45824632
2	0xbece3599	-0.40275267
3	0xbda8c18f	-0.08240043
4	0x3eb3988d	0.35077325
5	0x3e27a662	0.16372064
6	0x3ecdff99	0.40234068
7	0xbef471c9	-0.4774306
8	0xbeca4953	-0.39509067
9	0x3ed2ccfb	0.41172013
10	0x3e150ef4	0.14556485
11	0x3e63baf5	0.22239287
12	0xbe71fe47	-0.23632155
13	0x3ee4c072	0.44678074
14	0x3e4085bf	0.1880102
15	0x3e28b36c	0.16474694
16	0xbec1f8b9	-0.37885073
17	0xbefe0bb6	-0.4961831
18	0xbd281500	-0.041035652
19	0xbefc1b15	-0.49239412
20	0x3d353a8d	0.04424529
21	0x3e195b78	0.14976299
22	0xbd9ce0fb	-0.07660099
23	0x3eee87ed	0.46588078
24	0xbf01083c	-0.5040319
25	0x3e54fd0a	0.20799652
26	0x3e5a0a0e	0.21292898
27	0xbeedd441	-0.46451
28	0xbef49c9c	-0.47775733
29	0x3e7b0873	0.24514942
30	0x3f07fec8	0.5312314
31	0xbebea3b5	-0.37234274
32	0x3e342ba2	0.1759477
33	0xbf13b2c3	-0.57694644
34	0x3ec6e755	0.38848367
35	0xbed2cc0b	-0.41171297
36	0xbe571728	-0.21004927
37	0xbedda698	-0.43291163
38	0x3de09029	0.10964996
39	0xbec16765	-0.37774196
40	0x3e32f75c	0.17477173
41	0xbeab5f50	-0.33471155
42	0xbf0086dc	-0.5020578
43	0x3e8eaf5b	0.2786816
44	0x3d8cc2b8	0.06873077
45	0x3e2d9ec4	0.16955096
46	0xbeb6e029	-0.35717896
47	0x3ecf2640	0.4045887
48	0xbd0ae11d	-0.03390609
49	0x3dadbf30	0.08483732
50	0x3d879c1c	0.066215724
51	0xbe4efb82	-0.2021313
52	0xbd32e4f0	-0.043675363
53	0xbf03908f	-0.51392454
54	0x3e9d5d47	0.30735227
55	0xbea5d179	-0.32386377
56	0xbe9fe868	-0.31232
57	0x3c976583	0.018481022
58	0x3e5bb6dd	0.21456476
59	0x3e46c1d3	0.19409876
60	0xbdc458d0	-0.09587252
61	0xbd81c657	-0.063366584
62	0x3e76a76d	0.24087305
63	0xbec2071d	-0.37896052

fc2.weight f4 [64, 64]
0	0xbd9d7314	-0.07687965
1	0xbd31cda4	-0.043409005
2	0x3cf01c70	0.029310435
3	0xbdd92ba0	-0.10604024
4	0xbce0c830	-0.027439207
5	0xbde6c036	-0.1126713
6	0xbd849112	-0.064729825
7	0x3dfd90b0	0.123811126
8	0xbdbfb388	-0.09360415
9	0xbdc256a6	-0.09489183
10	0xbb404ec0	-0.0029343814
11	0xbdba05ec	-0.09083161
12	0x3cce0418	0.025148436
13	0x3df588f4	0.11989012
14	0xbd0f4608	-0.034978896
15	0xbd4acbf4	-0.04951091
16	0xbd7677f4	-0.06017299
17	0xbbffe640	-0.0078094304
18	0xbde7fb2e	-0.113272056
19	0x3d5ed31c	0.05440055
20	0xbdf9d862	-0.12199475
21	0xbc6825a0	-0.014169127
22	0x3da05d68	0.07830316
23	0xbc4a6c10	-0.012354866
24	0xbdb396cc	-0.087689966
25	0xbdda94dc	-0.10672924
26	0x3cbd7198	0.023125455
27	0xbdbc050a	-0.091806486
28	0xbd8c2674	-0.06843272
29	0xbd23b160	-0.03996408
30	0xbcc1d9a0	-0.023663342
31	0xbd718798	-0.058967203
32	0x3de16baa	0.110068634
33	0x3dc6b792	0.09702982
34	0xbdbc261e	-0.09186958
35	0x3da096a4	0.078412324
36	0xbbdbe4a0	-0.006710604
37	0x3b452880	0.0030083954
38	0x3dd48cb4	0.103783995
39	0xbd3a0d5c	-0.045422897
40	0xbd85fe6c	-0.06542668
41	0xbdc6fb72	-0.09715928
42	0x3ddeec92	0.10884966
43	0x3ce52450	0.027971417
44	0x3d8bc43c	0.06824538
45	0xbdd88d38	-0.1057381
46	0xbd99327a	-0.07480331
47	0xbd626c68	-0.055279166
48	0x3dbe3caa	0.092889145
49	0x3db5e8e2	0.088823095
50	0x3d6615d4	0.05617316
51	0x3d945252	0.07242264
52	0x3df5e676	0.120068476
53	0xbd8f5cc2	-0.07000114
54	0x3ddabacc	0.1068016
55	0x3de30378	0.11084646
56	0xbd2e82b8	-0.042605132
57	0xbdc109c8	-0.09425694
58	0xbd2abb94	-0.041682795
59	0xbc8b6ca0	-0.01701957
60	0x3dc5234e	0.096258745
61	0xbd068db8	-0.032849997
62	0xbd7cae58	-0.061689705
63	0x3cf4d9a8	0.029888943
64	0xbdce3335	-0.10068361
65	0xbd355998	-0.044274896
66	0xbdba2f88	-0.09091097
67	0xbdd7862b	-0.105236374
68	0x3df360d1	0.11883701
69	0xbd50fb76	-0.05102106
70	0xbd16e628	-0.036840588
71	0xbddc146e	-0.10746084
72	0x3cc101b8	0.02356039
73	0xbd9600d7	-0.07324379
74	0x3df93672	0.12168588
75	0x3d9db7ac	0.07701048
76	0xbd9c444a	-0.076302126
77	0x3d28d109	0.041214976
78	0x3d136135	0.035981376
79	0xbdd1cfba	-0.10244699
80	0x3decf38c	0.115698904
81	0xbd37b21c	-0.044847593
82	0x3d768cb6	0.060192786
83	0xbdf039b8	-0.11729759
84	0x3df7bb51	0.12096275
85	0xbdb77ef7	-0.089597635
86	0xbd96654a	-0.07343538
87	0xbcb7d433	-0.022440052
88	0xbdc1c218	-0.094608486
89	0x3da2db03	0.079519294
90	0xbd658c37	-0.056041922
91	0xbd2fbd70	-0.04290527
92	0xbd6e1d24	-0.05813326
93	0x3de42661	0.11140133
94	0x3dae42eb	0.08508857
95	0x3d9eb332	0.077490225
96	0x3d13b6d4	0.03606303
97	0x3dd815b6	0.10551016
98	0x3d438df5	0.047742803
99	0x3dfff838	0.12498516
100	0x3db09069	0.08621294
101	0x3d0c6f22	0.034285672
102	0xbb910202	-0.004425288
103	0x3df52144	0.119692355
104	0xbd597185	-0.053086776
105	0xbcba37d0	-0.022731692
106	0x3d99682c	0.07490572
107	0x3deba41e	0.11505912
108	0x3d218c8a	0.03944067
109	0xbb0251bb	-0.001988514
110	0x3dad0c5c	0.08449623
111	0xbdafd06a	-0.08584674
112	0x3df5716a	0.11984523
113	0x3dd04b80	0.101706505
114	0xbde49598	-0.11161345
115	0x3d6b7721	0.057486657
116	0x3dd4032a	0.10352166
117	0x3cd0d288	0.025491014
118	0x3df3914f	0.1189295
119	0xbdcb3879	-0.09922881
120	0x3de680e6	0.11255054
121	0xbde846a3	-0.11341598
122	0xbd31be56	-0.04339441
123	0xbd6aaf4a	-0.057296075
124	0xbe005225	-0.12531336
125	0xbd2f8e58	-0.04286036
126	0xbd7cc392	-0.061709948
127	0x3dc6d486	0.097085044
128	0x3de8f7f5	0.11375419
129	0x3c216630	0.009851024
130	0xbd1a1554	-0.037617996
131	0x3d593e50	0.05303794
132	0x3d968928	0.07350379
133	0x3d6d0508	0.057866126
134	0x3da72924	0.08162144
135	0x3dc052fa	0.093908265
136	0x3cf020d0	0.029312521
137	0x3d50da47	0.050989415
138	0xbde9f27e	-0.11423205
139	0xbd0f45c0	-0.03497863
140	0x3c90bb90	0.017667562
141	0xbd8aa7e2	-0.06770302
142	0xbdeff7c0	-0.117171764
143	0xbc8f7a90	-0.017514497
144	0xbce821c8	-0.02833642
145	0x3da55b6e	0.080740795
146	0x3d932ac0	0.07185888
147	0xbdfb50ae	-0.12271248
148	0xbdc9d246	-0.098545596
149	0xbdaef084	-0.085419685
150	0xbdf91208	-0.12161642
151	0xbd914571	-0.07093323
152	0xbcc1b148	-0.023644105
153	0x3dcbb441	0.0994649
154	0xbc007120	-0.007839471
155	0x3c89cee8	0.016822293
156	0x3b4a0bc0	0.0030829757
157	0xbd026253	-0.03183205
158	0xbdc454f5	-0.09586517
159	0x3d52bed4	0.05145152
160	0xbd9e3c7e	-0.07726382
161	0x3d6265f8	0.055273026
162	0xbd4673b9	-0.048450205
163	0xbd336af0	-0.043803155
164	0xbd6f6376	-0.058444463
165	0xbcd9c255	-0.026581923
166	0x3d57c3c4	0.05267693
167	0xbdbd42f4	-0.09241286
168	0xbdb7ea01	-0.089801796
169	0x3de623d0	0.112372994
170	0x3db1f1ba	0.08688684
171	0x3d92ee5c	0.0717437
172	0xbdfac680	-0.12244892
173	0x3df41e0c	0.119197935
174	0x3dfa99b6	0.12236349
175	0xbddd9972	-0.10820283
176	0xbd1dcab4	-0.03852339
177	0xbd914d0b	-0.07094773
178	0x3d9a2b2d	0.075277664
179	0xbdee18ac	-0.116257995
180	0xbdd6d863	-0.10490491
181	0xbdb7df3c	-0.089781255
182	0xbd0cbaf0	-0.034357965
183	0x3cecc449	0.02890219
184	0xbdd5ed70	-0.10445678
185	0xbd5a42ea	-0.05328647
186	0xbd1c8f94	-0.038222864
187	0x3c1f2010	0.009712234
188	0x3d7c1444	0.061542764
189	0x3cf7e461	0.030260267
190	0x3d76552c	0.06013982
191	0xbdf4b5a6	-0.11948709
192	0x3da56277	0.08075421
193	0x3dd35f58	0.1032092
194	0xbd9150a0	-0.07095456
195	0xbd6186bc	-0.055060133
196	0x3b2a2be5	0.0025966105
197	0xbda00f1c	-0.07815382
198	0x3d394aa7	0.04523721
199	0x3d9b7b08	0.07591826
200	0xbc33f330	-0.010983273
201	0x3d0eee10	0.034895003
202	0xbdf12953	-0.1177546
203	0xbd85117e	-0.06497477
204	0xbdcb2a5e	-0.0992019
205	0xbc88a503	-0.016680246
206	0xbcaae5a8	-0.020861462
207	0xbdec020f	-0.1152383
208	0xbda825fa	-0.082103685
209	0xbc7dbec0	-0.015487373
210	0xbdc483f6	-0.09595482
211	0xbd262f28	-0.040572315
212	0x3cfb9800	0.030712128
213	0x3cb319ce	0.02186289
214	0xbcbd2d38	-0.023092851
215	0x3c2ad23e	0.010426102
216	0xbcd956c0	-0.026530623
217	0xbddacca0	-0.1068356
218	0xbd80524f	-0.06265699
219	0x3cbd3b18	0.023099467
220	0x3dc53d38	0.09630817
221	0xbd5bf2de	-0.053698413
222	0xbc09b525	-0.008405005
223	0x3d02df8c	0.031951472
224	0x3be7c060	0.0070724934
225	0x3d04d934	0.032433704
226	0x3dd65ccf	0.104669206
227	0x3ddd5cdc	0.10808727
228	0xbdea809c	-0.114503115
229	0x3df0f520	0.11765504
230	0x3ddf8594	0.1091415
231	0xbd8b3f38	-0.067991674
232	0xbdb05ff2	-0.0861205
233	0x3c9e3d68	0.01931639
234	0x3dfbade8	0.12289029
235	0xbc9fc7d5	-0.019504467
236	0xbdf5dbe7	-0.12004834
237	0x3d89ecf5	0.06734649
238	0xbd69dae8	-0.05709353
239	0x3cd15445	0.025552878
240	0x3d8368ea	0.06416495
241	0xbd7a5b68	-0.061122328
242	0xbe00be75	-0.12572654
243	0x3d0a6c4c	0.033794686
244	0xbd74d99b	-0.059777837
245	0x3dc29e98	0.095029056
246	0x3c8d7484	0.017267473
247	0xbda886ab	-0.08228811
248	0x3c641390	0.01392068
249	0x3ddc72e2	0.107641
250	0xbd75151d	-0.05983459
251	0xbe004dec	-0.12529725
252	0xbd345efb	-0.044035893
253	0xbd51a923	-0.051186692
254	0xbddaa4ba	-0.1067595
255	0x3dab0b2a	0.08351739

fc2.bias f4 [64]
0	0xbd9149c4	-0.07094148
1	0xbd9d4e64	-0.076809675
2	0xbd689c2f	-0.056789573
3	0x3a429ab5	0.0007423566
4	0xbdc07f4f	-0.09399282
5	0x3dba0074	0.09082118
6	0x3ccf840d	0.025331521
7	0xbcbeba5d	-0.023282224
8	0xbdcf7572	-0.10129823
9	0x3b3ed946	0.0029121204
10	0xbd76e1c8	-0.060273916
11	0xbde99b2b	-0.11406549
12	0x3daea286	0.08527093
13	0xbdc4082d	-0.09571872
14	0x3dbc39b7	0.09190696
15	0xbdc4c4e1	-0.09607864
16	0xbcddce33	-0.027075863
17	0xbde46fa0	-0.11154103
18	0x3df19b1b	0.11797162
19	0xbd383d89	-0.04498056
20	0x3db15950	0.08659613
21	0x3debb181	0.115084656
22	0x3dca3264	0.098728925
23	0x3de5dd87	0.112238936
24	0xbcc739c0	-0.02431953
25	0x3c88e920	0.016712725
26	0x3d1e4ced	0.03864758
27	0xbda702a2	-0.08154799
28	0xbb1b9274	-0.0023738416
29	0xbd0de86e	-0.03464549
30	0x3dc71927	0.09721594
31	0xbb3a4116	-0.0028420142
32	0xbddf744c	-0.10910854
33	0x3c3f3030	0.011669204
34	0xbdfe5726	-0.12418966
35	0x3c3a50d0	0.011371806
36	0x3dc57870	0.09642112
37	0x3bd78a2b	0.00657775
38	0xbd27eb63	-0.040995967
39	0xbc34e8d9	-0.011041843
40	0xbdd2a926	-0.10286169
41	0xbde3c8f6	-0.11122315
42	0x3ce0587c	0.027385943
43	0x3da82cb0	0.082116485
44	0xbda331e6	-0.07968502
45	0x3d9d5fc3	0.07684281
46	0x3dd4cab4	0.10390225
47	0xbdd2060e	-0.10255061
48	0xbd974443	-0.07386067
49	0x3ca84ce8	0.020544484
50	0xbde48774	-0.11158648
51	0x3cc99ff8	0.024612412
52	0xbd8123ee	-0.06305681
53	0xbbccf7c0	-0.00625512
54	0x3dd97ca5	0.10619477
55	0x3c244b01	0.010027648
56	0xbd27ceb4	-0.04096861
57	0x3d8b28cc	0.06794891
58	0xbdce8414	-0.10083786
59	0x3b64c450	0.003490705
60	0x3ce859c6	0.02836312
61	0xbd8eb761	-0.069685705
62	0x3d031009	0.031997714
63	0xbdb3bc8e	-0.08776198

fc3.weight f4 [1, 64]
0	0xbd97758e	-0.07395469
1	0x3d66c7c4	0.056342855
2	0x3df80b44	0.12111524
3	0x3dcd3841	0.10020495
4	0xbd1107e3	-0.035407912
5	0x3dbfa9ad	0.09358535
6	0x3df34601	0.118785866
7	0xbdf696e7	-0.12040501
8	0x3c5603d9	0.013062441
9	0x3d7dcfa9	0.06196562
10	0x3b9c0d60	0.0047623366
11	0xbc8be364	-0.017076202
12	0x3d369491	0.044575278
13	0xba9c84e9	-0.0011941466
14	0xbd42399c	-0.04741822
15	0x3d367d5d	0.04455315
16	0x3d869f74	0.06573382
17	0xbd59fa60	-0.05321729
18	0x3d1cef79	0.038314316
19	0x3d906ee3	0.070524
20	0xbdb51a90	-0.08842957
21	0xbdc3944f	-0.09549772
22	0x3ba552df	0.0050452794
23	0x3ddbbdaa	0.10729535
24	0x3d89aed6	0.067228004
25	0xbdc5f9f8	-0.096668184
26	0x3d64d0ef	0.055863317
27	0x3cdca295	0.026932994
28	0x3cdc3a38	0.02688323
29	0x3dbf8c0e	0.09352885
30	0xbdc03e2d	-0.09386859
31	0xbd4489c4	-0.047982946
32	0xbde1f0c0	-0.110322475
33	0xbcd99b63	-0.026563352
34	0x3ab07800	0.0013463497
35	0x3da60408	0.08106238
36	0xbdce60c9	-0.10077054
37	0xbbb4b39b	-0.0055145747
38	0xbdfc37b0	-0.12315309
39	0x3d6b8b35	0.057505805
40	0x3dc32469	0.09528429
41	0x3c91fa30	0.017819494
42	0xbc7c0d79	-0.0153840715
43	0x3dbcb206	0.09213643
44	0x3c65f6b0	0.014035866
45	0x3dea4143	0.11438229
46	0xbc213c13	-0.009840983
47	0x3cb615c1	0.02222717
48	0x3b868e93	0.0041063516
49	0x3ac01908	0.0014655897
50	0x3dc94e7c	0.09829423
51	0xbd9f118e	-0.0776702
52	0xbd2ba078	-0.04190108
53	0xbd88d57e	-0.066813454
54	0xbd936824	-0.071975976
55	0xbd998b7a	-0.07497306
56	0xbd9c368a	-0.0762759
57	0x3d9fb62c	0.077984184
58	0x3dfb5481	0.12271977
59	0x3db28249	0.08716256
60	0xbc0a9299	-0.008457803
61	0xbd762b8a	-0.060100116
62	0x3db75eab	0.08953603
63	0x3b9b8e60	0.004747197
