public/api/measles_model.pth (torch, 20356 bytes, 5 tensors)

fc1.weight f4 [64, 2]
000000 fb 61 c5 3e b8 40 1a 3f 9a e6 ed 3e a3 b0 2d bf
       0.38551316 0.60255 0.46464998 -0.6784765
000010 a6 71 82 be d2 be 4c 3d 5b b6 1e be 6d 8d 9b ba
       -0.25477332 0.049986668 -0.1549925 -0.001186771
000020 8e 39 1b bf a0 8d 1f 3f dc 1d 1f bf 5e cb 27 be
       -0.60634696 0.6232548 -0.62154937 -0.16386172
000030 0a ad 0d 3e de ce 29 3f e6 88 9d 3e cc dc af 3e
       0.1383554 0.6633128 0.30768508 0.34348142
000040 4a 8e be 3e b9 4e bc be 81 fc 46 be bf 2b 90 be
       0.37217933 -0.3677881 -0.1943226 -0.28158376
000050 1f 9d 33 3f 99 ca a4 bd 07 38 ca be dd 21 33 be
       0.7016162 -0.08046455 -0.3949587 -0.17493387
000060 93 ba cb 3e 12 67 e9 3e 69 b1 2c 3f 8a 0f 97 3e
       0.39790782 0.4558645 0.67458206 0.29504043
000070 d6 8f b2 be bc 73 fe 3d 68 aa c3 be 7a fe 23 3f
       -0.34875363 0.12424418 -0.38215947 0.64060175
000080 79 b4 21 bf 11 58 96 3e b3 d5 2f bf f7 c2 04 bf
       -0.63166004 0.29364064 -0.68685454 -0.5185999
000090 70 a2 4e be e4 eb b4 be 57 88 22 bf b3 0d 8b bc
       -0.20179152 -0.3533622 -0.6348929 -0.016974306
0000a0 b0 a8 10 3f b7 fe e2 3c 55 c9 3c be af e1 01 be
       0.56507397 0.027709348 -0.18436177 -0.12683748
0000b0 d7 c5 fa 3d ff b4 28 bf 1b 06 00 3f 38 aa 81 3e
       0.12244766 -0.6590118 0.50009316 0.2532518
0000c0 8b 17 83 be e7 3d 1b bf ab bb 28 bf bc 70 64 bd
       -0.256039 -0.6064133 -0.6591136 -0.055771574
0000d0 9c 22 08 bf b3 c9 06 bf bf cb 26 bf 55 4c ea 3d
       -0.5317781 -0.5265152 -0.6515464 0.114403404
0000e0 2d 32 4b be 24 7c f4 bc 54 ff 8f 3e a4 b1 28 3f
       -0.1984336 -0.029844351 0.28124487 0.6589606
0000f0 f5 3d 68 be 94 f1 84 3e 3c 2e 15 bf 71 0f 36 bd
       -0.22679885 0.2596556 -0.58273673 -0.04444832
000100 6d 36 e9 be 3b d2 f0 3e 4c fe ec 3e 2b 16 b0 be
       -0.45549336 0.47035393 0.46287763 -0.34391913
000110 2d 83 0d 3e 8b 15 13 3e de ce 33 bf cb e2 a2 3c
       0.13819571 0.14363687 -0.7023753 0.019883534
000120 fe 86 23 bf b6 07 07 bf c0 ef 93 3e 37 22 2e 3e
       -0.63877857 -0.5274614 0.28893852 0.1700524
000130 af 4d ec 3e 5f 3b 8c be d6 fb 84 3e 52 23 bc 3e
       0.46153018 -0.27389047 0.25973386 0.36745697
000140 d0 87 2c 3f 09 d6 67 3e 8a f1 00 bf 16 bc 4f 3d
       0.67394733 0.22640242 -0.5036856 0.050716482
000150 b4 ee c6 be d4 57 8c be b9 11 b5 3e b0 5b 00 3f
       -0.3885399 -0.27410758 0.35365084 0.50139904
000160 83 20 27 be b1 20 0f bf c3 2a 2c bf fc 2d ce bd
       -0.16320996 -0.5590926 -0.6725275 -0.100673646
000170 18 fb 2e bf 5d 39 2d bf 4e 7e 94 be 26 eb c5 3e
       -0.6835189 -0.67665654 -0.29002613 0.38655967
000180 e4 75 25 3f a3 f2 a8 3e fd 0a 83 be 1e 83 9b be
       0.6463301 0.32997617 -0.2559432 -0.30373472
000190 3c 90 b0 3e a6 d9 a8 3e 52 6b 14 bf 8e 5d 14 be
       0.34485042 0.32978553 -0.5797626 -0.14488813
0001a0 2f 0c d3 be 51 59 b9 3e 73 41 d7 be dd 47 0b 3f
       -0.41220233 0.36200956 -0.4204212 0.5440653
0001b0 ac 09 31 3b c6 86 9b 3e fd c8 e3 3d bb 4a 54 3e
       0.0027013822 0.3037626 0.1112232 0.20731632
0001c0 2e f1 10 bf 00 64 dd 3e f2 4c 74 3d d8 7b b8 be
       -0.5661801 0.43240356 0.059643693 -0.36031985
0001d0 98 2e a6 bd 69 e8 a1 be 67 3e b3 be 5a 08 c2 bd
       -0.08114356 -0.31622627 -0.35008547 -0.09474249
0001e0 74 d2 0b bd d5 5a c3 bd c8 8f 89 3e 03 81 26 bf
       -0.03413625 -0.09538809 0.2686751 -0.65040606
0001f0 38 d8 e9 3e 0b 3b 05 3e 59 27 eb be ab ca 04 bf
       0.45672774 0.13010804 -0.45928457 -0.51871747

fc1.bias f4 [64]
000000 5a 5d 8d be cd e7 b5 bc c7 05 61 3d cd f8 48 be
       -0.27610284 -0.022205258 0.05493715 -0.1962616
000010 1c d0 b5 bd fe 90 00 bd b8 96 90 3e fa f3 13 bf
       -0.08877584 -0.031388275 0.2823999 -0.57794154
000020 ea bc c0 3e de 60 9b 3e c4 db b4 bd d0 cb 11 3e
       0.3764413 0.3034734 -0.088309795 0.14237905
000030 17 93 10 bf 68 4e fa 3d af ee 8f be 2e a0 be be
       -0.5647444 0.12221986 -0.2811179 -0.37231582
000040 b3 f6 7b be f5 0e e8 3e a3 ba 10 bf 58 46 66 bd
       -0.24605827 0.4532391 -0.56534785 -0.05621943
000050 03 b3 88 3e f0 19 15 bf 41 74 1c bf e1 11 0a bf
       0.26699075 -0.582427 -0.6111489 -0.5393353
000060 93 14 18 3f d6 cc a1 3e 70 37 96 be 83 f0 5e 3e
       0.59406394 0.3160159 -0.2933917 0.21771435
000070 c8 65 95 3e 90 e0 c3 3e bd 48 cf bd 2b e2 e0 be
       0.29179215 0.38257265 -0.101212956 -0.43922552
000080 b0 d2 c7 3e 56 b8 b9 be fc b5 49 3d db e0 01 bf
       0.3902793 -0.3627345 0.04924582 -0.5073373
000090 bf 12 24 bf d8 df 22 bf 24 52 6d be a7 4d 27 bf
       -0.64091104 -0.6362281 -0.23175865 -0.65352863
0000a0 c9 a4 98 be c0 0a 5d 3e 1a 3b 03 3f 70 11 dc 3e
       -0.2981322 0.21586132 0.51262057 0.42982054
0000b0 2e a2 8b be 09 a9 0c bf f3 c0 05 bf 44 63 8e 3d
       -0.2727217 -0.5494543 -0.5224754 0.06952527
0000c0 f1 1f d1 be 05 6e 89 3e aa b5 95 bd ea b9 08 3f
       -0.40844682 0.2684175 -0.0731004 0.5340868
0000d0 5c 50 05 3f 03 e3 cf be ce ad 33 3e d4 32 a1 be
       0.52075744 -0.40602884 0.1754677 -0.3148409
0000e0 e5 3f 0b 3f 2b af a7 bb a4 22 00 be 2c dc 25 3d
       0.5439437 -0.005117317 -0.12513214 0.040493175
0000f0 41 9c e6 3d 1d 9f 2c 3f 55 2b ff bd 7c 36 b8 3e
       0.11260272 0.6743029 -0.12459437 0.35979068

fc2.weight f4 [64, 64]
000000 47 6e 9a bd b9 90 96 3d 70 34 0c bd 18 31 c5 bd
       -0.07540565 0.073518224 -0.034229696 -0.096285045
000010 a6 59 9c bd ee 03 93 3d e5 38 c3 bd df df 36 3c
       -0.076342866 0.07178484 -0.09532336 0.011161773
000020 00 56 14 bd 86 a7 87 bd 6a ec 9c 3c 0a ab d2 3d
       -0.03621483 -0.066237494 0.0191557 0.10286529
000030 fd 87 bb 3d 19 b1 56 3c 38 80 54 3d e4 2a 0d 3d
       0.09156797 0.013103747 0.05188009 0.03446473
000040 e0 7a d5 3b 96 aa d7 3d 34 c2 b9 bd ea 42 8e 3d
       0.006514892 0.105305836 -0.090702444 0.069463566
000050 ea 28 1f bd 8c 23 fa bd c1 d8 b3 bc ed 72 b1 bc
       -0.038857378 -0.12213811 -0.021953942 -0.021661246
000060 bc 2c 42 3d 8c df 9b bd 1c d0 76 3d d0 6e 40 3c
       0.047405943 -0.076109976 0.060257062 0.01174517
000070 74 75 62 3d 2d c6 5f bd 7a c5 cb 3d 04 f0 34 bd
       0.055287793 -0.054632355 0.09949775 -0.04417421
000080 d0 03 b1 bc f6 5e fa bc 11 83 50 3d 16 b9 f8 3d
       -0.021608263 -0.030562859 0.050906245 0.12144677
000090 be de b7 bd e6 fb 91 bb 10 c4 4f bc 9e e4 7d 3c
       -0.089780316 -0.0044550775 -0.012681022 0.015496401
0000a0 d7 4e d0 3d 04 13 8a 3d 72 6d e6 bd 86 a1 b3 3d
       0.101712875 0.06741908 -0.11251344 0.087710425
0000b0 e8 28 0c 3d 00 f8 5a ba 00 35 3d 3d b0 d2 25 3d
       0.0342187 -0.0008352995 0.046193123 0.04048413
0000c0 40 eb 93 3d 20 60 44 3d ec 9c 91 3d 00 1c 76 bc
       0.07222605 0.047943234 0.071100086 -0.015021324
0000d0 c2 48 c8 bd 50 04 56 bd f6 b2 5e bd 3f 88 31 bd
       -0.097795025 -0.052250206 -0.05436989 -0.043342825
0000e0 80 8e 9f 3d dc 77 93 3d 9c 72 87 3d 28 43 86 bc
       0.077908516 0.07200596 0.06613657 -0.016389444
0000f0 a2 2e c2 3d 4e 9a d8 bc a8 25 82 bd c8 96 d8 bc
       0.09481551 -0.026440766 -0.063548386 -0.026439086
000100 0b 4e e9 bd ea a8 a8 3d 4a 6a 90 bd ce 75 e1 3d
       -0.11391839 0.08235343 -0.07051523 0.110087976
000110 26 40 b4 bd 0e 57 8e 3d 18 0d dc b6 62 e8 f7 3d
       -0.08801298 0.06950198 -6.5580352e-06 0.121048704
000120 97 c9 54 bd 0c 37 7f 3d 76 c6 60 bc 64 01 c1 3d
       -0.051950064 0.062308356 -0.013719192 0.09424093
000130 73 81 ec bd ab 2f fe 3c b8 98 27 3d d0 18 e5 bc
       -0.11548128 0.03102859 0.04091713 -0.027965933
000140 28 cd fb bc 26 de 8b 3d 38 a8 1f 3d c2 59 a1 bd
       -0.030737475 0.06829481 0.038978785 -0.07878448
000150 c5 3d 5c bc c0 c6 27 3c 75 f4 3e bc d3 76 a7 bd
       -0.013442461 0.010240257 -0.011654963 -0.08176961
000160 58 c7 9e bc 22 48 92 3d 14 16 43 3d 18 f0 e6 bd
       -0.019382164 0.071426645 0.047628477 -0.11276263
000170 58 32 c3 3d 3d 90 86 bd ac 6b 2d bd d8 37 e9 3c
       0.09531087 -0.0657048 -0.042339012 0.028469011
000180 02 b7 b3 3d 5b 81 98 3d b6 8a 9f 3d 38 e4 9e bd
       0.0877514 0.074465476 0.07790129 -0.07758373
000190 da 8a b9 3d fe d4 b5 3d 1b 44 fe 3d c7 b6 fc 3c
       0.09059687 0.08878516 0.12415334 0.030848874
0001a0 a4 f6 2d 3d f8 46 15 bd f4 0b 8b bd a2 65 2b 3d
       0.042471543 -0.036444634 -0.06789389 0.04184497
0001b0 08 88 99 bc c2 8e aa bd f8 c6 80 3c 6a 91 80 3d
       -0.018741623 -0.0832801 0.015719876 0.062777355
0001c0 3b a3 e0 bc e0 07 21 bd 1e dc fd 3d 00 7b 04 3a
       -0.027421584 -0.03931415 0.123955 0.0005053729
0001d0 00 d7 7c 3d 18 b2 af 3d a6 86 de 3d b2 87 f5 3c
       0.061728477 0.085788906 0.10865526 0.029971931
0001e0 80 75 15 bc fc 54 8f bd a4 c2 fe 3d 00 9a d8 3d
       -0.009122252 -0.06998631 0.124394685 0.10576248
0001f0 da 8f d9 3d ea 1d a3 3d 90 ec 24 bd a0 c1 83 3c
       0.10623141 0.0796469 -0.040264666 0.016083539
000200 f8 a2 d5 3c 30 98 21 3c 28 ef 10 bd 70 4d 4f bd
       0.026078686 0.0098629445 -0.035384327 -0.05061096
000210 0e ad e2 bd f6 a7 99 3d e0 d3 12 bd b2 b3 df 3d
       -0.11068164 0.07502739 -0.03584659 0.10922946
000220 ba e8 96 3d c4 5d 31 bd 8c f1 ed bd 30 41 45 3d
       0.07368608 -0.043302312 -0.11618337 0.04815787
000230 94 1a df bd c8 70 f3 bc 50 ef ec bc 1c a7 56 bd
       -0.10893741 -0.029716864 -0.028922707 -0.05240546
000240 8e c9 cb 3d 80 05 dc bd 8a 01 9c bd e8 88 bf bd
       0.09950553 -0.107432365 -0.07617481 -0.09352285
000250 1e 27 94 bd e6 2a bc bd f0 73 39 bd 36 eb d5 3d
       -0.072340235 -0.0918787 -0.045276582 0.104452536
000260 f8 84 21 3d 14 4e 2d 3d 80 2e 5d bb 70 ac 9f bd
       0.03943345 0.04231079 -0.003374964 -0.07796562
000270 50 35 23 bd d0 fd 59 bc 0c 4a d9 3d f8 c9 e9 bd
       -0.039845765 -0.0133051425 0.106098264 -0.114154756
000280 40 80 20 3c 2a ad a8 3d f0 4a b3 3c 7c b8 f0 bd
       0.009796202 0.082361534 0.021886319 -0.117539376
000290 20 c4 fd bd 00 92 c4 bb 68 a4 97 bc d8 a1 0c bd
       -0.123909235 -0.00599885 -0.018511012 -0.034334034
0002a0 92 2a fa bd de 52 cf 3d 1a a9 e8 bd 54 6e 8a 3d
       -0.12215151 0.101232275 -0.113603786 0.06759325
0002b0 84 84 2f bd 9e 28 b5 3d 08 40 09 3d 60 ed 65 3d
       -0.042850986 0.08845638 0.03350833 0.05613458
0002c0 70 24 33 bd d0 b5 f3 3c ee ce 9d bd 08 ec f9 bc
       -0.04373592 0.02974978 -0.07705484 -0.030508056
0002d0 f4 7f 33 bd 42 3c de 3d e8 da c0 bc f8 ca 80 3c
       -0.043823197 0.10851337 -0.023541883 0.015721783
0002e0 c0 9a 5e 3c b8 51 a2 3d 0a 23 d6 bd c4 f7 f0 bd
       0.0135867 0.07925743 -0.10455902 -0.117660075
0002f0 3a fb 9d bd c0 91 65 bb 0c b8 e5 3d 60 ce 81 3b
       -0.07713933 -0.00350295 0.11216745 0.0039613694
000300 1b 51 fa 3d d8 88 b1 3d 94 33 03 bd 00 f0 54 ba
       0.12222501 0.08668679 -0.03203161 -0.0008122921
000310 3c ae 27 3d 00 7f 2e bc 8c f3 5a bd 36 e8 fe bd
       0.040937647 -0.010650396 -0.05345492 -0.124466345
000320 fa 55 46 3d 78 39 03 3d ba d2 41 bd 98 17 1c 3d
       0.048421837 0.03203723 -0.047320105 0.03810844
000330 3d 4e aa 3d 72 cd 87 bc 80 8d 4f 3b d8 ab f8 3c
       0.08315704 -0.016577456 0.0031670034 0.030355379
000340 60 e3 1b bd c0 b3 88 bc 1e a8 b4 3d 04 e1 5b bd
       -0.03805864 -0.016687274 0.08821128 -0.05368139
000350 6e 57 b9 bd ac a6 18 bd c9 36 aa 3d 54 50 49 bc
       -0.09049879 -0.037268326 0.08311231 -0.012287218
000360 22 90 9b 3d c0 04 88 bc 54 6c b1 bd 10 d7 08 3d
       0.075958505 -0.016603827 -0.0866324 0.033408225
000370 8e d3 e5 3d ec b4 ac bd 9a db ef 3d 20 27 72 bc
       0.112219915 -0.084329456 0.117118075 -0.014779836
000380 20 5f 24 bd aa 55 03 bd 01 44 c1 bc 24 a2 52 3d
       -0.04012978 -0.032064117 -0.023591997 0.05142416
000390 16 f0 ad bd 09 de c2 3d 6f c1 02 3d de 6d d8 3d
       -0.084930584 0.09515006 0.031922754 0.105678305
0003a0 1d 9d fe 3d 14 5e d2 3d 8a 8e 96 3d b0 cf cf 3c
       0.12432311 0.1027185 0.07351406 0.025367588
0003b0 66 24 ed bd 8e c6 98 bd 68 fa c1 3c 1a ef 94 bd
       -0.11579208 -0.07459746 0.023678973 -0.072721675
0003c0 65 65 a4 3c fc 76 6d bd 73 a4 90 bd 58 6e f0 3c
       0.02006788 -0.0579748 -0.07062616 0.029349491
0003d0 d6 dd 95 bd 34 68 9f 3d 13 b1 d4 3d 09 28 d0 3d
       -0.073177025 0.07783547 0.10385337 0.10163886
0003e0 88 2d ca bc d9 71 96 3d 50 a8 06 3d 74 1f 56 3d
       -0.024679914 0.073459335 0.03287536 0.05227609
0003f0 28 a5 7c bd a0 eb 7a 3d bb 06 d8 3d 3c 40 42 3d
       -0.061680943 0.061259866 0.10548159 0.04742454

fc2.bias f4 [64]
000000 31 06 cb 3d 46 38 a6 3c 88 29 5d bd 97 8f ec bd
       0.0991329 0.020290505 -0.053994685 -0.11550825
000010 ef 18 df bd 48 b8 d1 bc 7a f9 dc bd ee f8 af bd
       -0.108934276 -0.025600567 -0.107897714 -0.085924014
000020 b4 bf 4a bd ba 2c f3 3d c2 3c a6 3d 02 10 ff 3d
       -0.04949923 0.11873765 0.081170574 0.12454225
000030 40 20 46 bc 90 8d 7b 3d 40 c5 a3 3d 11 c0 b6 bd
       -0.01209265 0.0614143 0.07996607 -0.089233525
000040 d6 3f 0f bd 2e 53 cb bd 70 f1 61 3c 71 70 79 bd
       -0.034972988 -0.09927975 0.013790473 -0.060898248
000050 ee 78 8c bd a0 14 89 3b 65 23 db bd 00 a1 ff bb
       -0.06859003 0.004183367 -0.1070011 -0.007801175
000060 2c 76 80 bd ea 85 88 bd 59 0d 95 bd 4c 4e 43 3d
       -0.062725395 -0.06666167 -0.072779365 0.04768209
000070 03 35 ce 3d 84 24 2e 3d 20 9f ae 3d b2 08 89 3d
       0.10068705 0.042515293 0.085264444 0.066911116
000080 08 5b df 3c f0 de ce bd 91 4f c0 3d f8 f3 cc 3c
       0.027265087 -0.10101116 0.09390176 0.025018677
000090 c5 69 2c 3b 80 0b 05 bd a9 31 a0 3d 35 35 a3 3c
       0.002630816 -0.03248167 0.07821972 0.019922832
0000a0 58 44 d6 bc 48 93 72 bd 89 62 bf 3d 34 ba 39 bd
       -0.026155636 -0.05922249 0.09344966 -0.045343593
0000b0 20 cf 26 bd 8f c2 ca bc 7f 55 df 3d f4 3d 11 3d
       -0.040724874 -0.024750976 0.10904979 0.035459474
0000c0 bf 80 bd bb 1a f5 83 bd 9c 62 15 bd d4 eb 07 bd
       -0.00578317 -0.06443234 -0.036470994 -0.033183888
0000d0 6f 24 7f 3d f0 5b 8c bd f2 21 e9 bd 59 c4 d1 3d
       0.062290605 -0.06853473 -0.11383428 0.102425285
0000e0 8a d0 1f 3d 22 91 92 bd 20 a7 95 bc 6b 5e ee bd
       0.039017238 -0.07156588 -0.018268168 -0.116391025
0000f0 18 42 b9 3c 61 b7 73 bd 13 78 b5 bc b6 9d 8a bd
       0.022614524 -0.059501056 -0.022151982 -0.06768362

fc3.weight f4 [1, 64]
000000 fa 0a f0 3d ba 29 96 3c 60 8e ab bb 10 3d 5a 3d
       0.117208436 0.018330444 -0.0052354783 0.05328089
000010 50 0e 60 bd 64 68 ee bd 75 69 17 bd 2e ce 82 bd
       -0.05470115 -0.11641005 -0.036965806 -0.06386982
000020 92 42 ee 3d 00 b4 f5 bb 42 7b 22 bd 68 04 c5 3c
       0.11633791 -0.0074982643 -0.03966833 0.024049953
000030 f2 64 9e 3d a8 8b bf 3c d4 8a 8a bd f8 60 b5 3d
       0.077340975 0.023382023 -0.067647606 0.08856386
000040 23 d2 ce bc cf 0d 21 bb 74 0d 88 3d 74 36 9b 3d
       -0.025246685 -0.002457488 0.06643191 0.075787455
000050 fa 6b 90 bd 63 3a 0a bd 6c 14 ac 3d 70 e1 17 bd
       -0.07051845 -0.03374709 0.08402333 -0.03708023
000060 38 40 d0 bd a4 fa e9 3d 8e e2 26 3c d0 38 37 3d
       -0.10168499 0.11424759 0.010185851 0.044731915
000070 88 6d d4 bd 0b 01 7c bd c0 c9 44 bb d0 1f cc 3c
       -0.10372454 -0.061524432 -0.003002748 0.024917513
000080 4a 2e ba bd 60 30 60 bc 81 a3 c0 3d c0 38 ac 3b
       -0.0909086 -0.0136834085 0.09406186 0.0052557886
000090 73 13 1d 3d e5 55 f0 3d cf f4 8a 3d 58 44 5c bd
       0.038348626 0.11735133 0.06784975 -0.053776115
0000a0 80 08 92 3b 00 d6 ed bb 88 a1 dd 3c dc ca 58 3d
       0.0044565797 -0.007258177 0.027054563 0.052927837
0000b0 56 29 94 3d 2a 2b ed 3b b4 00 c3 bd 40 52 3b 3b
       0.07234447 0.0072378116 -0.095216185 0.002858296
0000c0 0d 96 e1 bc 0c 5f 93 bd a0 fb a4 bd 96 58 ac bd
       -0.02753737 -0.07195863 -0.08055806 -0.08415334
0000d0 00 5c 6f bb 19 ab c6 bd 8e 3f 5f 3d 12 c3 9b bd
       -0.0036523342 -0.09700603 0.05450397 -0.07605566
0000e0 f0 83 e7 bd c7 fc c5 bd 76 0b cf 3d 24 df a0 3d
       -0.11304462 -0.09667354 0.10109608 0.07855061
0000f0 80 62 e6 bb 08 11 57 bd 70 ee 1c bc c8 dc 80 bc
       -0.007030785 -0.052506477 -0.009578332 -0.015730277
