public/api/measles_model.pth (torch, 20612 bytes, 5 tensors)

fc1.weight f4 [64, 3]
00000000: 16f7 933e 749c 84be 56b5 0f3e db98 b2be
00000010: 5036 813e 4dbf a43c f527 d33e 9b4e 65bc
00000020: bcfc 1d3e dba4 f7be 5ce7 923e 30bf 753d
00000030: 56d7 9bbd 7230 0c3f 3841 663e 230c 033f
00000040: 8493 08bf 0b3e 203d de9e 64be 93a9 083f
00000050: f072 3abe b66f a43d a5d2 683c 8b72 f93e
00000060: 2408 043e c370 c63c 745e 9bbd 1361 d6be
00000070: 55f0 24be 547e 853e 8bca 81be 6688 963b
00000080: b6f7 8ebd 5b62 56be 15fb d43c 1217 73be
00000090: db64 b7be f401 cbbe 48b6 92bd 8a95 d8be
000000a0: 91f8 ce3e 6df0 f83e 5a7a da3e abea fdbe
000000b0: 0aca a5be 4aa9 103f 0e84 013f 6ce7 babd
000000c0: 2d16 9b3e 6548 98be 3202 023f 12b2 213e
000000d0: fcc7 823d 88f2 c63e 03b0 b03e 7fcd dc3e
000000e0: 1af3 1e3e 5cef 8bbe c9cd d1be b29d 093f
000000f0: ee03 0ebf d9d3 cb3e 753d 9a3e 19ea 0cbf
00000100: e57e de3e 3b49 01bf 359f 9a3e f4b8 173d
00000110: 066b 013f fcfd f43e 6a7e 59be 91d9 063e
00000120: d9ab bfbd 8080 c3bd 9950 013f 76b7 8fbe
00000130: 9d04 0c3f 5c45 ab3e 9584 c8be f342 c13d
00000140: c2aa d63d 1082 7abd 1c4b a0bd 130a 22bd
00000150: 5a6e 543c cfef 0d3e 9457 4a3c e65b 903e
00000160: 2fb7 0c3f 1c8d 21be f927 a83e 3d96 12bd
00000170: 0be4 0d3c 2970 d7be df71 083e a550 10be
00000180: 2e91 ce3e 2826 73bd 4c62 763e e550 ad3e
00000190: 922e 463e 6375 3dbe 2518 823d cc36 113e
000001a0: 1d8e b8bd 8377 16bd ced1 f13c 6d56 1f3e
000001b0: 4285 c53e 12b7 393d 48d4 123d e2b2 ed3c
000001c0: 5f20 62be 78c6 633e 6fbf febe d9a7 afbe
000001d0: e6e1 9a3e 3e18 983e 029f ee3e 5fa5 c63d
000001e0: 80a4 973e 4ea6 a43e af89 adbd c43e 61be
000001f0: 4759 6c3e 25b2 873e 1c3e 643e 73cb 273e
00000200: 17ff a63e 6b27 babe a72a 003e c296 04bf
00000210: 7910 123f 271b 993e e2dc 643e 1901 773e
00000220: 4b5b 32be c8b6 df3e 2192 073e 0cd2 99bd
00000230: 6051 c83c f990 043e a8df ff3d b665 dc3e
00000240: 6d4d fbbe 1756 8e3d c772 8d3e ee28 733e
00000250: bb9f ffbe 9b7f 84be b0e0 e8be d6c6 57be
00000260: ba80 0b3f 85b5 2c3e f724 b63e d575 893e
00000270: 748b 05bf fe78 0fbf 81b5 0dbf c7e0 923d
00000280: 40fe 043f d819 b4be 84b0 fcbe 5489 a63e
00000290: b19b dcbe ec51 e9be 8dc7 06be 4d2b 6a3e
000002a0: 833f 9abd 632f 543e 521f 8c3e 3756 11bd
000002b0: c91a 92be a11c 8e3e 95ec d03e 10cd dcbe
000002c0: fced 023f 35cc f9bc 78ae fb3e 906e 44be
000002d0: f602 073f 9f4f 03be 58e5 f0be fe2f 44bd
000002e0: 8a1a cdbe 4f41 6c3d 68c4 4ebe e6bd fabe
000002f0: e01d 05bf 2407 ad3c b2df d33e 27e1 b4bd
0.2889945 -0.25900614 0.14034018 -0.34882244 0.2523675 0.02011075 0.41241422 -0.013995792
0.15428442 -0.48367962 0.28692138 0.059996784 -0.076094314 0.5476142 0.22485816 0.51190394
-0.5335009 0.03912167 -0.22326228 0.5338375 -0.18207908 0.0802912 0.014210378 0.48720202
0.1289373 0.02422369 -0.07586375 -0.41870937 -0.16107304 0.26072943 -0.2534984 0.0045938967
-0.06980841 -0.20935957 0.025998631 -0.2373927 -0.35819134 -0.39649928 -0.07163674 -0.4230159
0.40424016 0.4862093 0.42671472 -0.495931 -0.32380706 0.56508315 0.50592124 -0.091261715
0.30290356 -0.29742733 0.507846 0.15790585 0.063858 0.38856912 0.34509286 0.4312553
0.15522423 -0.27331054 -0.40977314 0.5375625 -0.55474746 0.39810064 0.30125013 -0.55044705
0.43456188 -0.50502366 0.3019959 0.03704162 0.5055393 0.47850025 -0.2123963 0.13168932
-0.09358949 -0.09545994 0.5051361 -0.28069657 0.5469454 0.33451355 -0.39163652 0.09436598
0.10481788 -0.061159194 -0.07826826 -0.03956039 0.012965763 0.13861011 0.012349982 0.28195113
0.54967016 -0.15776485 0.32842997 -0.03578781 0.008660327 -0.4207776 0.13324688 -0.14093263
0.40345138 -0.05936256 0.24060935 0.3385078 0.19353703 -0.1850181 0.063522615 0.1418106
-0.09011481 -0.03673507 0.029518988 0.15560313 0.3857823 0.045340605 0.03584698 0.029015962
-0.22082661 0.22243679 -0.49755427 -0.34307745 0.30250472 0.29705995 0.46605688 0.09699511
0.2961769 0.3215813 -0.08473527 -0.219966 0.23080932 0.265031 0.22289318 0.16386203
0.32616493 -0.363582 0.1251627 -0.5179254 0.57056385 0.29903528 0.22349885 0.24121512
-0.17417638 0.4369414 0.13239338 -0.075107664 0.024452865 0.12945928 0.12493831 0.4304635
-0.4908251 0.06950014 0.2762663 0.23746082 -0.49926552 -0.25878605 -0.45483923 -0.21071944
0.54493296 0.16866119 0.35575077 0.2684771 -0.52165914 -0.56043994 -0.5535508 0.07171779
0.51950455 -0.35175967 -0.4935342 0.32526648 -0.43087533 -0.45570314 -0.1316206 0.2286808
-0.07531645 0.20721202 0.27367646 -0.03548261 -0.2853606 0.27756217 0.40805498 -0.431252
0.51144385 -0.030492881 0.49156547 -0.19182801 0.52738893 -0.12823342 -0.47049975 -0.04789733
-0.4005931 0.05767947 -0.2019211 -0.48973006 -0.5199871 0.021121569 0.41381603 -0.08832007

fc1.bias f4 [64]
00000000: 2243 33be d9db 103f c2d7 4a3e babb d5be
00000010: 2487 88be d63d b83e 0fea 5c3e b6a6 94be
00000020: 0389 a4be b40c f0be d036 18be 1753 ecbd
00000030: 4d87 583e 7e30 f7bd 6345 e7bd 0d2f 1cbe
00000040: 0dec babe a5cd b4bc 8f2b cf3e 9e2b 6fbe
00000050: a2b8 823d c1cc f93c cb32 563e 7f77 83be
00000060: e92a d0be 7596 ef3e 4b5e 11bf 70a4 bf3e
00000070: 242b d8be f90f 0d3f 6e42 b13d d08b 1dbe
00000080: ae71 0e3e 6c46 bf3e 8176 cebb b28c 03bf
00000090: adba a53e 6f7a 073e d9b8 083e 4444 2cbe
000000a0: b01f 17be 6928 acbe 3616 cf3e 521f c63e
000000b0: e960 b63e 0ff5 e7be 8088 b53c 7e1e d83e
000000c0: 4a79 73be 77a2 12bf 9459 a53d fb02 babe
000000d0: 4b4c 143f 7ea3 da3e 13a0 11bf c9ab 603e
000000e0: 3b32 bebe 2481 d23e 4169 83be 6003 313e
000000f0: f4d8 5bbd ec22 053e abd9 5b3d 4911 003f
-0.17506078 0.5658546 0.19808868 -0.41744787 -0.26665604 0.35984677 0.21573661 -0.2903344
-0.32135782 -0.46884692 -0.1486466 -0.11539286 0.21145363 -0.12069796 -0.11292531 -0.15252323
-0.36508217 -0.022070715 0.4046292 -0.23356482 0.06382872 0.030493142 0.20917813 -0.25677106
-0.40657738 0.46794477 -0.56784505 0.37430143 -0.42220414 0.551025 0.086552486 -0.15385365
0.13910553 0.37358415 -0.006300748 -0.5138656 0.32368985 0.13230298 0.13351764 -0.16822916
-0.14758182 -0.3362458 0.40446633 0.3869577 0.35620812 -0.45304152 0.022159815 0.42210764
-0.23776737 -0.5727915 0.08073726 -0.363304 0.57928914 0.4270286 -0.5688488 0.21940531
-0.37147698 0.4111415 -0.2566624 0.17286444 -0.0536737 0.13001603 0.05367438 0.50026375

fc2.weight f4 [64, 64]
00000000: 907a 4bbd f25f e83c 7679 9abd b41f 443d
00000010: 2c73 913c 355a 3bbc 1ced 81bd 16f5 dabd
00000020: cc80 2f3d 9204 bebd 54e0 3fbd 5a5d d73d
00000030: 0a0e 13bd 5f9c debc b804 fa3d d690 cfbd
00000040: d64a cfbd f19a d6bd a859 70bc 1f72 a93d
00000050: 7891 c3bc 401c 69bd 2625 b83c 5e5c 82bd
00000060: 609a 2d3d bb3e b7bc 14b3 4b3d bd6f 08bd
00000070: bcef c93d 50d9 51bd 190f 793d e885 853d
00000080: 3e69 c33d c314 ebbd 7001 943c 88e6 a13d
00000090: e6a8 213d a8df efbd c1f3 e93c ab2b 913b
000000a0: f823 e83d 9c6d b8bd 62e9 7f3d d2cc b1bd
000000b0: 6da3 c83d 3828 db3c a63d a53d 26d2 f63d
000000c0: f477 a0bd 68d3 d5bd ec15 ae3d 6c3b a2bd
000000d0: be18 f6bd c9a3 6dbd 6ee9 99bd 563c b2bb
000000e0: 748c 6ebd 1087 a1bd e8f2 1f3b 864c 2b3d
000000f0: 8445 2a3d 227b 7dbd 9afd a43d 3213 5bbd
00000100: 7a85 c1bd f8ae 75bd 38bc 8ebc 36a1 8fbd
00000110: 3ca0 193d 30cb a9bd 68ba e5bc ac69 cabd
00000120: f017 033d cc9a 033d 1cbd f13d 0816 e73c
00000130: 889a 8dbd 4edc cc3d 0858 933c 38f1 d63c
00000140: 7e35 8fbd e4ff 6fbd 1011 6abd 106f 24bd
00000150: e257 cd3d 5806 9a3d 20a4 af3b c0d9 9d3c
00000160: 2076 c43c 3043 2e3c 2004 93bc aad2 983d
00000170: 1a05 8d3d 664d efbd 4813 aa3c 104c 733d
00000180: ea13 ddbd 925a 81bd 6401 3a3d 7871 5f3d
00000190: 3039 75bc 4281 c5bd 424b babd 48e3 8c3c
000001a0: 706f fabd 906b 89bc cad7 d73d 609e a5bc
000001b0: 6ca5 b13d dc02 2e3d c0e8 b0bd 4442 f13d
000001c0: c460 423d b426 67bd 9c7b 1b3d c0e7 50bb
000001d0: d456 9abd 4429 2cbd 2ae1 95bd 80b0 c13b
000001e0: 4438 f2bd 101b b73c 5830 75bd 9821 8abc
000001f0: 20ef 67bc ec68 01bd 1c0c e9bd 4c7a 0b3d
00000200: ce67 a43c bbab 34bb 1fda 6ebd 403e a9bb
00000210: 0a59 ffbd ebe1 343d 6f23 103c f8a0 d9bd
00000220: c037 dfbc 026c db3d 50dc 87bd 5042 a33d
00000230: c46f f5bd 39e8 5b3d e6df b73c 7128 b73d
00000240: 7284 a6bd 32e8 ecbd d294 1b3d 1bba 9a3d
00000250: 4f0c 07bb 969a 903d 41e8 26bc 37a4 29bd
00000260: b098 9fbd 1b0c 65bd 8c4d 153d af77 e7bc
00000270: e4f7 95bd b885 8abd 7abd 90bc 3423 febd
00000280: b54b d43d 1599 c53d 00cc 73bc 3691 bb3d
00000290: 9ee9 d5bd 401a cd3c 3d7e bd3d 0308 a7bd
000002a0: 4b31 a73d 84bd bb3d 4243 d43d 77d1 1c3d
000002b0: e4a3 47bd e034 ab3d 807c c5bc 76e2 213d
000002c0: 2c7e 16bd 7a9a d73d 1775 a4bd 0cd6 583d
000002d0: 1704 e83c f39e e1bd 8aae c6bd e47e 29bd
000002e0: 58c4 e93c 9887 76bc 1742 b1bc 8178 d6bd
000002f0: 4ad2 8d3d 5e9b 743c 5e5e 833d a087 85bd
00000300: 3488 d83d 37b7 043e 27fd eb3d 1c33 1f3d
00000310: 3a63 b53d a5d8 6c3d cd88 7c3c eaa5 9abb
00000320: a4d9 ccbd a24a 9e3d dc46 94bd 340d d2bd
00000330: f0b5 cbba ceaf ba3d 5416 503d 9018 54bc
00000340: 9c32 e63d 2620 eb3d 4094 f2bd 9913 fc3d
00000350: 6c01 dbbd dc85 4cbd 0ea7 abbc 24a1 f3bd
00000360: a7fb 543c ccc8 f63d b09e b23c 545d de3b
00000370: 8086 49bb cf6e dabd 7ca8 b73a 923a c1bd
00000380: 4b14 ebbb 6b25 dabd e08e b4bc e053 743d
00000390: 9b87 d73c 3529 763d 6a5b 89bd ab73 dbbb
000003a0: 2eae b2bd ee7f a0bd d642 98bd 10bd a6bc
000003b0: d6ed c6bc eebc 83bd ca2d c53c 3864 c63d
000003c0: f8e0 5b3d 00a8 103b 8506 be3d 92eb c2bd
000003d0: 32e9 5abd 5dc2 dcbc 6c8a ca3d 6706 493d
000003e0: a6bd 953d a623 453d eb78 e7bd 5d61 023d
000003f0: e455 253d 356e 9abd f8e2 983d 938f efbd
-0.04967743 0.028366063 -0.07542698 0.047881797 0.017755114 -0.011435081 -0.06344053 -0.10691278
0.04284744 -0.092782155 -0.046844795 0.10515852 -0.03590206 -0.027174173 0.12207931 -0.10135047
-0.10121696 -0.104787715 -0.014669813 0.0827372 -0.023873076 -0.056911707 0.022478651 -0.06365274
0.04238355 -0.02236878 0.04973133 -0.033309687 0.09860179 -0.051232636 0.060805414 0.06519681
0.09541558 -0.11478569 0.018067092 0.079052985 0.039467715 -0.11712581 0.028558614 0.0044302545
0.113349855 -0.09005281 0.06247843 -0.086816445 0.09796796 0.026752576 0.08068399 0.120518014
-0.07835379 -0.10440713 0.08500275 -0.0792149 -0.12016438 -0.058017526 -0.07515226 -0.0054393215
-0.058239415 -0.07887089 0.0024406258 0.041821025 0.0415702 -0.061885007 0.08056183 -0.053485103
-0.09449287 -0.059981316 -0.017423734 -0.070131704 0.037506327 -0.08290708 -0.028042987 -0.098834366
0.03200525 0.032130048 0.11803648 0.028208748 -0.0691424 0.10002957 0.017986313 0.026238069
-0.06992625 -0.058593646 -0.05714518 -0.04014498 0.10026528 0.07520741 0.0053601414 0.01926887
0.023982108 0.010636136 -0.017946303 0.07462056 0.06885739 -0.116846845 0.020761147 0.05939871
-0.10794814 -0.06316103 0.045411482 0.05455157 -0.014967248 -0.096437946 -0.090963855 0.01719822
-0.12228286 -0.016774923 0.10539205 -0.02021712 0.0867413 0.042483196 -0.086381435 0.11780217
0.047455564 -0.056433395 0.03795968 -0.0031876415 -0.075360924 -0.04203154 -0.07318337 0.005910933
-0.11827138 0.022351772 -0.059860557 -0.016861722 -0.014156133 -0.031594202 -0.11379263 0.03405218
0.02006903 -0.002756818 -0.058313485 -0.0051648915 -0.12468155 0.044160765 0.0087975105 -0.106264055
-0.027248263 0.1071396 -0.06633818 0.079716325 -0.11984208 0.05368826 0.02244563 0.089432605
-0.08130731 -0.11567725 0.037983723 0.07555028 -0.0020606702 0.07060735 -0.01018721 -0.041416373
-0.07792795 -0.055919748 0.036450908 -0.028255312 -0.07322672 -0.06763786 -0.017668474 -0.12409058
0.103660025 0.09648339 -0.01488018 0.09158556 -0.104449496 0.025036931 0.09252594 -0.08155825
0.08163699 0.091670066 0.10364391 0.0382857 -0.048740283 0.083596945 -0.024107218 0.03952261
-0.03674142 0.10527511 -0.080301456 0.052938506 0.028322263 -0.11016645 -0.097012594 -0.041380778
0.028536007 -0.0150469765 -0.02163796 -0.10472203 0.06924875 0.014929621 0.064144835 -0.06520009
0.10572854 0.12960516 0.11522894 0.0388671 0.088568166 0.057823796 0.015413475 -0.0047194855
-0.10002449 0.07729079 -0.07240078 -0.102564245 -0.0015541892 0.09115563 0.050802544 -0.012945309
0.11240122 0.11480741 -0.11844683 0.123084255 -0.106936306 -0.049932346 -0.020953681 -0.118959695
0.012999452 0.12050018 0.021804184 0.006786028 -0.0030750334 -0.10665666 0.0014012004 -0.094349995
-0.00717405 -0.10651668 -0.022040784 0.059650302 0.026309779 0.06009789 -0.06706889 -0.0066971383
-0.087246284 -0.07836901 -0.07434623 -0.020353824 -0.02428333 -0.0643252 0.024069685 0.09687084
0.053681344 0.0022072792 0.09278587 -0.09517588 -0.05344505 -0.026948148 0.09889683 0.04907837
0.07311563 0.0481297 -0.1130236 0.031831134 0.040365115 -0.075405516 0.07465166 -0.116973065

fc2.bias f4 [64]
00000000: b5b9 75bd cc7a b9bd 6d77 d43d cf82 8ebd
00000010: 9502 3fbd 9047 febc 64b6 d83d 7540 ccbd
00000020: cbc5 d0bd 3c91 82bd 0412 e03d 4bec ba3d
00000030: eb07 bb3d e2c8 ed3d 4ef0 773d e3d9 dcbd
00000040: ae58 c0bd 1e7e e5bd e3d1 b1bd ac86 d3bd
00000050: 60db bdbd 013c 923d 6484 e33b b401 d1bb
00000060: 7a73 813d 1925 f13d 8494 ae3d bc56 3f3d
00000070: 0677 ddbd 3e3f 8fbd eddc be3d 0edb ce3d
00000080: f827 383c 03d8 e33d 838a eebd aa57 b33b
00000090: be98 6d3d e3f0 e53c 7595 c0bc 34d9 bb3c
000000a0: 243c d1bd 3070 ffbd 3e27 9d3c 942d 2b3d
000000b0: 7b6b df3d f83e 35bd 44d8 203d 4f40 84bc
000000c0: 4929 ce3d f265 8bbc a70f a73d 723d 1fbd
000000d0: b037 0f3c d14d f93d 0534 063d 4bfc c93c
000000e0: be10 ffbd 3cb7 fabd 1e28 e33d 6f84 57bb
000000f0: 401b abbd 6f7a 89bd 6228 fbbd 1beb e63d
-0.059991557 -0.09056625 0.10374341 -0.069585435 -0.04663332 -0.031039983 0.10581663 -0.09973232
-0.10193976 -0.063753575 0.10940936 0.091271006 0.091323696 0.11610581 0.060531907 -0.10783746
-0.09391914 -0.112056956 -0.08682611 -0.10328421 -0.09270358 0.07140351 0.0069432724 -0.006378377
0.063208535 0.11774654 0.08524421 0.046713576 -0.108137175 -0.06994484 0.09319482 0.10100375
0.011239998 0.11125185 -0.11647513 0.005473097 0.058006994 0.028068965 -0.023508767 0.022930719
-0.10216549 -0.1247257 0.019183751 0.041791514 0.10909172 -0.044249505 0.039268747 -0.016143946
0.10066468 -0.017016385 0.08157282 -0.03887696 0.008741304 0.121730454 0.032764453 0.024656435
-0.12454365 -0.122419804 0.11091636 -0.0032885333 -0.08354807 -0.067128055 -0.12263562 0.112753116

fc3.weight f4 [1, 64]
00000000: fb9c e3bd 2a0a 93bd a0ba debd 37d5 023e
00000010: e79a 92bb 4c94 15bd a8d3 9c3d 7dec 93bd
00000020: 3dc2 1c3d 080e 85bd 3852 fbbd 0c60 c7bc
00000030: ba31 c2bd 9d00 7cbc f6f5 fe3c 7f2b 5fbd
00000040: 84f5 cebd e4a0 e4bd 4756 63bc 44f1 c0bd
00000050: a00f 7e3c 3a03 d93c 224a 99bd a97e 053c
00000060: 1891 3abd 2542 ca3c 44d5 9bbd 8895 113d
00000070: 800f 803a 247e 853d 4b2d e83d 4515 0ebc
00000080: 3a83 6bbd 7ea8 703c 2060 f23d e756 143d
00000090: fa74 e5bd c65d f9bd b453 14bd ce88 a6bd
000000a0: fae0 db3d 10a6 f6bc 33f4 a0bd b851 b63d
000000b0: 18a3 ca3d 60ed f83d c048 d13c d7fe 4c3d
000000c0: c87c fdbd 8f64 ea3d c0d1 a93b 6e52 abbd
000000d0: a0e3 e9bb fcab ccbc e679 61bd b8b1 1f3d
000000e0: d06a f3bc 6828 b83d f3c4 85bd 52c2 5b3d
000000f0: 0070 27b9 6444 abbd e8f1 f1bc 49ff cdbc
-0.11113926 -0.07179673 -0.1087544 0.12776648 -0.004474032 -0.03651838 0.07657558 -0.07222841
0.038271178 -0.06496817 -0.12271541 -0.02433779 -0.09482141 -0.015381006 0.031123143 -0.05448484
-0.10105422 -0.111635 -0.013875551 -0.09421018 0.015506655 0.026490796 -0.07484843 0.008147874
-0.04554853 0.024689743 -0.076090366 0.035542995 0.0009770244 0.065182 0.11336764 -0.008672063
-0.057498194 0.014688609 0.11834741 0.03621569 -0.11203952 -0.12176089 -0.036212638 -0.08131562
0.1073627 -0.030108482 -0.07859077 0.08902305 0.09894389 0.12154651 0.025547385 0.05004772
-0.12377316 0.11444961 0.005182475 -0.083653316 -0.0071377307 -0.024984352 -0.055047892 0.038987845
-0.029714018 0.08992082 -0.06531706 0.053652115 -0.00015968084 -0.08362654 -0.029534295 -0.025146144
