public/api/mumps_model.pth (torch, 20592 bytes, 5 tensors)

fc1.weight f4 [64, 3]
000000 be 9f 87 bd 6b c3 07 bf 2b 57 99 3e 90 d7 76 be
       -0.06622265 -0.5303256 0.29949316 -0.24105668
000010 59 a9 8e be 83 57 c5 3e 46 e6 4a be 60 a5 01 3e
       -0.27863577 0.3854333 -0.19814405 0.12660742
000020 c8 4a 05 3f 0a 89 0c bf 8d d4 07 bf 4c 0f 61 be
       0.5206723 -0.54896605 -0.530587 -0.21978492
000030 ba 43 a7 bd 55 e3 c7 3e 49 fc 46 3d 6f f2 d2 3d
       -0.08167215 0.39040628 0.04858044 0.10300147
000040 cf 50 c9 be 7d 63 08 3f fa bf 2a be 9c 70 e5 be
       -0.39319465 0.5327681 -0.16674796 -0.44812477
000050 68 28 e7 3c 42 17 b2 3e 00 7c 2d be fd 05 46 3e
       0.02821751 0.3478337 -0.16941833 0.19338222
000060 06 ab 22 bd 1e 4b e6 be b0 34 a8 bc 5d f0 0e 3f
       -0.039713882 -0.44979185 -0.020532936 0.55835515
000070 56 3e cf be d6 db ba bd 66 cb e0 3d a0 2f d8 be
       -0.40477246 -0.09123962 0.10976295 -0.42223835
000080 65 4f 21 3d a2 52 7f 3e 37 36 2c be 13 22 f1 bd
       0.039382357 0.24933866 -0.16817556 -0.11774077
000090 fb aa 9f 3e 6e c7 f2 bd 40 5f 38 3e 2a ba d8 3e
       0.31185135 -0.118544444 0.18005085 0.42329532
0000a0 c2 b6 08 3f 7a d4 ab 3e c7 45 bf 3d 06 9f 97 be
       0.53403866 0.33560544 0.09339481 -0.29613513
0000b0 80 2b 2c be 08 fd 88 3e 44 e9 f6 bd 33 33 d0 3e
       -0.16813469 0.26755548 -0.12056211 0.40664062
0000c0 fb 70 3e be 6d 79 9c 3d 01 9b d1 3e 63 4b 63 3e
       -0.18597786 0.07640348 0.4093857 0.22196727
0000d0 a0 b3 0d 3e ee 88 bc be 83 92 fe bc 7c a8 e0 3e
       0.13838053 -0.3682322 -0.031075722 0.43878543
0000e0 2f 7a fe 3e 4d 2a 07 bd 47 d9 dd be da 19 b3 3d
       0.49702594 -0.032999326 -0.43329832 0.08745165
0000f0 c9 cd b8 bd 77 5b cd bb 2a 07 86 be e6 e2 0b 3f
       -0.090236254 -0.006267007 -0.2617734 0.54643095
000100 99 77 84 be 89 6e 31 3d ad 6d c6 be 15 16 10 3f
       -0.25872496 0.043318305 -0.3875555 0.56283695
000110 c8 c0 0b 3f 33 d1 b4 be 47 48 97 3e da 46 c9 3e
       0.54591036 -0.35315856 0.2954733 0.39311868
000120 3a b8 25 be b8 73 ef 3e ee 21 d9 3e 9b 13 8f be
       -0.16183558 0.46767974 0.424087 -0.27944645
000130 11 78 10 be 00 f7 69 be e2 43 56 3e 3e 52 f7 be
       -0.14108302 -0.2284813 0.20924333 -0.48304933
000140 b2 c6 e0 bd bc 6b 46 3e c1 8e 94 3e 26 3c 04 3e
       -0.10975398 0.19377035 0.29015163 0.1291357
000150 04 52 05 be 98 c1 0b 3f 8a 43 10 3f 39 03 c1 3d
       -0.13019568 0.54592276 0.56353056 0.09424443
000160 d2 41 cf be 61 7e 99 be a1 68 8d 3e 81 9d a3 3e
       -0.40479904 -0.29979232 0.27618888 0.31956103
000170 5d 0a 75 be 4c 9b fa be 65 af 0c bf 16 a6 a3 be
       -0.23929735 -0.48946607 -0.5495513 -0.3196265
000180 00 87 82 3e bb eb c6 3d f1 9d 91 be 40 5e 08 3f
       0.25493622 0.09712931 -0.28440812 0.53268814
000190 f6 26 40 3e 9d 68 01 3f 2a 97 a1 3e d8 ae 42 be
       0.18764862 0.5055025 0.31560642 -0.1901201
0001a0 d1 65 c2 3e 22 db 38 be 2b b2 f9 3e f0 c9 c9 be
       0.37968305 -0.18052343 0.48768744 -0.3941188
0001b0 1f c7 d0 3e 19 c4 69 3e f0 84 3e be 24 2f 93 3d
       0.40776917 0.22828712 -0.18605399 0.07186726
0001c0 da c4 58 3e c0 a7 41 be 52 bd a8 be 54 4e e0 3e
       0.21168843 -0.18911648 -0.3295694 0.4380976
0001d0 cb bb 33 3e 2e 75 73 be 51 a3 74 3e 6a ba f6 be
       0.17552106 -0.23775169 0.23890425 -0.48189098
0001e0 94 b6 87 bd eb b5 e4 3e 53 1e 96 bd 11 5a c5 3d
       -0.06626621 0.44670042 -0.07330003 0.096363194
0001f0 c7 84 88 3e 51 07 04 3f 2d b4 1a be 1b 43 10 3e
       0.266638 0.51573664 -0.15107794 0.14088099
000200 c5 48 26 3e c2 19 5d 3d ea 4a 82 3e bd 0e 14 be
       0.16238697 0.053979643 0.2544778 -0.14458747
000210 31 f2 17 be 6b 45 21 3d 41 c4 e7 3d 7d 6a 8e be
       -0.14838482 0.039372843 0.11316729 -0.2781562
000220 1a 8b df bd fb e2 3c 3e 2c ee 9b 3e 69 54 94 bd
       -0.109152034 0.18445961 0.30455148 -0.072426625
000230 ba 49 e9 be 54 a0 0e 3f 88 3c 41 be 7d 8f 22 3d
       -0.4556406 0.5571339 -0.18870747 0.039687622
000240 c5 29 0c 3f 0d e1 6b 3e 82 d0 20 3e 4b 1e 05 bf
       0.54751235 0.23035069 0.1570454 -0.5199935
000250 3d b5 db 3e 1e 20 5b be a2 21 02 bf 3d 7b 0f 3f
       0.4291171 -0.2139897 -0.5083257 0.5604742
000260 2a c5 a6 bc 7f f2 73 3e f4 36 fa 3d 81 2f 97 3d
       -0.020357687 0.23822974 0.12217513 0.073821075
000270 0e 83 00 3e d8 63 00 3f c4 99 e6 be 8c 50 d6 be
       0.12549993 0.5015235 -0.4503919 -0.41858327
000280 4e f5 0e 3f ca 23 d0 be ae 1e cf 3d 64 17 13 3e
       0.55843055 -0.40652305 0.101132736 0.14364392
000290 2f b8 ba be 82 6f b0 3b d8 f2 45 3e c3 f2 5f 3e
       -0.36468646 0.0053843865 0.19330919 0.2186995
0002a0 74 3b e1 3e ba b2 53 bd f2 72 03 bf 18 db b8 3d
       0.43990672 -0.05168412 -0.5134727 0.09026164
0002b0 bc e0 ff be e8 84 e9 3e fa db ed 3c d7 95 0a bf
       -0.49976146 0.45609212 0.029035557 -0.5413489
0002c0 03 3b 77 be 53 ba 47 3c 2c 98 f3 be bd 5d 70 3e
       -0.24143605 0.012190419 -0.47577035 0.23473258
0002d0 56 95 c1 3e c0 cb 66 be 85 ee df 3d c7 52 80 be
       0.37809247 -0.22538662 0.10934166 -0.25063154
0002e0 be 19 0f be 4e 3e d2 be 90 4a 9b 3d b7 ba ee 3e
       -0.13974664 -0.4106316 0.07582581 0.46626827
0002f0 d7 78 07 3e dc b4 ce 3e 24 ab 8b be 09 9e b8 3e
       0.1322969 0.4037236 -0.27279007 0.3605807

fc1.bias f4 [64]
000000 27 84 f1 3e 7b 7f e7 be 88 23 06 3f 88 5e 99 be
       0.47171137 -0.45214447 0.52397966 -0.29954934
000010 b2 18 c7 3e 73 e8 39 bd c1 f5 91 3e 01 22 d0 be
       0.3888603 -0.045387696 0.28507808 -0.40650943
000020 b3 af 4f 3e b2 d4 93 3e ec 21 f1 3e 49 7d a6 be
       0.20281868 0.2887321 0.47096193 -0.3251746
000030 c4 a5 08 bf b6 04 a4 be 00 73 d6 3a 5c b4 7e bd
       -0.5337794 -0.32034844 0.0016361177 -0.062183723
000040 21 51 8a be 53 01 58 be e3 38 13 3f 8e c6 98 3e
       -0.2701502 -0.21094255 0.5750868 0.29838985
000050 a3 bf c8 3e 82 af 2c 3e 1d fa f5 be 4b 4c 3c 3e
       0.39208707 0.16863826 -0.48042384 0.18388478
000060 48 23 8c 3e 01 ad 94 be 62 80 ce be ae 80 cb 3e
       0.27370667 -0.29038242 -0.40332323 0.39746612
000070 fd 9c b6 3e 75 e1 0c bf 4e ba 0e 3d 65 63 e4 be
       0.35666648 -0.5503152 0.034845643 -0.44607082
000080 f0 15 f5 3e ab 56 cc 3e d5 00 ad 3e 79 22 87 bd
       0.478683 0.39909872 0.33789697 -0.06598372
000090 3b 1a bb 3e b3 d5 fd be 98 ae b9 be 61 18 8a 3e
       0.3654345 -0.49577102 -0.36266017 0.26971725
0000a0 e3 5b bf 3e 19 98 0e 3f 54 5e 0e 3f a6 8b bf be
       0.37374792 0.5570083 0.55612683 -0.3741123
0000b0 b9 9e bc 3e 26 cb db bd 93 c8 73 3e e7 47 cd 3e
       0.36839846 -0.10732107 0.23806982 0.4009392
0000c0 dc d3 59 bd c5 c9 02 be 69 c7 b6 3d 65 52 06 bf
       -0.05318056 -0.12772281 0.08924753 -0.52469474
0000d0 d1 72 d9 be 9b 37 0d bf 4a 69 f8 3d 66 f5 44 bd
       -0.4247041 -0.5516297 0.12129457 -0.048085593
0000e0 78 44 5b 3d 17 64 be bd 46 dc aa be df f8 d1 3d
       0.053532094 -0.092964344 -0.3337118 0.102525465
0000f0 f9 6c d6 3e 93 23 17 3e 18 4b 00 3f 34 6a 09 bf
       0.41880015 0.14759664 0.50114584 -0.5367768

fc2.weight f4 [64, 64]
000000 38 cc e1 3d 80 35 1b 3b 02 b7 fc 3d 74 d4 94 3d
       0.1102528 0.0023683012 0.123395935 0.07267085
000010 11 de 8d 3c 5b 59 00 be 0a 6a 8a bd ca 58 ed 3d
       0.017317804 -0.12534086 -0.067585066 0.11589201
000020 0f 33 c3 bd f4 fd e1 3d b5 02 cb bd 32 3c 99 3d
       -0.09531223 0.11034766 -0.09912626 0.074821845
000030 40 cc 22 bd 4e 48 98 bd e0 cb 70 bd 3e de a9 bd
       -0.03974557 -0.07435666 -0.05878818 -0.082943425
000040 ac 2b bd bd c4 1c f2 3d c9 ba d9 bd b6 60 7b 3d
       -0.092368454 0.11821893 -0.106313296 0.061371528
000050 7f c2 3a 3d 12 f7 8e 3d fa 6a 00 be fd c7 5b 3d
       0.045595642 0.06980719 -0.12540808 0.05365752
000060 89 63 b5 3c 10 eb d0 bd 2a b4 ab bd d7 95 c2 bd
       0.022142189 -0.102010846 -0.08383973 -0.09501236
000070 6b 32 f7 bd fa 67 ac 3d 0e f6 95 3d be 2c c5 3d
       -0.12070163 0.084182695 0.07322322 0.096276745
000080 83 c0 90 3c e7 83 c0 3b d4 b4 a6 3d 62 85 7b 3d
       0.017669922 0.005875099 0.08139959 0.0614065
000090 74 06 b7 3d a0 a1 94 3c 24 f4 e5 3d 0b 50 84 3d
       0.08936778 0.018143475 0.11228207 0.064605795
0000a0 80 99 92 bd 96 1d 0a bb d7 0d 2f 3d 40 a5 ae 3b
       -0.07158184 -0.0021074763 0.042737808 0.005329758
0000b0 bc f0 70 3d ae 42 9f 3d ce e6 b6 bd 33 26 f1 3d
       0.058823332 0.0777639 -0.08930741 0.11774864
0000c0 1c 94 9e bc 23 58 be 3d 5d ff 76 3d 58 84 35 bd
       -0.019357733 0.092941545 0.060302127 -0.044315666
0000d0 58 d6 64 3d 18 2d ec bc 24 66 43 bd d6 89 eb bd
       0.055868477 -0.028830096 -0.04770483 -0.115008995
0000e0 73 14 a1 bd 12 b1 e6 bd 40 dd 32 3c 9c 9c 6b 3d
       -0.078652285 -0.11264242 0.010917008 0.0575224
0000f0 44 81 2d 3d 5e 92 32 bd fa 7d 12 bd c6 c5 8b bd
       0.042359605 -0.043596618 -0.03576467 -0.06824832
000100 66 45 8e 3d 32 0f f7 3d 18 14 e2 bd a0 bb ce 3d
       0.069468305 0.12063445 -0.11038989 0.100943804
000110 90 ba dd 3d d8 48 b9 bd e0 67 d6 bc a8 02 b9 bd
       0.108265996 -0.09047097 -0.026172578 -0.0903371
000120 98 5a e3 3c 00 b4 ea 39 f8 da cc bc 1c 1a 63 3d
       0.02775316 0.00044766068 -0.025006756 0.05544482
000130 e0 c6 3f bd c8 8c b6 bd 80 bf 73 bc 28 99 99 bd
       -0.04682052 -0.08913571 -0.0148772 -0.07499915
000140 5a 4f d5 3d f8 49 ee bd ec ad 18 3d ba fc dd 3d
       0.10415526 -0.11635202 0.03727524 0.108392194
000150 34 6b 77 bd b2 a9 e6 3d 14 f2 37 3d f0 73 3f bc
       -0.06040497 0.112628356 0.044908598 -0.0116853565
000160 74 eb 8c bd 40 0c 61 bc 10 5c 78 3d c4 da a5 bd
       -0.068808466 -0.013735831 0.060634673 -0.08098367
000170 3c 64 12 bd d0 a8 0c 3d ec 2d b1 bd b8 ab de bc
       -0.035740122 0.03434068 -0.08651337 -0.027181491
000180 76 2e f3 bd fa 3c c2 bd d6 31 f7 bd 30 db 43 bc
       -0.11874096 -0.094842866 -0.12070052 -0.011954114
000190 e2 e1 c2 bd c0 8f bb 3c 88 13 54 bd 98 a1 0d 3d
       -0.0951574 0.022895694 -0.05177644 0.034577936
0001a0 38 29 43 3d 0e 6e 8a bd d0 87 ef bd 40 ad c3 bd
       0.04764673 -0.067592725 -0.11695826 -0.09554529
0001b0 8e be 8e bd 20 55 cb bd cc c4 d4 bd e4 77 57 bd
       -0.06969939 -0.09928346 -0.103890985 -0.05260457
0001c0 f4 a1 12 3d 40 d6 19 3d 7c 5b 3e 3d e6 87 dc bd
       0.03579898 0.03755784 0.046473965 -0.10768108
0001d0 40 b6 ec bc e2 a0 a6 3d de ea 8a bd c2 8a a3 3d
       -0.028895497 0.08136155 -0.067830786 0.0798545
0001e0 80 4e 61 bb 00 ea ed b9 b8 80 df 3d f0 16 70 3d
       -0.0034379065 -0.00045378506 0.10913223 0.058615625
0001f0 6e 6f 88 3d ae 04 dd bd 18 6d 89 3c e0 2b 29 bd
       0.066618785 -0.10791908 0.016775653 -0.041301608
000200 da be 09 3d 40 a9 69 bd 00 a6 83 bd 52 d8 a8 bd
       0.033629276 -0.057046175 -0.06428146 -0.08244385
000210 ed 1b be 3c 4d b9 d6 bb 58 01 b0 bc 2c cb 9c bd
       0.023206675 -0.0065528513 -0.021485016 -0.076559395
000220 39 67 f5 bd 35 a7 98 3d 50 94 82 bc f2 97 85 3d
       -0.11982579 0.07453767 -0.015939862 0.06523122
000230 20 3e 04 bc d8 f6 d4 b9 ec d8 45 bd 93 da 9d bd
       -0.008071452 -0.00040619704 -0.048302576 -0.07707705
000240 28 59 76 3d ab 29 b0 bd 37 81 6e 3d ff d7 b3 3c
       0.06014362 -0.086016975 0.058228698 0.02195358
000250 b3 4e 4d bb b9 8a 9e 3d 26 b1 cb 3d f3 3d 44 3c
       -0.0031327426 0.07741303 0.09945898 0.0119776605
000260 a0 cb 94 bd 1c a9 8e 3d 1c a3 13 3d d9 5a 83 3d
       -0.07265401 0.06965849 0.036044225 0.06413812
000270 02 d8 b0 bd 74 2c f1 bd 17 d0 ec 3c 48 74 cd bd
       -0.0863495 -0.11776057 0.028907819 -0.100319445
000280 86 02 af 3d 4f 30 7e 3a ae ef 49 bc dc 4b ee 3d
       0.08545403 0.00096965296 -0.0123252105 0.11635563
000290 4c 10 ff 3b 12 7d fa 3d 18 22 20 3d 53 5e 97 bd
       0.007783925 0.122308865 0.039095014 -0.07391038
0002a0 a9 74 ef bd 83 05 50 3d 59 f3 31 3c a4 12 aa bd
       -0.11692173 0.050786506 0.010861241 -0.08304337
0002b0 a3 89 1a bd 46 6b b9 3d cc 5b f6 3d fc 98 5e 3d
       -0.037728917 0.09053664 0.120292276 0.054345116
0002c0 cf c8 d4 bd 72 65 c2 bd 24 53 4f 3d 68 9d 12 3d
       -0.10389864 -0.094920054 0.0506164 0.035794646
0002d0 ee 42 e6 3d 14 34 9f 3d 7a db de bd c8 a7 33 3d
       0.112432346 0.07773605 -0.108817056 0.04386118
0002e0 9d b1 f6 bd 2b 00 b9 bc ea f5 e3 bd f2 98 21 3d
       -0.12045596 -0.022583088 -0.11130889 0.0394525
0002f0 10 3c ce bd 8d 07 89 3d 88 98 9d 3d 08 dc f4 bd
       -0.1007005 0.06690893 0.07695109 -0.1195603
000300 00 f1 1a 3c 1e 93 9e 3d 20 33 a9 bd d0 14 dd 3d
       0.009456873 0.07742904 -0.082617044 0.10794985
000310 e0 76 89 bd 18 45 e0 bc 84 11 85 3d f2 c0 b7 bd
       -0.06712127 -0.027376696 0.064974815 -0.08972348
000320 30 1b 8e 3d 40 49 4a 3d 8e 38 bd bd cc 25 a4 3d
       0.06938779 0.049386263 -0.092393026 0.08015022
000330 5a ec b0 bd 30 9e c7 bd 00 3f 7a 3c e0 b3 d5 bb
       -0.086388305 -0.09746969 0.015273809 -0.006521687
000340 96 93 fd bd 74 40 97 bd ec de f9 bd 04 18 42 3d
       -0.123816654 -0.0738534 -0.12200722 0.047386184
000350 f0 d7 a9 bd 34 e4 94 bd a6 46 c7 bd de 04 c1 bd
       -0.0829314 -0.07270089 -0.09730272 -0.094247565
000360 ec 6b 5d bd 40 b6 7f 3d 2a 23 8a bd 88 a1 44 bd
       -0.054058 0.062429667 -0.06744988 -0.04800561
000370 ec 67 58 bd a4 c0 72 bd d8 22 60 bd b0 81 be bc
       -0.052833483 -0.059265748 -0.05472073 -0.0232552
000380 94 55 f2 3d 60 65 81 3c 1a 1a a4 bd 1e c8 96 3d
       0.11832729 0.01579541 -0.08012791 0.07362388
000390 82 41 d3 bd 10 0d 86 bd 70 cb 3a bd 34 a7 02 bd
       -0.10315229 -0.0654546 -0.04560417 -0.03189774
0003a0 00 c0 e1 3d 10 22 9e 3c 78 9b d0 3c 58 65 b2 bc
       0.11022949 0.019303352 0.025464758 -0.02177684
0003b0 d0 d8 9a bd 30 ca d6 bd 1c a9 b1 bd 5c 62 39 bd
       -0.07560885 -0.10487783 -0.08674833 -0.04525982
0003c0 a4 85 5b 3d e4 06 7d 3d a8 6a 97 bd 5a bb b4 3d
       0.053594247 0.06177415 -0.0739339 0.08824797
0003d0 40 f0 e4 bc 50 f1 57 bc f8 af cd 3c 90 f5 2e 3c
       -0.027946591 -0.013180092 0.025108323 0.010678664
0003e0 96 5b b2 bd 68 b6 fc bc b0 c2 87 3c 10 34 03 3d
       -0.08708875 -0.030848697 0.016572326 0.032032073
0003f0 a8 ec 49 3d 0e af a6 bd 60 ed 77 3c 8e 88 a7 3d
       0.04929796 -0.08138858 0.015132278 0.081803426

fc2.bias f4 [64]
000000 2f a6 da bc d0 13 1d bc ce 60 dc bd 66 65 c0 bd
       -0.02669057 -0.009587243 -0.107606515 -0.0939434
000010 1a b3 d6 3d 57 0b cd 3d 65 20 e7 3c 7e 3b 38 bd
       0.1048338 0.100119285 0.02821369 -0.04497861
000020 cc 8c e3 3c b4 f0 a7 3d 80 65 e4 ba 1c 8f 51 3d
       0.027777098 0.08200207 -0.0017425269 0.05116187
000030 6a 2e e8 bd 88 c2 1a 3c 33 22 23 bd 54 e9 50 bb
       -0.11336978 0.009445794 -0.039827537 -0.0031877356
000040 a5 33 db 3d e9 53 97 bd 27 ba 7e 3d ae c8 23 3d
       0.1070321 -0.073890515 0.062189247 0.039986305
000050 e4 17 9e 3c 5e ce 9e 3d 9a f2 f5 3d 9e 8a c2 bd
       0.019298501 0.07754205 0.12009163 -0.094990954
000060 74 c5 fc bd 7f 4e 85 bd b5 ff 86 3d 1e 1a 74 3d
       -0.12342349 -0.065091126 0.06591741 0.05959522
000070 1a 3c 94 3d 8c e5 ba bd 80 cf 0f 3b 38 ed d3 bc
       0.07238026 -0.09125814 0.0021943748 -0.02586995
000080 62 60 95 bd d0 33 c5 3d 80 f4 78 bd a9 ef 32 3d
       -0.07293774 0.09629023 -0.06078005 0.04368559
000090 88 fe 89 bc 1d c4 c6 3d b2 56 9e bd 74 fa c8 bd
       -0.016845003 0.097053744 -0.077313796 -0.09813395
0000a0 38 0c 5b bd d7 53 e7 3d 46 bf 81 bd 12 ff f0 bd
       -0.05347845 0.11295288 -0.06335311 -0.11767401
0000b0 40 1f be bc 56 32 c8 3d 18 93 ae bc 2d 24 de 3d
       -0.02320826 0.09775226 -0.021310374 0.10846744
0000c0 5d 1b 63 3c 22 f2 15 3d e0 63 fe bd 58 1a 97 3c
       0.013861504 0.03660787 -0.124213934 0.018445179
0000d0 5a 63 60 3d 4d 1e ae 3d e4 b0 85 3d a8 47 0f bd
       0.05478225 0.08501873 0.0652788 -0.034980446
0000e0 b5 07 85 3d a7 0e 51 3d d4 3c 38 3d f0 bc 44 3c
       0.064956106 0.051039364 0.044979885 0.012007937
0000f0 f8 0c 5d bd ad ab 3b 3d ee de 72 3d 62 00 aa bc
       -0.053967446 0.04581802 0.059294634 -0.020752136

fc3.weight f4 [1, 64]
000000 fd e2 55 bd d4 1f 43 bd 55 de ed 3c 22 0b bf 3d
       -0.052218426 -0.047637776 0.02903668 0.09328295
000010 4b 0f 62 bd 49 69 65 3c 91 c8 f2 3d ff 4b ec bd
       -0.055190366 0.014002153 0.11854661 -0.115379326
000020 1f e1 11 3d e1 d2 52 3b c0 d0 ad 3c 5e ee f0 3d
       0.035615083 0.003216915 0.021217704 0.11764215
000030 9e f5 fe 3d a7 7b ab 3d c7 94 83 3c 07 cb 8d 3d
       0.124491915 0.08373194 0.016062154 0.0692349
000040 6d 89 39 bd ff 67 bc 3d 86 d2 86 bc 47 23 de bd
       -0.045297075 0.09199523 -0.016457807 -0.10846572
000050 dd 28 80 3a e6 ff 83 bd 62 c9 85 bc 78 cf 94 bd
       0.0009777803 -0.06445293 -0.016331378 -0.07266134
000060 4c 4d ca bd 99 91 00 3d 12 02 7a bd 5c bb 84 bd
       -0.098780245 0.031388853 -0.06103713 -0.064810485
000070 72 1f b1 3d 85 21 49 bd 18 2f 90 3d 5c de 47 bd
       0.08648576 -0.049104232 0.070402324 -0.048796043
000080 30 d9 5b 3c 16 18 ae bd 89 09 61 3c 83 11 9c bd
       0.013418481 -0.08500688 0.0137351835 -0.076205276
000090 54 57 65 3d 4f 68 b5 bd 88 99 b9 bd cc 4f 43 3d
       0.055991486 -0.08857786 -0.09062487 0.047683522
0000a0 68 4c 75 bd 12 57 ff 3d c0 b9 96 3d d2 7e bc bd
       -0.05988732 0.12467779 0.07359648 -0.092038766
0000b0 9e 7e a1 3d a2 36 b5 bd 00 f6 9a 3b 80 e6 df 3d
       0.078854784 -0.08848311 0.0047290325 0.10932636
0000c0 35 1c ce bd c4 aa a9 3d 92 79 98 bd d7 fc eb bb
       -0.10063974 0.08284524 -0.07445063 -0.0072017717
0000d0 68 c7 3b 3d 07 88 c0 bd 55 4f 26 bc f1 9e ec 3d
       0.045844465 -0.09400945 -0.01015075 0.11553753
0000e0 4c 23 1c bc 99 fc 8a bd b2 19 8b bd 80 00 9c 3a
       -0.0095299 -0.067864604 -0.0679201 0.0011902004
0000f0 4c a1 42 3d df 2a a5 bc 23 03 60 bd 7a 51 36 bd
       0.047517106 -0.020162044 -0.05469049 -0.044511296
