public/api/mumps_model.pth (torch, 20592 bytes, 5 tensors)

fc1.weight f4 [64, 3]
0	0xbe75c28b	-0.23999994
1	0xbd6bfeab	-0.057615917
2	0x3e06f873	0.13180713
3	0x3e48a72d	0.19595022
4	0x3e23513c	0.15948957
5	0xbe246134	-0.16052705
6	0x3ce661eb	0.028122863
7	0x3ed887b2	0.42291027
8	0x3cbe5657	0.02323453
9	0x3e1a60bc	0.15075964
10	0x3ca7b25a	0.020470787
11	0x3f128e72	0.57248604
12	0xbe0f63b9	-0.14002885
13	0x3f0e7f2c	0.556628
14	0x3e318e5e	0.17339465
15	0x3dd69c0a	0.10478981
16	0x3ed26daa	0.41099292
17	0xbe518a1a	-0.20462838
18	0x3e8f1d2b	0.2795194
19	0x3e897d9e	0.2685365
20	0xbed52da6	-0.4163639
21	0xbe82b0f0	-0.25525618
22	0x3eef548f	0.467442
23	0xbeba806e	-0.3642611
24	0x3e9145e2	0.2837363
25	0x3ee1c302	0.44094092
26	0xbe21c189	-0.15796484
27	0xbeb92e6a	-0.36168224
28	0x3ecd5b06	0.40108508
29	0x3ee7e001	0.4528809
30	0x3e631922	0.22177556
31	0xbe67ebcc	-0.22648543
32	0x3e471b06	0.19443902
33	0x3cc0bb7d	0.023526901
34	0xbe97772d	-0.2958311
35	0x3ed1139c	0.40835273
36	0x3ebea18f	0.37232634
37	0xbe841341	-0.2579594
38	0x3b49d7c3	0.003079877
39	0x3ee169d1	0.44026044
40	0xbca01146	-0.019539487
41	0xbf0c2a28	-0.54751825
42	0xbec1f25d	-0.3788022
43	0x3eacfd01	0.33786777
44	0x3eb417b2	0.35174328
45	0xbea3d5d8	-0.31999087
46	0x3e823f50	0.2543893
47	0xbeff28ea	-0.49835902
48	0x3f05c08a	0.52246916
49	0x3ed72b9b	0.42025456
50	0x3f05b1da	0.52224505
51	0xbdddd7d9	-0.10832185
52	0x3e439e96	0.19103464
53	0x3f0ab7e7	0.5418686
54	0x3eaebd1c	0.34128654
55	0xbe7c776b	-0.2465493
56	0xbed5232c	-0.41628397
57	0xbf0c3f1a	-0.54783785
58	0xbeb66399	-0.35622862
59	0x3e4281ea	0.18994871
60	0xbecce80e	-0.40020794
61	0xbd100426	-0.035160206
62	0x3e6409f9	0.2226943
63	0xbea2780b	-0.3173221
64	0xbed8fcf1	-0.4238048
65	0xbe345393	-0.17610006
66	0xbee989d3	-0.45612964
67	0xbe23cc8a	-0.15995994
68	0x3dc4f05a	0.09616156
69	0x3c79f798	0.015256785
70	0x3d03ae61	0.032148723
71	0x3f09a088	0.53760576
72	0x3dd9fc72	0.10643853
73	0x3d368bd7	0.044566955
74	0x3ed94279	0.42433527
75	0xbd5d959a	-0.05409775
76	0xbd34edda	-0.044172145
77	0xbe2bd92b	-0.16782062
78	0x3eee8ebc	0.46593273
79	0xbf0e4189	-0.5556875
80	0x3ef40aa6	0.47664374
81	0xbeff18eb	-0.49823698
82	0xbe18f110	-0.14935708
83	0x3e174ac0	0.14774609
84	0x3de40df7	0.11135476
85	0x3e17e98b	0.14835183
86	0x3e92f8d3	0.28705463
87	0xbf0695c2	-0.5257226
88	0x3e88cda9	0.26719406
89	0x3eee6c42	0.4656697
90	0x3e939ed6	0.2883212
91	0x3ecb64d8	0.39725375
92	0xbdd8078a	-0.10548313
93	0xbddf8c79	-0.10915465
94	0x3eac2505	0.33621994
95	0xbeb60ac7	-0.35555097
96	0x3c635fe0	0.013877839
97	0xbdaf3228	-0.085544884
98	0xbe367e3f	-0.17821597
99	0x3e5cabaf	0.21549867
100	0x3e91c107	0.2846758
101	0x3e2e5cee	0.17027637
102	0x3ebff6d8	0.37493014
103	0x3ecbe9b7	0.39826748
104	0x3eb035fc	0.34416187
105	0xbf129df0	-0.57272243
106	0xbf1402fb	-0.5781705
107	0xbdce0171	-0.10058869
108	0xbe833de5	-0.2563316
109	0x3e790cd2	0.24321297
110	0x3f013a87	0.5047993
111	0x3ed2aebb	0.41148934
112	0xbebcd71f	-0.36882874
113	0xbed130a8	-0.40857434
114	0x3f040c4c	0.51581264
115	0x3ecc6e01	0.39927676
116	0x3e8ebca1	0.27878287
117	0xbf030a39	-0.51187474
118	0x3efdb40d	0.4955143
119	0x3e363c86	0.17796525
120	0xbecf0bf2	-0.404388
121	0xbd296253	-0.041353535
122	0x3e801323	0.250146
123	0x3e0480d4	0.12939769
124	0x3f0dae08	0.55343676
125	0xbdb485fd	-0.08814619
126	0x3ee80db9	0.4532297
127	0x3ef3d3df	0.47622582
128	0xbf0b25c1	-0.5435448
129	0xbda20c9d	-0.07912562
130	0x3d724f72	0.059157796
131	0x3ebb51a7	0.36585733
132	0xbe820eb5	-0.25401846
133	0x3e12070d	0.14260502
134	0xbecf3095	-0.40466753
135	0x3ee70ef2	0.4512859
136	0xbedfb0bb	-0.43689522
137	0xbcbe83e5	-0.023256252
138	0x3e88b612	0.2670141
139	0x3cd887b0	0.026431888
140	0xbef75e9c	-0.4831437
141	0x3d85b0f6	0.06527893
142	0xbeb91450	-0.3614831
143	0xbe415661	-0.18880607
144	0x3ed4c8e6	0.41559523
145	0x3eaef82a	0.3417371
146	0x3ead28ee	0.3382029
147	0x3e721263	0.23639826
148	0xbddf087d	-0.10890291
149	0x3eda1b9d	0.42599192
150	0x3ea5b80f	0.32366988
151	0x3c8e5a99	0.017377185
152	0xbf053a5e	-0.52042186
153	0xbeb613b7	-0.35561916
154	0xbf014698	-0.5049834
155	0x3f0f226b	0.5591189
156	0xbe9ebbe1	-0.31002715
157	0x3f1282f9	0.572311
158	0x3e897a84	0.26851285
159	0xbec147a1	-0.3774996
160	0xbed1c68d	-0.40971795
161	0x3c934826	0.017978739
162	0xbeff0a75	-0.49812666
163	0xbf04032a	-0.5156733
164	0x3d347ec9	0.044066224
165	0xbeb19abb	-0.34688362
166	0xbe1105ff	-0.14162444
167	0x3ef34e9a	0.47520906
168	0x3e9a5e64	0.3015014
169	0x3ed94734	0.42437136
170	0xbf0cfc76	-0.55072725
171	0x3eaf6618	0.3425758
172	0x3e4493b9	0.19196977
173	0x3e6e586e	0.23275921
174	0xbf0af80c	-0.5428474
175	0x3ed01d02	0.4064713
176	0xbf0c162d	-0.5472134
177	0xbea0c7de	-0.31402487
178	0xbdf58d5b	-0.11989852
179	0x3c90d9c4	0.017681964
180	0x3e8d770e	0.27629894
181	0xbf04a558	-0.51814795
182	0xbe84ed8d	-0.25962487
183	0x3ed8b442	0.42325026
184	0xbeb0e21b	-0.34547505
185	0x3ecc3d4a	0.3989051
186	0x3e05338f	0.1300795
187	0x3e89cd1f	0.26914307
188	0x3ec80bb3	0.39071426
189	0x3ed463ea	0.41482478
190	0x3eccc6c5	0.399954
191	0xbe864779	-0.26226404

fc1.bias f4 [64]
0	0x3f0d8ee4	0.5529616
1	0xbe6472ad	-0.2230937
2	0xbf002056	-0.5004934
3	0x3ebd7f8a	0.37011367
4	0xbec0a7f3	-0.37628135
5	0xbf0d7fb4	-0.55272985
6	0x3ccb25a5	0.024798224
7	0xbe9ab536	-0.30216378
8	0x3f0cdea8	0.55027246
9	0x3cef0e49	0.029181616
10	0xbee26874	-0.44220316
11	0xbf133a7d	-0.5751112
12	0xbc9b75db	-0.018977096
13	0x3ef692f9	0.48159006
14	0xbf127d64	-0.5722258
15	0xbee7788f	-0.45209166
16	0xbe89ba33	-0.2689987
17	0x3f09475c	0.5362451
18	0x3f01fbd2	0.5077487
19	0xbe0f607c	-0.1400165
20	0xbd5a095e	-0.05323159
21	0xbe40f948	-0.18845093
22	0x3e81bf94	0.25341475
23	0xbee47993	-0.44624004
24	0xbcfe99f4	-0.03107927
25	0xbe5eb8ad	-0.21750136
26	0xbea1c1c4	-0.31593144
27	0x3eb7036f	0.35744807
28	0xbd8b7834	-0.06810036
29	0xbdf2ea74	-0.11861125
30	0x3f13ca74	0.57730794
31	0xbe3d787e	-0.18502995
32	0xbddd6eeb	-0.108121715
33	0x3ee53bf4	0.44772303
34	0xbe8f83f1	-0.2803035
35	0x3ee57e45	0.44822899
36	0x3e9e66c3	0.30937776
37	0x3e3f1b0f	0.18662666
38	0x3d0cde4f	0.034391697
39	0xbd49df50	-0.049285233
40	0xbeb4a041	-0.35278514
41	0x3e8d1297	0.27553245
42	0x3e8e6217	0.27809212
43	0xbe850a0d	-0.2598423
44	0xbef51915	-0.478707
45	0x3f0525b7	0.52010673
46	0x3efcfc97	0.4941146
47	0xbdf4bba2	-0.119498506
48	0x3e62e73a	0.22158518
49	0xbe3c834f	-0.18409465
50	0xbcc8e5b5	-0.024523595
51	0xbeb70ed6	-0.35753506
52	0x3ede7faf	0.4345679
53	0xbeff5dfe	-0.49876398
54	0xbe689a4d	-0.22715111
55	0xbea3c363	-0.31985006
56	0xbe64513b	-0.22296612
57	0x3efb20d3	0.4904848
58	0xbea456cb	-0.32097468
59	0xbeaf09a0	-0.3418703
60	0xbd98bea5	-0.074582376
61	0xbea3b4cd	-0.31973878
62	0xbf00ad0e	-0.5026406
63	0x3e96ba11	0.29438832

fc2.weight f4 [64, 64]
0	0x3cb3efe3	0.021964973
1	0xbdfcccbc	-0.123437375
2	0x3dfdf21c	0.12399694
3	0x3d9062ca	0.070500925
4	0x3da4a597	0.08039396
5	0x3d025048	0.031814843
6	0x3ddccad7	0.10780876
7	0xbd3aff1a	-0.04565344
8	0x3dc13252	0.09433426
9	0xbd92cc04	-0.07167819
10	0xbd468490	-0.048466265
11	0x3d9be6f4	0.0761241
12	0x3c4f3c82	0.0126487035
13	0xba00b7a7	-0.0004910179
14	0xbdf1f1cd	-0.11813698
15	0xbde90ade	-0.11379026
16	0xbc9989e7	-0.018742515
17	0x3d1955c9	0.037435327
18	0x3cc45ed2	0.023970995
19	0xbdd6cb0c	-0.10487947
20	0x3cfc0d5a	0.030768085
21	0x3ad43980	0.0016191453
22	0x3d8a3a13	0.06749358
23	0xbb85f1c0	-0.0040876567
24	0xbd3fc94d	-0.046822835
25	0x3df67776	0.12034504
26	0x3d7cb372	0.06169457
27	0x3cf15aac	0.029462181
28	0x3d3299c5	0.043603677
29	0xbd8c5647	-0.068523936
30	0xbdf84635	-0.12122766
31	0x3dfbf42f	0.12302434
32	0xbda6bc14	-0.08141342
33	0x3d86d4e1	0.06583572
34	0x3de3f4fa	0.1113071
35	0x3dc8c4ca	0.098031595
36	0xbdcc59dd	-0.099780776
37	0x3d4c8153	0.04992802
38	0x3d57dc68	0.05270043
39	0x3c9457a1	0.018108191
40	0x3df22908	0.11824232
41	0x3d29cdac	0.04145591
42	0x3ddffdf9	0.10937113
43	0x3d9d59a0	0.0768311
44	0xbb68a6c0	-0.0035499781
45	0x3db7bf68	0.08972055
46	0xbcd373bd	-0.025812024
47	0xbdd5b986	-0.104357764
48	0x3d94f5b7	0.07273429
49	0x3cceed15	0.025259534
50	0x3dc35973	0.095385455
51	0xbdb9450e	-0.09046374
52	0xbbff26a8	-0.0077865906
53	0x3d2bb314	0.04191883
54	0x3d31d1ec	0.043413088
55	0xbde63824	-0.11241177
56	0x3d947e52	0.07250656
57	0x3de4e946	0.11177306
58	0xbde415a5	-0.11136941
59	0xbd9f4e4c	-0.07778606
60	0xbbc2cf15	-0.0059450963
61	0xbc6d557f	-0.014485716
62	0xbdb50ebe	-0.088407025
63	0x3c4e696d	0.012598378
64	0xbd159310	-0.036517203
65	0xbcb21988	-0.02174069
66	0xbdf483d6	-0.11939208
67	0xbc8680d5	-0.016418854
68	0xbdfa1c49	-0.12212426
69	0xbd746048	-0.059662133
70	0xbd17000b	-0.036865275
71	0xbdf1baa7	-0.11803179
72	0x3d0a939d	0.03383218
73	0x3de729df	0.11287283
74	0x3cdd6808	0.027027145
75	0xbdf57a6c	-0.11986241
76	0x3d3d275d	0.046180118
77	0x3d996983	0.07490828
78	0x3d13be59	0.0360702
79	0x3dcb15e2	0.09916283
80	0xbcc892aa	-0.024483997
81	0x3c6f7dff	0.014617442
82	0xbdc58606	-0.096447036
83	0xbdfc03dc	-0.123054236
84	0x3dd594b4	0.104287535
85	0x3d5dced0	0.05415231
86	0xbdd8ff96	-0.10595624
87	0x3b2e0eaf	0.0026559045
88	0xbdae233f	-0.085028164
89	0xbdf94b4e	-0.12172566
90	0xbdb560d4	-0.08856359
91	0xbce0fa4d	-0.027463103
92	0x3d507bdc	0.05089937
93	0x3d849240	0.064732075
94	0xbe04e50d	-0.12978001
95	0xbd8d7e0e	-0.06908809
96	0x3dad91f8	0.08475107
97	0x3d66c4ca	0.056340016
98	0x3d72db56	0.059291206
99	0xbd01f478	-0.031727284
100	0x3dc4eb80	0.096152306
101	0xbd15de8b	-0.036589187
102	0xbd8d1c8b	-0.0689021
103	0x3c576234	0.013145972
104	0x3ccde898	0.025135323
105	0xbd5332df	-0.051562186
106	0x3b8fe3ff	0.004391193
107	0x3dc482da	0.095952705
108	0xbd89256e	-0.06696592
109	0xbdf8f21d	-0.121555544
110	0xbd4f4854	-0.050606087
111	0xbdf1208a	-0.117737845
112	0x3cbb4226	0.02285869
113	0xbd0fd584	-0.035115734
114	0xbd9750e8	-0.073884785
115	0xbd90733c	-0.07053229
116	0x3d23ad73	0.039960336
117	0xbd774b30	-0.06037444
118	0x3de3e3ac	0.11127409
119	0xbd95dc0f	-0.073173635
120	0xbd8730e9	-0.06601126
121	0x3d6023bd	0.054721583
122	0xbcadd5cc	-0.02122011
123	0x3cf06f88	0.029350057
124	0xbcd766b8	-0.026294097
125	0xbd6b9a9c	-0.057520494
126	0x3d467201	0.048448566
127	0xbdb62e57	-0.088955574
128	0xbd6055ae	-0.05476921
129	0xbdfdb7ce	-0.123885736
130	0x3d5e5e94	0.054289415
131	0x3dbe4a76	0.09291546
132	0x3ddb112d	0.106966354
133	0x3c2b4960	0.010454506
134	0x3c0df6b7	0.008664778
135	0xbcc52e54	-0.024069943
136	0xbda6b634	-0.08140221
137	0xbdeefc02	-0.116691604
138	0x3d88d52e	0.06681286
139	0x3dd7d150	0.1053797
140	0x3d7709ab	0.060311954
141	0xbdcadb8b	-0.09905156
142	0xbcb6b774	-0.022304274
143	0xbd3ea908	-0.04654792
144	0xbdceddf2	-0.101009265
145	0x3b9fa277	0.0048716622
146	0x3dc7aaa9	0.09749348
147	0xbdecaf82	-0.11556913
148	0xbd5b3ba3	-0.05352367
149	0xbda83a0a	-0.08214195
150	0xbdeb3177	-0.11484044
151	0xbd28fc0c	-0.041255996
152	0x3d8972bf	0.06711339
153	0x3d0d67e8	0.03452292
154	0xbca01a95	-0.019543925
155	0x3da5821b	0.08081456
156	0x3d8d7607	0.069072776
157	0xbde2d912	-0.11076559
158	0x3dabaf8b	0.083830915
159	0xbdec34e8	-0.115335286
160	0xbdd59686	-0.10429101
161	0x3d86c2b2	0.06580104
162	0x3d0d8ace	0.034556203
163	0x3d82f5eb	0.063945614
164	0xbaec93c8	-0.0018049413
165	0x3d7aa267	0.061190035
166	0xbd01738a	-0.031604327
167	0xbda75474	-0.08170405
168	0xbdfd14b2	-0.12357463
169	0x3dabace2	0.08382584
170	0x3cc1748b	0.023615142
171	0xbdb5619c	-0.08856508
172	0x3dc5050c	0.09620103
173	0xbd4cd85c	-0.050011024
174	0x3cfae994	0.030628957
175	0xbde9ad18	-0.11409968
176	0x3d3bfd0f	0.045895632
177	0x3d406f35	0.046981055
178	0x3de20272	0.11035623
179	0x3d8b6d38	0.06807941
180	0x3de5fbab	0.112296425
181	0x3d072db8	0.033002585
182	0x3db91450	0.090370774
183	0xbd1ba253	-0.0379966
184	0xbdc8ce67	-0.09804993
185	0x3dbcff1f	0.09228348
186	0xbd70366a	-0.058645643
187	0x3cae46b8	0.021273956
188	0xbdeadaf9	-0.11467547
189	0xbd9fec57	-0.0780875
190	0xbd35fbc6	-0.044429563
191	0x3d17d952	0.037072487
192	0xbcb4f704	-0.022090442
193	0xb9d69e00	-0.0004093498
194	0x3d3723c0	0.04471183
195	0x3df6d918	0.12053126
196	0x3ce4dfef	0.027938811
197	0x3d1f7ff0	0.03894037
198	0xbca3ea46	-0.020009171
199	0x3d951af8	0.072805345
200	0x3d296921	0.041360024
201	0x3d394622	0.0452329
202	0x3d98bada	0.07457514
203	0xbdd5c45a	-0.10437842
204	0x3d49fc12	0.04931266
205	0x3cdf1af9	0.027234541
206	0xbddc95f0	-0.10770786
207	0x3b714fc0	0.0036821216
208	0xbd84b548	-0.06479889
209	0x3de562c0	0.11200476
210	0x3d64518e	0.05574184
211	0x3d6c50f8	0.057694405
212	0x3d945cbf	0.072442524
213	0x3da7773c	0.08177039
214	0xbdc2365b	-0.09483024
215	0xbcb765e6	-0.022387456
216	0xbd6c342a	-0.057666935
217	0xbd81a240	-0.06329775
218	0x3c7ab38c	0.015301596
219	0x3dc34f88	0.09536654
220	0x3db725b0	0.08942735
221	0x3cb6e4cf	0.022325901
222	0xbdd6be40	-0.10485506
223	0xbd773ec1	-0.06036258
224	0xbc901f00	-0.017592907
225	0x3b60ba8e	0.0034290883
226	0x3d555b42	0.052088983
227	0xbcfccabb	-0.030858388
228	0x3d2d833a	0.042361476
229	0x3dcdea5a	0.10054465
230	0x3d60758e	0.05479961
231	0x3daa24d5	0.083078064
232	0x3dd7afac	0.105315536
233	0xbd0209a6	-0.031747483
234	0xbbf9f14e	-0.0076276427
235	0xbd8d67cf	-0.069045655
236	0x3d21ebe4	0.039531603
237	0xbdd90798	-0.105971515
238	0xbdf57fb5	-0.11987249
239	0xbd2e68f0	-0.042580545
240	0xbdd90ef1	-0.10598553
241	0x3df4f89c	0.11961481
242	0xbdee2628	-0.116283715
243	0xbdc9daf0	-0.09856212
244	0xbd6d3fb4	-0.05792208
245	0xbdcc1cc8	-0.09966427
246	0xbd3c0e1c	-0.045911893
247	0x3d1ce4ee	0.038304262
248	0x3d0aabc7	0.033855226
249	0xbd6b0111	-0.057374064
250	0x3d3a9883	0.045555603
251	0xbdd54890	-0.10414231
252	0x3dd83217	0.10556429
253	0xbc840c8f	-0.01611927
254	0xbce75b85	-0.028241882
255	0x3d9ac985	0.07557968

fc2.bias f4 [64]
0	0x3db24b95	0.087058224
1	0x3db6751a	0.08909054
2	0xbd181f51	-0.03713924
3	0x3cee5260	0.029092014
4	0x3d94bac1	0.07262183
5	0x3de2629e	0.11053966
6	0xbd84ce80	-0.06484699
7	0x3ddc40e6	0.10754566
8	0x3a50bf00	0.00079630315
9	0x3cdfd7d0	0.027324587
10	0xbdc8db54	-0.098074585
11	0xbd557164	-0.05211009
12	0x3c9767a0	0.01848203
13	0xbd450884	-0.048103824
14	0x3c3bc790	0.011461154
15	0xbd09ccf4	-0.033642724
16	0xbd0e646c	-0.03476374
17	0xbda2079e	-0.07911609
18	0x3dc889b3	0.09791889
19	0x3ccbebde	0.024892744
20	0xbd9f792a	-0.07786782
21	0x3cab2561	0.020891847
22	0xbd673cd0	-0.05645448
23	0xbb5b2e80	-0.0033444464
24	0xbda1cda4	-0.07900551
25	0xbdd1c331	-0.10242308
26	0x3db53759	0.08848447
27	0xbc2d1f11	-0.010566489
28	0xbdc38caa	-0.09548314
29	0x3deb9a95	0.115040936
30	0x3c71ea27	0.014765299
31	0xbd99b198	-0.075045764
32	0xbd8b8c9e	-0.0681393
33	0xbde6f608	-0.112773955
34	0x3db80063	0.08984449
35	0x3c4cdb60	0.012503475
36	0x3cbd4856	0.023105782
37	0xbdb24df8	-0.087062776
38	0xbd06dd78	-0.032926053
39	0xbd075d1f	-0.03304779
40	0x3dd1d4bd	0.10245655
41	0x3d9bb8c9	0.07603604
42	0x3d2d50f4	0.04231353
43	0xbccab80f	-0.02474597
44	0x3ca51172	0.02014992
45	0xbd20f550	-0.03929645
46	0xbbebb300	-0.0071929693
47	0x3debb73b	0.11509558
48	0xbccf3b80	-0.025296926
49	0xbdcbad0a	-0.09945114
50	0xbd3921fc	-0.045198426
51	0xbd612274	-0.054964498
52	0xbdb34daa	-0.087550476
53	0xbd879daa	-0.06621869
54	0x3d113394	0.03544958
55	0xbdd1bb6a	-0.102408245
56	0x3cb34b68	0.021886542
57	0xbd9c0fb5	-0.076201834
58	0x3cc1c654	0.02365414
59	0xbca113f9	-0.019662844
60	0x3df7f3fc	0.12107083
61	0x3d227e39	0.039671157
62	0xbde80dee	-0.11330782
63	0x3decd831	0.11564673

fc3.weight f4 [1, 64]
0	0x3d6d7793	0.057975363
1	0xbd3c699b	-0.04599915
2	0xbd06af6d	-0.032882143
3	0x3defcd91	0.117091306
4	0xbce9a1a1	-0.028519453
5	0x3d580dfc	0.05274771
6	0x3db547e0	0.088516
7	0xbda05308	-0.07828337
8	0xbdedc73e	-0.11610268
9	0xbc54ebc0	-0.01299566
10	0x3d85a1b0	0.0652498
11	0x3c101800	0.008794785
12	0x3d86cef0	0.06582439
13	0xbd8e6a66	-0.06953888
14	0x3d5788e7	0.052620795
15	0x3b9f5ad5	0.004863123
16	0xbd9d6ad0	-0.076863885
17	0x3dd8fc0c	0.10594949
18	0x3dc103ce	0.09424554
19	0xbcf0e521	-0.029406132
20	0x3d433714	0.04765995
21	0xbcfb7a5c	-0.030697994
22	0x3dce9996	0.10087888
23	0x3c466960	0.012110084
24	0x3b193075	0.002337483
25	0xbd2ae15f	-0.041718837
26	0x3d2bf1eb	0.041978758
27	0x3dc8a91b	0.09797879
28	0xbdc65097	-0.0968334
29	0x3c4efc5e	0.012633411
30	0xbda89285	-0.082310714
31	0xbd4c0e5c	-0.04981838
32	0xbd8abaaa	-0.067738846
33	0xbce42438	-0.027849302
34	0xbd87a37f	-0.06622981
35	0x3c8fa9f0	0.017537087
36	0xbc2b038e	-0.010437859
37	0x3d8ac480	0.06775761
38	0x3d31f134	0.04344292
39	0xbce4896a	-0.027897555
40	0xbd98b51d	-0.074564196
41	0x3d71ea90	0.059061587
42	0x3df84c56	0.12123935
43	0xbd6bb998	-0.057550043
44	0xbd3fe3fe	-0.04684829
45	0x3d1f7de8	0.038938433
46	0x3dedbe04	0.11608508
47	0x3ddf97d0	0.10917628
48	0x3dcb9ad3	0.0994164
49	0x3c949b40	0.018140435
50	0x3d4e351c	0.050343618
51	0xbd508a34	-0.05091305
52	0x3ded73de	0.115943655
53	0x3c8b7f36	0.017028432
54	0xbdf151e8	-0.117832005
55	0xbde2f026	-0.11080961
56	0xbdb69684	-0.08915427
57	0xbcb276a2	-0.021785084
58	0xbd9531e0	-0.072849035
59	0xbdd6cfda	-0.10488863
60	0x3dbb39cb	0.091418825
61	0xbd81a3d3	-0.06330075
62	0x3d20bd70	0.03924316
63	0x3adb906e	0.0016751417
