public/api/mumps_model.pth (torch, 20592 bytes, 5 tensors)

fc1.weight f4 [64, 3]
-0.5515207 -0.339746 -0.21434392 0.4182115 -0.2999105 0.043746438 -0.5076103 -0.24242093
-0.5036523 0.16540226 -0.44176078 0.36994871 -0.42833355 -0.36501747 0.28357947 0.34409952
-0.25202075 -0.45869127 0.5389458 0.08201325 -0.07582911 -0.38516337 -0.049223024 0.57004505
-0.50219077 -0.30681688 -0.5744707 0.11622507 0.38421017 -0.25118414 -0.42517662 -0.2784281
0.14474508 -0.045756754 0.26030558 -0.07864198 0.16501994 -0.2663976 0.1377308 0.17529894
0.3621112 0.3013967 0.3478587 0.08918495 0.5397357 0.41873682 0.53643465 0.38988087
0.4837096 -0.5353746 0.49054316 -0.26866663 0.37331086 0.11590739 0.087542266 -0.5278825
0.15928997 0.54698694 -0.47877017 0.29016554 0.11340276 -0.3218029 0.5325325 0.14526774
-0.06505994 -0.10184144 -0.17789552 -0.5005013 -0.31332478 0.43592393 -0.049238116 -0.57309985
-0.25879416 -0.5070014 -0.13878144 -0.57269233 0.10866709 0.09397729 0.40651587 0.47999707
-0.28922996 0.12718315 -0.36987627 0.0019290952 0.40840593 0.4323769 0.33358264 0.47646135
-0.23185042 -0.49353403 -0.542369 0.25730723 0.3737715 0.44109645 0.47746882 -0.29131246
-0.20262904 -0.07927589 -0.3605087 0.56401026 -0.536245 0.14993289 0.052946612 0.1456548
-0.43220526 -0.08922644 0.0036348454 0.07886926 -0.48247913 0.2181669 -0.098676905 -0.16876064
-0.56966263 -0.2482718 -0.014239754 0.55790174 -0.41116366 -0.24928528 -0.11158246 0.14221185
-0.11645415 -0.3566824 0.32624155 0.20351464 -0.37736395 -0.19104587 0.15079534 0.21960954
0.1590463 0.21926019 0.49598706 -0.43196985 0.11503747 -0.1684643 0.48527405 -0.16650133
0.09590261 -0.48923573 0.5693138 0.5290852 -0.096042015 -0.49830344 0.18398677 0.53427887
0.36635408 -0.33741942 -0.56180245 0.20617017 -0.23102158 0.46366572 -0.30859268 -0.25246996
-0.3654059 -0.4707096 -0.16643654 0.55872256 0.52326876 0.23077197 0.16309723 0.24342625
-0.22989325 -0.54849637 0.51718193 -0.120719515 -0.44625756 -0.20825869 0.32680145 0.36598957
-0.06315385 -0.34326702 0.054865833 -0.48549062 -0.36872932 0.4784451 0.44381595 -0.052590135
-0.5712547 0.3364783 0.12010353 -0.22870424 -0.004219708 -0.11515292 0.4481473 0.550775
-0.1821258 -0.4880696 0.19683395 -0.48316577 0.40991533 0.087805465 0.42609274 0.054613262
00000000: 7630 0dbf 30f3 adbe f97c 5bbe d11f d63e
00000010: de8d 99be 772f 333d c0f2 01bf 313d 78be
00000020: 5bef 00bf 365f 293e 782e e2be eb69 bd3e
00000030: 894e dbbe 92e3 babe 5431 913e d02d b03e
00000040: dd08 81be 95d9 eabe 5af8 093f 90f6 a73d
00000050: 4b4c 9bbd 2234 c5be 159e 49bd 79ee 113f
00000060: 938f 00bf 1a17 9dbe 8310 13bf 6907 ee3d
00000070: 32b7 c43e 359b 80be c0b0 d9be 218e 8ebe
00000080: 0e38 143e 6f6b 3bbd c646 853e 0c0f a1bd
00000090: fdfa 283e 4465 88be 4e09 0d3e 9181 333e
000000a0: a466 b93e ab50 9a3e 891a b23e 99a6 b63d
000000b0: 1e2c 0a3f ac64 d63e c853 093f 779e c73e
000000c0: c9a8 f73e 4f0e 09bf 7928 fb3e ac8e 89be
000000d0: 9a22 bf3e db60 ed3d 5c49 b33d 4f23 07bf
000000e0: e91c 233e 5607 0c3f 5d21 f5be 9490 943e
000000f0: b53f e83d 5ac3 a4be 0d54 083f 11c1 143e
00000100: 253e 85bd 3f92 d0bd 3e2a 36be da20 00bf
00000110: 1b6c a0be 6c31 df3e e8ad 49bd acb6 12bf
00000120: ab80 84be d8ca 01bf b91c 0ebe f79b 12bf
00000130: da8c de3d 2a77 c03d d922 d03e 2dc2 f53e
00000140: f315 94be 4d3c 023e 6c60 bdbe b2d9 fc3a
00000150: 951a d13e 8160 dd3e 58cb aa3e bef2 f33e
00000160: 326a 6dbe 7eb0 fcbe b2d8 0abf c6bd 833e
00000170: fa5e bf3e 65d7 e13e cb76 f43e e826 95be
00000180: fd7d 4fbe 665b a2bd 9994 b8be fa62 103f
00000190: 5a47 09bf 0288 193e 8cde 583d 8826 153e
000001a0: 024a ddbe 5abc b6bd 9636 6e3b 3586 a13d
000001b0: 8107 f7be 2567 5f3e 1e17 cabd 97cf 2cbe
000001c0: 69d5 11bf f63a 7ebe db4d 69bc a6d2 0e3f
000001d0: 0b84 d2be a444 7fbe 5885 e4bd fc9f 113e
000001e0: 837f eebd 139f b6be 2209 a73e 2466 503e
000001f0: d935 c1be 87a1 43be 186a 1a3e 53e1 603e
00000200: 09dd 223e be85 603e 04f2 fd3e 272b ddbe
00000210: c498 eb3d e881 2cbe d775 f83e 537f 2abe
00000220: 9668 c43d 1b7d fabe 8dbe 113f 2172 073f
00000230: adb1 c4bd a121 ffbe 0767 3c3e 80c6 083f
00000240: c392 bb3e 3dc2 acbe 49d2 0fbf 461e 533e
00000250: ec90 6cbe 9865 ed3e dcff 9dbe be43 81be
00000260: 7b16 bbbe d900 f1be 576e 2abe 7108 0f3f
00000270: f1f4 053f 7d4f 6c3e f602 273e bb44 793e
00000280: 2369 6bbe 426a 0cbf 0966 043f cb3b f7bd
00000290: df7b e4be c441 55be 8552 a73e fc62 bb3e
000002a0: ce56 81bd b2c0 afbe ffba 603d 3a92 f8be
000002b0: 17ca bcbe c2f6 f43e d83b e33e c168 57bd
000002c0: bf3d 12bf e246 ac3e d7f8 f53d 7231 6abe
000002d0: 7a45 8abb 4bd5 ebbd 9073 e53e 97ff 0c3f
000002e0: 307f 3abe 42e4 f9be d78e 493e 8161 f7be
000002f0: 6ce0 d13e 5ad3 b33d d428 da3e 28b2 5f3d

fc1.bias f4 [64]
-0.52477485 0.003473735 0.041469473 0.36420292 0.51111096 0.15779215 -0.4805549 -0.24190906
0.11918357 -0.1674003 -0.4172047 -0.16658302 0.15927483 -0.41717768 0.22726811 -0.46988446
0.38377157 0.31256834 -0.3098935 -0.38422504 0.033125125 0.18838915 -0.5251277 -0.4710231
0.567287 -0.19937885 -0.2547208 0.06490783 -0.32410648 0.18959776 -0.3405277 0.10442347
0.104956105 0.2568113 0.03467625 0.19855934 0.3423059 -0.10790492 0.07881169 0.29204592
-0.16473112 -0.4491493 -0.1516648 0.5580908 0.11910373 0.07790971 0.0144938165 -0.3406517
-0.31976107 -0.08713623 -0.4382884 0.0032712403 0.43220058 0.26943448 0.5085641 -0.48766774
0.05782388 -0.5603916 -0.38911882 0.079725794 0.14116873 -0.36745787 -0.26982906 -0.17108005
00000000: a557 06bf 9aa7 633b e5db 293d ce78 ba3e
00000010: 2bd8 023f 4494 213e 4b0b f6be 02b7 77be
00000020: 8416 f43d fc6a 2bbe db9b d5be bd94 2abe
00000030: f118 233e 5098 d5be f9b8 683e b294 f0be
00000040: b57d c43e f508 a03e 5caa 9ebe 25b9 c4be
00000050: 36ae 073d 16e9 403e c56e 06bf f129 f1be
00000060: b939 113f f829 4cbe c46a 82be 65ee 843d
00000070: 49f1 a5be ea25 423e a659 aebe f9db d53d
00000080: 3af3 d63d c57c 833e af08 0e3d 2453 4b3e
00000090: b842 af3e 41fd dcbd 0668 a13d 0b87 953e
000000a0: 46af 28be e6f6 e5be 044e 1bbe 0adf 0e3f
000000b0: a8ec f33d 208f 9f3d 7977 6d3c e669 aebe
000000c0: b9b7 a3be 7b74 b2bd 5667 e0be 4e62 563b
000000d0: 6549 dd3e 51f3 893e 4231 023f 96af f9be
000000e0: bcd8 6c3d d375 0fbf 953a c7be 4747 a33d
000000f0: 898e 103e 7023 bcbe 0927 8abe 9c2f 2fbe

fc2.weight f4 [64, 64]
0.09629722 -0.006086639 0.056643706 -0.03663007 0.03130471 -0.002130207 -0.05949757 -0.10370269
-0.08517756 0.08576378 0.083516926 0.06941837 -0.09494783 -0.014755502 -0.037866637 -0.11221119
-0.00066699047 0.07669235 0.1041747 0.0746956 0.092659555 0.044439483 -0.077331215 -0.029923141
0.03287957 0.074865624 -0.06989293 -0.116885185 0.026866436 0.124791704 0.034933954 0.04801686
0.076722 -0.039536238 -0.06491154 -0.08690088 -0.03585907 0.07397984 0.10089657 0.047699634
-0.032378048 -0.0043319166 0.11931616 -0.096091166 -0.025873419 -0.03752367 -0.0630329 -0.028242141
-0.11008925 -0.047409568 -0.008609191 -0.05985005 0.052240398 0.123333186 -0.103622906 -0.026783526
0.10040672 0.028433964 -0.04834358 -0.021124046 -0.05323178 0.043008413 0.05509685 -0.1288773
-0.12414712 -0.020104889 0.02339961 0.059600264 0.043841224 -0.015856544 -0.049836814 0.060347717
-0.02573843 0.057545 0.017644495 0.037922245 0.042214572 -0.08234977 -0.053273804 -0.025891718
0.07099087 0.057084665 -0.08203663 0.03470861 0.038049806 -0.01046107 -0.09948756 0.08119756
-0.12018229 0.0029519296 0.09415741 0.053548858 0.07037118 -0.034585077 0.08869852 -0.12262459
-0.10428809 -0.054470178 -0.07375415 0.11924229 0.080447346 0.10032192 0.10674777 -0.08884643
-0.055252686 -0.009365544 -0.04258279 0.033075675 0.07776077 -0.080753215 -0.07815374 0.0059193447
0.10350779 0.06738138 0.02832669 0.10446068 0.09838977 -0.100934714 -0.030034771 -0.076908164
-0.12357805 0.08194257 0.013464325 0.057281572 0.031666335 0.04261718 -0.07254757 0.05663377
-0.004024327 -0.030332195 0.0032279426 -0.071595214 -0.0026780867 -0.0770454 -0.10698135 0.05242444
0.05005066 -0.05553817 -0.029819027 -0.11756979 0.06434612 -0.04034305 0.1195866 0.10593723
0.023071455 -0.013436405 0.03254056 -0.0746985 0.023963796 0.0363183 0.073331386 -0.039799184
-0.0028206822 -0.027878959 0.03731437 0.031092286 -0.05165235 -0.09934892 -0.02038438 -0.073094
-0.07569332 0.08282466 -0.09136527 -0.02484697 0.10652253 0.041850895 -0.07831271 -0.02840584
-0.0057587177 -0.058345243 0.04999465 -0.06300192 0.11486628 -0.030229148 0.120468244 -0.09802855
0.07900362 0.07965668 -0.036457837 -0.11899239 0.034529787 0.030854875 0.041103385 0.043495636
-0.06826963 -0.06292641 0.090406 0.046433147 -0.06848737 -0.058308065 -0.116789594 -0.006264521
0.11186828 -0.008562133 0.08366528 0.11557017 0.0077660233 0.06564075 -0.09773113 0.042983532
-0.0030545592 -0.095872074 -0.09244856 -0.0042092353 -0.012914658 -0.04386899 -0.10876632 0.0016644001
-0.10842855 -0.08624518 -0.09983657 -0.11919089 0.106093645 -0.11852221 -0.016695112 0.0037676096
-0.026452467 0.05487518 0.06667225 -0.078572944 -0.09071697 -0.051013216 -0.021695763 0.009600326
-0.06988011 0.011936739 0.0028018206 -0.09732376 0.06781265 -0.07115547 0.03531356 0.104096845
0.06933838 -0.1201531 -0.015061602 -0.028595999 -0.023605093 0.0129891485 -0.08518328 0.061879948
0.027827054 0.102963805 -0.0035006404 -0.110042125 -0.06920226 -0.071588576 -0.09416039 0.03629768
-0.012915254 0.11572601 0.008090243 0.038808867 -0.05124499 0.047751665 -0.09036821 0.10810588
00000000: 7a37 c53d 6e72 c7bb 3b03 683d 6a09 16bd
00000010: 5e39 003d f19a 0bbb b9b3 73bd 1362 d4bd
00000020: 9371 aebd eca4 af3d ec0a ab3d 382b 8e3d
00000030: 0274 c2bd 10c1 71bc 0c1a 1bbd fbce e5bd
00000040: f9d8 2eba e110 9d3d 8c59 d53d 02fa 983d
00000050: 4bc4 bd3d 2d06 363d d45f 9ebd 6021 f5bc
00000060: baac 063d 2653 993d 0624 8fbd 8061 efbd
00000070: 0017 dc3c cb92 ff3d e816 0f3d 54ad 443d
00000080: 6d20 9d3d c0f0 21bd 57f0 84bd 17f9 b1bd
00000090: f6e0 12bd be82 973d dca2 ce3d b160 433d
000000a0: d89e 04bd c0f2 8dbb 085c f43d 72cb c4bd
000000b0: 7ef4 d3bc 6bb2 19bd 6517 81bd 105c e7bc
000000c0: 7976 e1bd 8930 42bd 900d 0dbc 5325 75bd
000000d0: 07fa 553d 1c96 fc3d 3f38 d4bd 2069 dbbc
000000e0: 0aa2 cd3d 58ee e83c eb03 46bd 560c adbc
000000f0: 9109 5abd 9729 303d 3cad 613d 69f8 03be
00000100: d840 febd 02b3 a4bc 8ab0 bf3c 681f 743d
00000110: db92 333d 95e5 81bc b021 4cbd 2b2f 773d
00000120: 66d9 d2bc 4eb4 6b3d 308b 903c 5b54 1b3d
00000130: 30e9 2c3d ffa6 a8bd a235 5abd de1a d4bc
00000140: a963 913d 9cd1 693d d202 a8bd 9e2a 0e3d
00000150: 1dda 1b3d e864 2bbc 22c0 cbbd e84a a63d
00000160: 2222 f6bd 2975 413b 9ad5 c03d 0c56 5b3d
00000170: c41e 903d 15a9 0dbd 92a7 b53d 9a22 fbbd
00000180: fe94 d5bd 1f1c 5fbd 6a0c 97bd 4d35 f43d
00000190: 94c1 a43d 9475 cd3d 939e da3d 1ef5 b5bd
000001a0: a450 62bd f071 19bc 4b6b 2ebd 5c7a 073d
000001b0: 0a41 9f3d f161 a5bd 110f a0bd 10f7 c13b
000001c0: e4fb d33d 40ff 893d 600d e83c 7bef d53d
000001d0: 9380 c93d dcb6 cebd 7b0b f6bc 0782 9dbd
000001e0: 7d16 fdbd 82d1 a73d 7999 5c3c 15a0 6a3d
000001f0: 8fb4 013d 5a8f 2e3d d293 94bd d0f8 673d
00000200: 80de 83bb 397b f8bc e48b 533b 83a0 92bd
00000210: d782 2fbb fbc9 9dbd 0a19 dbbd 02bb 563d
00000220: ec01 4d3d fe7b 63bd 0847 f4bc 6ec8 f0bd
00000230: e6c7 833d c13e 25bd d2e9 f43d 9ef5 d83d
00000240: 5900 bd3c 5e24 5cbc 4049 053d 87fb 98bd
00000250: b94f c43c 7fc2 143d c42e 963d 7804 23bd
00000260: 32db 38bb 6a62 e4bc f4d6 183d 40b5 fe3c
00000270: 6a91 53bd 7277 cbbd 25fd a6bc 4fb2 95bd
00000280: 1905 9bbd fa9f a93d b71d bbbd df8b cbbc
00000290: 7c28 da3d d86b 2b3d 6a62 a0bd 5db3 e8bc
000002a0: a0b3 bcbb 6cfb 6ebd 31c7 4c3d 2707 81bd
000002b0: 033f eb3d 1ea3 f7bc 0eb8 f63d 31c3 c8bd
000002c0: a6cc a13d 0b23 a33d d054 15bd 48b2 f3bd
000002d0: 1b6f 0d3d 5dc3 fc3c 065c 283d 7b28 323d
000002e0: f3d0 8bbd 90df 80bd c826 b93d af30 3e3d
000002f0: 1b43 8cbd 70d4 6ebd 622f efbd 9c46 cdbb
00000300: 321b e53d 3048 0cbc b458 ab3d 0eb0 ec3d
00000310: 207a fe3b a86e 863d 4227 c8bd 800f 303d
00000320: 002f 48bb 9458 c4bd ac55 bdbd a0ed 89bb
00000330: 0098 53bc f8af 33bd e0c0 debd 0028 da3a
00000340: ca0f debd 50a1 b0bd 1e77 ccbd 5a1a f4bd
00000350: a047 d93d c6bb f2bd 30c4 88bc 00ea 763b
00000360: d8b2 d8bc ccc4 603d 768b 883d daea a0bd
00000370: d2c9 b9bd 3cf3 50bd 50bb b1bc b04a 1d3c
00000380: 4e1d 8fbd 5092 433c c09e 373b ae51 c7bd
00000390: 5ce1 8a3d f6b9 91bd f4a4 103d ba30 d53d
000003a0: 4801 8e3d d412 f6bd f0c4 76bc 2842 eabc
000003b0: 785f c1bc 70d0 543c 9274 aebd d475 7d3d
000003c0: 90f5 e33c b0de d23d 006b 65bb c45d e1bd
000003d0: eab9 8dbd 089d 92bd 2ad7 c0bd e0ac 143d
000003e0: 809a 53bc c201 ed3d f08c 043c 0cf6 1e3d
000003f0: 44e6 51bd 4097 433d f812 b9bd 9e66 dd3d

fc2.bias f4 [64]
0.114054374 0.109911665 -0.027353857 -0.076160535 0.01742053 0.014106959 0.028508417 0.07767002
-0.00017493963 0.09660983 -0.095416 0.039120704 -0.09742418 -0.06943618 0.047395367 0.107019976
-0.05761862 -0.040629897 -0.061191473 -0.043418735 -0.12338686 0.03890243 0.1189294 0.06275008
0.06005703 -0.07152818 -0.019717619 0.077578105 0.09526734 -0.11327357 -0.063470304 -0.08042504
-0.051755607 0.036247164 -0.078060806 -0.060755596 -0.044901032 -0.024651095 0.12261054 -0.036239747
-0.05106745 -0.0036120708 -0.0031202054 -0.049959965 -0.10231659 -0.11479566 0.056324475 0.10791871
-0.08752687 0.005782604 0.02883627 0.05000404 0.055441145 -0.07611086 0.07725105 0.09464519
-0.04362408 -0.06454129 -0.0013505124 0.011108771 -0.010249705 -0.022591908 0.08112718 0.013865323
00000000: 5795 e93d 5e19 e13d 3215 e0bc 0efa 9bbd
00000010: 80b5 8e3c e020 673c 7c8a e93c 7611 9f3d
00000020: 0070 37b9 60db c53d 7769 c3bd 083d 203d
00000030: 5486 c7bd 8e34 8ebd a521 423d 4a2d db3d
00000040: 8101 6cbd 896b 26bd e9a3 7abd d8d7 31bd
00000050: 40b2 fcbd 2858 1f3d 4291 f33d 1d83 803d
00000060: 5cfe 753d 5e7d 92bd d886 a1bc 45e1 9e3d
00000070: 861b c33d f9fb e7bd b8fc 81bd e2b5 a4bd
00000080: b0fd 53bd e877 143d 58de 9fbd dcda 78bd
00000090: 25ea 37bd 18f1 c9bc 3c1b fb3d 2170 14bd
000000a0: 1a2c 51bd 7eb8 6cbb 5c7c 4cbb d2a2 4cbd
000000b0: 5c8b d1bd fd19 ebbd 7eb4 663d 7c04 dd3d
000000c0: 4a41 b3bd 007c bd3b 0b3a ec3c 09d1 4c3d
000000d0: 4116 633d 03e0 9bbd cc35 9e3d 56d5 c13d
000000e0: 2aaf 32bd 392e 84bd ad03 b1ba 9001 363c
000000f0: 61ee 27bc aa12 b9bc 0226 a63d 612b 633c

fc3.weight f4 [1, 64]
-0.017088806 -0.0035457949 -0.04585693 -0.074328825 0.12233406 0.046326697 0.122247994 -0.116508216
-0.054526627 -0.076525174 -0.02952934 -0.030863576 -0.09499878 0.051647432 -0.073584065 -0.045055494
0.07534196 -0.047536485 -0.027979046 -0.08529595 0.09136765 -0.010740202 0.050262716 -0.05221103
0.067118034 0.017815828 -0.0327518 0.030973934 -0.018967398 0.016175942 0.07618338 0.07631718
-0.013745144 -0.10999677 0.052104875 -0.051424935 -0.015571324 -0.012045905 -0.04564962 -0.11817293
-0.027885145 -0.07009392 -0.031310502 0.0101181455 -0.02683863 -0.0031993699 0.025448317 -0.033738405
-0.009125822 0.018766612 -0.058774024 -0.012660456 0.0032389006 0.07650744 0.102887556 -0.096163005
-0.064788364 -0.06311788 -0.006830986 -0.05372134 0.01183095 -0.010310829 -0.0016837383 0.081512816
00000000: d3fd 8bbc 9160 68bb 7ad4 3bbd b639 98bd
00000010: 488a fa3d 10c1 3d3d 285d fa3d dc9b eebd
00000020: 5057 5fbd 3bb9 9cbd 84e7 f1bc 9cd5 fcbc
00000030: b88e c2bd 428c 533d 3eb3 96bd 1c8c 38bd
00000040: e34c 9a3d 9eb5 42bd 5034 e5bc a5af aebd
00000050: f61e bb3d acf7 2fbc 47e0 4d3d 3cdb 55bd
00000060: 2e75 893d 80f2 913c c026 06bd 0cbd fd3c
00000070: 8461 9bbc 6983 843c 0806 9c3d 2f4c 9c3d
00000080: 5033 61bc fd45 e1bd ec6b 553d f4a2 52bd
00000090: de1e 7fbc 305c 45bc 19fb 3abd a604 f2bd
000000a0: 636f e4bc 678d 8fbd 713f 00bd 94c6 253c
000000b0: b0dc dbbc 85ac 51bb fd78 d03c 4831 0abd
000000c0: 7984 15bc 70bc 993c 08bd 70bd cd6d 4fbc
000000d0: bc43 543b efaf 9c3d b6b6 d23d 1cf1 c4bd
000000e0: c3af 84bd f243 81bd 77d6 dfbb e80a 5cbd
000000f0: 9ad6 413c c0ee 28bc e2b0 dcba 31f0 a63d
