public/api/pertussis_model.pth (torch, 20376 bytes, 5 tensors)

fc1.weight f4 [64, 2]
00000000: e7b7 a6bc 5def ff3d 9409 ad3e 4c93 b6be
00000010: 3d0e 06bf a8fb 0ebf e1bb 213d b37b 133f
00000020: e8a5 2abf a8ad 0abf 1b6e 29be 970a 30bf
00000030: 63bc dc3d 7ccf 27bf 1028 273f 24ea 1bbf
00000040: 8981 93bd afce 9abc a4a6 243f 0e74 2f3f
00000050: 66f8 86be 730e 19bf f635 fc3e d0d3 55bd
00000060: e69c 323f 87e2 ae3c 22f7 883c dd7a 163f
00000070: 40c9 243e 90a3 0fbd f876 133f 7b41 0dbf
00000080: 5d1e 0a3d 375d d43e 447c 01bf 4097 18be
00000090: 8337 5abe 2590 e43e 5cdf bfbe bbf2 c33d
000000a0: b169 9b3e e4e6 e3be 6be0 11bf 7bf9 b83e
000000b0: 113e 083e 72fe 83be 80d1 a23d 8821 c0be
000000c0: 9245 093f 060a 00be 5b66 0f3f 37fb c5be
000000d0: df9c 133e 50a3 f53e 4751 09bf 0d4b 0a3f
000000e0: 2746 123e fb89 693e fb2f 38be 1894 ec3e
000000f0: edec 1e3f ceb9 b5be 6abb 20bf 86be 67bd
00000100: f5bb f53e 5b78 8ebd b253 273f 857b f53e
00000110: 3a6d 053f 50e3 d03e 3db1 1a3f 5dbe de3e
00000120: 7999 1ebf f0c4 c6be 4751 31bf 6f7d 8dbe
00000130: 3374 26bf c6fd 07bf 8c00 92be d213 e1be
00000140: 5f07 61bd 3a7d b9be 12a2 2f3f 608a 1d3f
00000150: e9de 13bf 089a 1dbf 8d69 2ebc 6800 293f
00000160: 8a88 083f a28b 153f 5aee 153f 49ae 8ebb
00000170: bd0f 4a3e 18d2 7a3e cb13 43be bf3d 043f
00000180: 5f8b 88be 2c5f cebe da33 ec3d 3b43 2c3f
00000190: ca17 c73e 9bc0 a2bd 8361 0c3d 4f45 d6bd
000001a0: 1488 56be 8b83 8dbe c0ba 753e fc3f 2f3f
000001b0: 099e 153e 3ff5 163f 3f9c c03e 01bc 163f
000001c0: b7b2 f53e 6153 6d3d 1341 1a3f b643 313f
000001d0: 1efa 1a3f 7792 283f 259e b6be 1b27 043e
000001e0: f2f5 ed3e 66e9 873c f25f ecbe 33e2 18bf
000001f0: d521 6c3e 5f2d aebc 1d7a 2a3e aaf7 f03e
-0.020351363 0.12496827 0.3379637 -0.35659254 -0.52365476 -0.55852747 0.039485816 0.57610625
-0.666594 -0.5417123 -0.16545908 -0.6876616 0.107781194 -0.6555097 0.65295506 -0.60904145
-0.07202441 -0.018897383 0.64316773 0.6853646 -0.26361388 -0.5978767 0.4925992 -0.052203953
0.6977066 0.021348251 0.016719405 0.58781224 0.16092396 -0.035068095 0.57603407 -0.5517804
0.033720363 0.41477367 -0.5058024 -0.14901447 -0.21310239 0.44641224 -0.37475097 0.095677815
0.30354074 -0.44512093 -0.5698306 0.36127838 0.13304926 -0.25780064 0.07950115 -0.37525582
0.5362178 -0.12503824 0.5601556 -0.38668224 0.1441531 0.4797616 -0.53639644 0.5402077
0.14284573 0.22806542 -0.17987053 0.46206737 0.6208027 -0.3549332 -0.6278597 -0.05657818
0.47994962 -0.0695655 0.65362084 0.479458 0.5211979 0.40798426 0.60426694 0.4350461
-0.6195293 -0.38822126 -0.69264644 -0.2763476 -0.65021056 -0.531216 -0.28516042 -0.43960434
-0.05493867 -0.36228353 0.68606675 0.6153927 -0.5776201 -0.6156316 -0.010645282 0.66016245
0.5333334 0.5841619 0.5856682 -0.0043542725 0.19732566 0.24494207 -0.19050519 0.5165672
-0.26668832 -0.40306985 0.115333274 0.67290086 0.38885337 -0.07946893 0.034272682 -0.10462438
-0.20950347 -0.27639422 0.2399702 0.6845701 0.14611067 0.58967966 0.37619206 0.5888062
0.4798791 0.057940844 0.60255545 0.69243944 0.605379 0.6584849 -0.3566753 0.12905543
0.46476704 0.016590785 -0.4616695 -0.5972015 0.23059781 -0.021261869 0.16648145 0.47063953

fc1.bias f4 [64]
00000000: 52b1 cebe 2b25 f53e 800f b3be 2a12 1d3e
00000010: f0ba 60be 1d30 d5be 952a b73e 4657 d3be
00000020: f2aa 083f 98ec d83d 171b ad3b d9b0 f43d
00000030: 9357 87be aea7 013e a9e4 8cbe 1d4f c6bd
00000040: 33e7 6f3e 6555 a63e 0a38 95be 46fc d6be
00000050: 7a49 b03e 52bd 05bf eb0a b83e 1bed 963e
00000060: 1a9e fd3e b48c 0dbe 03b3 8abe 7f35 74be
00000070: be4c cd3e 5364 3d3e bd54 86be f582 2bbe
00000080: 7396 89be 819b 733e 524f fcbc d5fb 963e
00000090: 5aaf e3be 35c0 e83e 83f3 233f ac56 8e3d
000000a0: f0ae b4be db67 0fbf 385f ac3e 4e40 e93e
000000b0: c9d8 d0bd 3147 f7be ce04 9bbe 0352 32bf
000000c0: 21db 07bf 25db bdbe 3b8d 8abd 2449 23bf
000000d0: e648 f43e ff2f c6be 0992 a4be c67d c6be
000000e0: 8649 283c 777a aabe 0270 083f 16a7 9ebe
000000f0: 0e9c 7fbe 6f7f c6be 0739 28bf b160 18bf
-0.4036966 0.4787992 -0.34972763 0.1533896 -0.21946311 -0.4163827 0.35774675 -0.41277522
0.5338584 0.10592002 0.0052827704 0.119477935 -0.26434 0.12661621 -0.27518204 -0.096830584
0.23428039 0.32487026 -0.29144317 -0.41989344 0.34431058 -0.52242005 0.3594583 0.29477772
0.49534684 -0.13823205 -0.270897 -0.23848532 0.40097612 0.18495302 -0.26236525 -0.16749175
-0.26872596 0.23789789 -0.030799542 0.29489008 -0.4446972 0.45459142 0.64043444 0.06950125
-0.35289717 -0.56017846 0.33666396 0.45556873 -0.101975985 -0.48296502 -0.30277103 -0.6965639
-0.5306874 -0.37081257 -0.06765219 -0.6378348 0.47711867 -0.38708493 -0.32142666 -0.38767833
0.010271436 -0.33296558 0.5329591 -0.3098685 -0.24961874 -0.387691 -0.65712017 -0.5952254

fc2.weight f4 [64, 64]
00000000: 201c bb3d 95b7 243d 6805 983c 4a52 e53d
00000010: be63 87bd 8ae5 bf3d 0629 24bd 8acf d6bd
00000020: dc2c 61bd 3037 b03c 4439 473d 6cb1 7b3d
00000030: 969d c63d 4d5a 393d 9a57 f83d bd50 68bc
00000040: 6d16 48bd e817 45bd cee6 d5bd ec90 f53d
00000050: d059 df3d 22cd cdbd 88d2 d6bc fe8f 943d
00000060: ae9f a5bc 955e d73d 0ec4 303c 8c92 9abd
00000070: 777d b03d b801 8e3c c5b0 cdbd 18f1 02bd
00000080: 2141 903c f19b b6bd 8723 8d3d a258 b53d
00000090: d8cc c9bc ccfa 4f3d 2034 06bd b072 2c3c
000000a0: 98b1 5f3d 19ea 81bc 24c4 0a3d 08d2 68bd
000000b0: 7192 1ebb 6088 bf3d e121 493c 7497 e4bd
000000c0: 7e9a 913d 5536 993d 54ed 223d 69d2 e43d
000000d0: 1a02 a03d 4d94 b5bc bdce 883d f35a b13d
000000e0: f4e0 b53d c8ed 23bd 0d76 ed3c 8014 6a3d
000000f0: f045 20bd 2c52 7fbd 5384 bcbd bcfa 32bd
00000100: 5644 e53d 16b8 adbd 0cf3 0e3d e111 aabd
00000110: e4ee 89bd 2061 bb3b ae08 dcbd 11ab a2bd
00000120: 6834 c93d a8cf c0bd 3453 13bd 2d4e 5fbc
00000130: fcf8 71bd aa13 b3bd 01da abbc 802d f13d
00000140: e9c5 253d 68c4 a23d e428 99bd 5499 2a3d
00000150: e67c 833c 54cf f5bd b6ee 4fbd d56a fabc
00000160: ae9b df3d 7636 00be ff20 b33d 0060 1bba
00000170: 4fdd b93c 08c5 17bd c716 ebbd b87b b8bd
00000180: 8dff e13d 37c9 dc3d 0591 3bbd 05b0 9cbd
00000190: b4e8 d5bd b055 64bc dc04 173d 1211 aebd
000001a0: baa1 eb3d 7a5c 14bd c493 3f3d 8c60 16bd
000001b0: 213f f33d 1070 f33d e951 c13c 80c5 d53b
000001c0: e4e1 53bd ea31 cf3d a200 a43b d95c 86bd
000001d0: dcb7 303d 7bf2 db3d 7f4a e23d 233f bd3c
000001e0: b522 d9bd 99d2 443d d129 643d 0a37 df3d
000001f0: 9794 aebc 5a44 b6bd c746 5c3d 5537 d4bd
00000200: 08e5 4b3d d0e6 eebc 0023 3a3d 68c8 6d3d
00000210: 00a9 eebb d286 dfbd 884e e0bc ea36 e5bd
00000220: 5ce1 683d ec5b a83d 3e07 9a3d d0ef 553c
00000230: 209e adbd 4c88 463d 40a7 173d 6063 ba3d
00000240: 0cb2 4e3d b6a6 9cbd 98a1 003d 0c98 6c3d
00000250: 40a0 823d facf f93d e0e2 e3bb d401 853d
00000260: d074 883d 0004 11bb 887f 92bc 9803 ca3c
00000270: 08be 8f3d 3413 01bd 8012 753b 9098 38bd
00000280: 0007 bcba ae50 9dbd 0e67 b5bd ecb4 a9bd
00000290: 6ce7 ed3d 0a5e b4bd d0a3 e2bc 8e53 8f3d
000002a0: d00b 85bd c0ce 41bd d0f2 e63c 46be e1bd
000002b0: 108b 04bd 7849 bb3d 8091 6f3c ac93 013d
000002c0: a84c 023d b029 9c3d ec3c a4bd 6eb3 e1bd
000002d0: a401 c63d b47f cdbd 586b 3a3d 5eb4 bfbd
000002e0: 9035 e53d 8cb0 d13d 6c67 dc3d 7493 5abd
000002f0: 5a9b e9bd ca00 bfbd 80d9 16bc 280c 14bd
00000300: c029 bbbb a4f4 463d 3086 eabc e3e8 cd3d
00000310: a0e5 3dbc 5842 37bd ed98 72bd 181f b83d
00000320: 56ff 9b3d 7959 0c3d 987f f8bc fadb 5abd
00000330: 31d5 953d 4360 4d3d 58f5 ef3d ee8c ba3d
00000340: 2693 b7bd e612 84bd c8f7 263d a052 3dbc
00000350: 354f 1c3c 44fd e7bd aa80 693d 89d8 b43d
00000360: ce29 eebd 8b01 d8bd 9c80 59bd a4b2 123d
00000370: 1ff7 fd3b 14be 503d 3378 f13d d851 c83c
00000380: ef4e 6f3d 1017 6ebd 76d9 a2bd f05d a43d
00000390: 8809 9d3d f2c7 ae3d f869 adbd be61 d5bd
000003a0: 70c7 3b3c 791f bbbd 782e 7c3d 0674 82bd
000003b0: 9a46 5bbd 1e07 7fbd 69c8 95bd 2a13 983d
000003c0: 000b 2b3d eecf 1ebd 7793 70bd 3cd7 c43d
000003d0: 9836 d23c 4f3a da3d a577 3d3d eac7 933d
000003e0: 9c48 fabd 3f98 a4bc abc6 e53d 30ad 8dbd
000003f0: 3a5b 5e3d 7405 13bd b61f 60bd ea92 96bb
0.09136224 0.04021414 0.018557265 0.11197336 -0.06610821 0.09369953 -0.040078185 -0.10488804
-0.05497442 0.02151069 0.048638597 0.0614485 0.09698026 0.045252133 0.12126084 -0.014179406
-0.048849512 -0.048118502 -0.10444413 0.11990532 0.10905802 -0.100488916 -0.026223436 0.07254027
-0.020217743 0.10516087 0.010788931 -0.07547483 0.086176805 0.017334804 -0.10043482 -0.031968206
0.01760918 -0.08916462 0.06891542 0.08854796 -0.02463381 0.050776288 -0.032764554 0.0105253905
0.054612726 -0.015858697 0.03387846 -0.056840926 -0.0024196173 0.09352183 0.012276144 -0.111617
0.07109545 0.07481066 0.039777115 0.11172945 0.07812901 -0.022165442 0.06680057 0.08659925
0.08880797 -0.040021688 0.028986955 0.057148457 -0.039129198 -0.062334225 -0.09204926 -0.04369615
0.11194675 -0.08482377 0.034899756 -0.083041914 -0.06735018 0.0057183653 -0.10743843 -0.079427846
0.09824449 -0.09414607 -0.03596802 -0.013629478 -0.05907534 -0.08743985 -0.020977976 0.117762566
0.040471945 0.07947618 -0.074785024 0.04165013 0.016050767 -0.12002435 -0.050764762 -0.03056852
0.109183654 -0.12520775 0.08746528 -0.0005927086 0.022688536 -0.037053138 -0.11478954 -0.090079725
0.110350706 0.10780566 -0.0457926 -0.076507606 -0.10444775 -0.013936445 0.03686987 -0.0849935
0.11505456 -0.036221005 0.04677178 -0.036713168 0.11877275 0.118866086 0.023598628 0.006523788
-0.051729098 0.10116942 0.0050049582 -0.06560678 0.043144092 0.10739609 0.11049365 0.023101395
-0.10602323 0.048052404 0.05570394 0.1089917 -0.021311088 -0.08899756 0.053778436 -0.10362116
0.049778968 -0.029162794 0.045443535 0.05805245 -0.00728333 -0.10914387 -0.027381197 -0.11192115
0.056855544 0.08220658 0.075209126 0.013057664 -0.084774256 0.048469827 0.037024736 0.091009855
0.050462767 -0.07648985 0.031404108 0.05776219 0.063782215 0.121978715 -0.006954536 0.06494489
0.06662905 -0.0022127628 -0.017883077 0.024659917 0.070186675 -0.031512454 0.003739506 -0.04506737
-0.0014345348 -0.07681404 -0.08857547 -0.08286461 0.11616406 -0.08806999 -0.027666003 0.06998359
-0.06496394 -0.047316313 0.028191954 -0.1102262 -0.032359183 0.091448724 0.014622092 0.03163497
0.031811386 0.07625139 -0.080194324 -0.110205516 0.09668282 -0.10034123 0.045512527 -0.09360574
0.11191857 0.10238752 0.10761914 -0.05336328 -0.11406584 -0.093263224 -0.0092071295 -0.036144406
-0.005711764 0.04857315 -0.028628439 0.10054185 -0.011590391 -0.044741005 -0.059227873 0.08990306
0.07617061 0.034265015 -0.030334279 -0.053432442 0.07316054 0.05014063 0.117167175 0.091089115
-0.08963613 -0.06448917 0.040763646 -0.011555344 0.009540369 -0.113276035 0.05700747 0.08830363
-0.11629067 -0.10547169 -0.053101167 0.035814896 0.0077504064 0.050962523 0.11790504 0.024453089
0.058424886 -0.058127463 -0.07951634 0.0802573 0.076678336 0.0853423 -0.084674776 -0.104190335
0.011461124 -0.09136862 0.061567754 -0.06369786 -0.053534128 -0.062262647 -0.07313616 0.0742553
0.041758537 -0.038772516 -0.058734383 0.09611365 0.025660798 0.10655653 0.04625668 0.07215865
-0.122208804 -0.020092128 0.112195335 -0.069177985 0.05428622 -0.035893872 -0.054717742 -0.0045951502

fc2.bias f4 [64]
00000000: 2697 6bbd 1b1c d63d a04e e1bd b497 d33d
00000010: 200a 1fbc 94d5 71bd e8e0 8f3d 6b20 cc3d
00000020: d2b3 8f3d 0094 b13b f269 83bd a954 ecbd
00000030: efc1 113d 2031 96bb 9e40 eebd 66a8 cebc
00000040: 70cd c33c 2238 fcbd 0016 8f3a 0c9f debd
00000050: 7e8a 98bd 24b2 ec3d 299e c2bd 8022 bc3b
00000060: 6088 a8bd d058 65bd 876f fb3d dc96 c9bd
00000070: 20d4 113c 966a 63bd 56b4 863d 709c d13c
00000080: bddb 8cbd f0e1 d63d 48fb 973d dac5 aa3d
00000090: 3390 9f3d a72a 88bc 8896 0ebc b70c c53d
000000a0: c444 603d 5c38 acbd 64f7 b83d 16cc b4bd
000000b0: 306d 46bd caaf d3bd 7f5c 6c3c 18fa efbd
000000c0: 746b 0d3d 9088 cb3d 78ab d0bd afc8 b2bd
000000d0: 2d5f efbd ea34 88bd b4c5 21bd 0059 04ba
000000e0: b4f8 b43d 4e4f 803d d251 953d 3525 de3d
000000f0: 52af a23d 409e 55bc 1be6 953c 2295 e1bc
-0.057517193 0.104545794 -0.11001325 0.103316694 -0.009707004 -0.059041575 0.07025319 0.09967121
0.0701672 0.0054192543 -0.06416692 -0.11539585 0.03558534 -0.004583493 -0.116334185 -0.025226783
0.023901671 -0.12315394 0.0010916591 -0.108701795 -0.0744829 0.11557415 -0.09502823 0.0057414174
-0.082291365 -0.0559929 0.122771315 -0.09843227 0.008900672 -0.05552157 0.06577365 0.02558729
-0.06877849 0.10492313 0.07420975 0.083385184 0.07791176 -0.0166219 -0.008702882 0.09621566
0.05475308 -0.08409187 0.09031561 -0.08827989 -0.048443973 -0.103362635 0.01442635 -0.117176235
0.034526303 0.099381566 -0.10188955 -0.087296836 -0.11688075 -0.066507176 -0.039495185 -0.00050486624
0.08836499 0.06265126 0.072909966 0.108469404 0.07943596 -0.013038218 0.0182982 -0.027536932

fc3.weight f4 [1, 64]
00000000: 7ff7 3b3b b169 c0bd f455 813d 4808 0ebd
00000010: 9861 be3d 4c74 29bd 65ec c9bd a187 35bd
00000020: c4a3 88bd 6cbb ee3d b038 d1bc fd1c f2bd
00000030: 89cb 1b3d 8c2b f7bd 3e05 84bd 3436 4ebd
00000040: 9806 aebc 26dd fabd 60ed f53b 7095 29bc
00000050: b0b2 b3bc d06c f43d 6659 14bd 103b 92bc
00000060: 5205 b8bd d035 3ebd 30c2 1bbc 0093 913c
00000070: 787f 10bd 829d ca3a 607a 98bc 943e 80bd
00000080: b841 ba3c 7ec3 e43d 24c3 f13d 1904 77bd
00000090: 5cb5 373d eb98 a9bc a1e9 b73c 0e53 5c3d
000000a0: 0099 4a3a 502d 8f3d f2a1 ac3d c036 103c
000000b0: 4860 f23c a34d acbd 82de a03c b8ad e3bd
000000c0: 7a5a babd 4336 eb3d df38 83bd 4310 a8bd
000000d0: 806f af3d 9c1d b5bd 705e 673c 3a31 863d
000000e0: 7bdc ed3d 8456 babd b619 103d 100a 8abd
000000f0: 9b1c d6bc 12a6 e63d 268f 233d a17e dabd
0.0028681455 -0.09395159 0.063152224 -0.034675866 0.09295958 -0.041370675 -0.09859542 -0.0443188
-0.06671861 0.11656842 -0.025539726 -0.11821935 0.038035903 -0.12068853 -0.06446312 -0.05034466
-0.021243379 -0.12249212 0.007505104 -0.01035057 -0.02193579 0.11934817 -0.03621807 -0.017850429
-0.0898539 -0.04643804 -0.009506747 0.01777029 -0.035277814 0.0015458318 -0.01861304 -0.06261936
0.022736415 0.111701 0.11804798 -0.060306642 0.044850692 -0.0207028 0.02245027 0.053790145
0.0007728487 0.069910645 0.08429326 0.008802116 0.029586926 -0.084132455 0.01963735 -0.111171186
-0.09099288 0.11484959 -0.06407332 -0.08206227 0.08566189 -0.08843538 0.014121637 0.06552358
0.11614319 -0.09098533 0.03518077 -0.067402005 -0.026136687 0.11262144 0.03993144 -0.10668684
