public/api/rubella_model.pth (torch, 20612 bytes, 5 tensors)

fc1.weight f4 [64, 3]
-0.10127912 -0.21708125 0.117443845 -0.117915705 -0.45436576 0.25083837 -0.2162541 0.39303422
0.51298565 -0.2281267 0.25119665 -0.39031467 0.027473783 0.033366483 0.41615853 0.09183853
0.40508825 0.31721878 0.023092808 0.34297135 0.2609265 0.37181735 0.12268731 0.23382068
-0.20615053 0.24249563 0.4641916 0.19738263 0.027460419 0.3265018 0.51801413 -0.22271445
-0.55386776 0.4372639 -0.45846552 -0.33421457 0.16909678 0.56714714 0.45082065 -0.47559613
-0.31620914 0.04271883 0.48700485 -0.4247612 0.2527901 0.24273768 -0.2731925 -0.2677068
-0.5215243 -0.25625867 -0.31985632 0.47660166 0.40726462 0.4719685 -0.53455573 -0.0060183783
-0.29415873 0.19102804 0.25049645 -0.25234365 -0.2035653 0.50205946 0.22851543 0.38946226
-0.36375433 0.061543956 -0.48164964 -0.16766834 -0.1744928 0.28189543 0.39274555 0.2650621
0.4393608 0.3528461 -0.31203902 -0.39229158 0.071239285 0.31855804 -0.31867903 0.36524233
-0.19069815 0.48488298 -0.51582664 -0.05862939 -0.39271846 -0.50567895 0.03334011 -0.25957152
0.47958294 0.52719283 0.5546197 -0.024707118 0.41886812 -0.17662816 -0.39589053 0.33665115
0.2377466 0.27084154 -0.14604464 -0.4503868 0.35779095 -0.03654628 0.24137375 0.122276835
-0.33012825 0.010907212 0.47451732 0.5546072 0.15661882 0.20610584 0.41435155 -0.33558723
-0.20655096 0.49278864 -0.24429809 -0.03419066 -0.23031357 -0.052501548 0.34768763 -0.0130105
0.1824978 -0.34824473 -0.5314221 0.53533316 0.28001654 0.061064765 -0.04549693 0.33434963
0.3724686 0.18804364 0.16985671 0.53542167 0.5031546 0.58009845 0.4921048 -0.33502388
-0.4639779 -0.3626857 -0.40645617 -0.28023097 0.47714904 0.42497832 -0.2597904 0.0796403
-0.34588316 -0.11611284 -0.08770656 -0.3230847 -0.53897417 -0.4253683 -0.28082475 0.44548595
0.38417608 -0.13649139 -0.38503465 0.44543767 0.3999456 0.024281409 -0.12885691 -0.41180995
-0.2777647 -0.24450263 -0.1632506 0.15684804 0.083909996 0.095676206 0.068735294 0.20324871
-0.15037958 0.23606987 -0.38758025 -0.5276146 -0.018873056 -0.17358276 -0.37004006 -0.5485667
-0.030435905 0.40274623 0.5525145 0.46975574 0.22252814 0.3121474 -0.38429925 -0.009810382
0.55410683 -0.20237385 -0.5550511 0.25621185 -0.20197551 -0.19903477 0.4484178 -0.50629264
00000000: 6d6b cfbd 8c4a 5ebe 6686 f03d ca7d f1bd
00000010: a1a2 e8be e36d 803e b771 5dbe c83b c93e
00000020: 0753 033f 0c9a 69be d99c 803e 53d7 c7be
00000030: b310 e13c 4bab 083d bb12 d53e d715 bc3d
00000040: ba67 cf3e 806a a23e 212d bd3c f199 af3e
00000050: 2998 853e d85e be3e 7c43 fb3d b06e 6f3e
00000060: 2019 53be c650 783e 85aa ed3e ac1e 4a3e
00000070: acf4 e03c 3e2b a73e 939c 043f 420f 64be
00000080: 47ca 0dbf 0ee1 df3e febb eabe 2c1e abbe
00000090: b527 2d3e 8e30 113f f7d1 e63e 5681 f3be
000000a0: 2ae6 a1be f1f9 2e3d b358 f93e 4d7a d9be
000000b0: b46d 813e 3a90 783e e3df 8bbe de10 89be
000000c0: 9e82 05bf 5634 83be 35c4 a3be 2205 f43e
000000d0: fd84 d03e dba5 f13e a5d8 08bf d135 c5bb
000000e0: f99b 96be db9c 433e 1241 803e 3033 81be
000000f0: 6c73 50be f886 003f f3ff 693e 9967 c73e
00000100: 023e babe 8415 7c3d c89a f6be 40b1 2bbe
00000110: 3eae 32be 9954 903e f215 c93e 38b6 873e
00000120: e6f3 e03e 3ea8 b43e 94c3 9fbe 71da c8be
00000130: e7e5 913d 0a1a a33e e629 a3be 0b01 bb3e
00000140: 6046 43be 9542 f83e 370d 04bf 5f25 70bd
00000150: 6512 c9be 2d74 01bf a48f 083d 8fe6 84be
00000160: e58b f53e 1cf6 063f 8ffb 0d3f 9566 cabc
00000170: e275 d63e 03de 34be 2ab2 cabe 8a5d ac3e
00000180: d873 733e beab 8a3e ba8c 15be 1999 e6be
00000190: 6030 b73e 8db1 15bd ae2a 773e 476c fa3d
000001a0: 9206 a9be 2ab4 323c eff3 f23e bdfa 0d3f
000001b0: af60 203e 690d 533e e325 d43e 17d2 abbe
000001c0: 1882 53be cb4e fc3e 4729 7abe 810b 0cbd
000001d0: 52d7 6bbe dd0b 57bd 1d04 b23e fe29 55bc
000001e0: b4e0 3a3e 224d b2be 470b 08bf 980b 093f
000001f0: 545e 8f3e 0c1f 7a3d fd5a 3abd e02f ab3e
00000200: 34b4 be3e 838e 403e ebee 2d3e 6511 093f
00000210: bdce 003f 5581 143f 29f5 fb3e 4088 abbe
00000220: 838e edbe f1b1 b9be 061b d0be 6f7a 8fbe
00000230: e14c f43e c296 d93e 3f03 85be 741a a33d
00000240: 9917 b1be 92cc edbd 7f9f b3bd 5c6b a5be
00000250: 36fa 09bf e0c9 d9be 43c8 8fbe bc16 e43e
00000260: bab2 c43e 66c4 0bbe 4323 c5be 6810 e43e
00000270: abc5 cc3e cee9 c63c 11f3 03be c1d8 d2be
00000280: 2d37 8ebe e65e 7abe 2a2b 27be c69c 203e
00000290: 01d9 ab3d e3f1 c33d 17c5 8c3d 6e20 503e
000002a0: 1bfd 19be 4dbc 713e eb70 c6be c011 07bf
000002b0: ab9b 9abc aebf 31be e475 bdbe de6e 0cbf
000002c0: b854 f9bc c134 ce3e 9771 0d3f d383 f03e
000002d0: 6bde 633e c9d1 9f3e dfc2 c4be b9bb 20bc
000002e0: f2d9 0d3f 173b 4fbe d417 0ebf 332e 833e
000002f0: abd2 4ebe c5cf 4bbe 0597 e53e 659c 01bf

fc1.bias f4 [64]
0.39085588 0.37277296 0.5318344 -0.0020887712 0.038234834 -0.16538605 0.1515564 0.36608002
-0.32509106 0.5098788 0.4324475 -0.3952176 0.09070341 0.27817738 0.14754224 -0.54895043
-0.5620564 -0.24729924 -0.3713001 -0.47476068 -0.48133522 0.18883376 0.10263775 0.54872185
-0.2041396 0.032148678 0.5291314 -0.047465324 -0.10435228 -0.25874043 0.25759825 -0.0494041
-0.55531096 -0.50385994 -0.13232906 -0.065252334 -0.36959544 -0.2689776 -0.15501708 -0.46768734
-0.46806002 0.46082366 0.2944562 0.5599115 -0.1873599 0.410928 0.17037486 -0.043347977
-0.41871792 -0.131648 -0.33879164 -0.2208221 -0.16354539 -0.20423537 0.4741326 -0.14458464
0.21482265 -0.43771988 0.009918705 -0.2903034 0.44189572 -0.24321368 -0.045570713 -0.13318714
00000000: 431e c83e 19dc be3e 4d26 083f c4e3 08bb
00000010: 219c 1c3d f65a 29be 9a31 1b3e d76e bb3e
00000020: 5672 a6be 6b87 023f c269 dd3e f659 cabe
00000030: b6c2 b93d 446d 8e3e 5015 173e 0488 0cbf
00000040: eee2 0fbf 033c 7dbe 0c1b bebe d513 f3be
00000050: 9271 f6be a35d 413e be33 d23d 0979 0c3f
00000060: f909 51be 55ae 033d 2875 073f 006b 42bd
00000070: a6b6 d5bd a079 84be ebe3 833e f45b 4abd
00000080: dc28 0ebf f7fc 00bf 4581 07be 04a3 85bd
00000090: 9d3b bdbe 6fb7 89be ccbc 1ebe b774 efbe
000000a0: 90a5 efbe 14f1 eb3e f7c2 963e 5c56 0f3f
000000b0: 46db 3fbe 2865 d23e bf76 2e3e a68d 31bd
000000c0: 3262 d6be bcce 06be 1976 adbe 301f 62be
000000d0: 7178 27be 1423 51be 82c1 f23e ff0d 14be
000000e0: 78fa 5b3e d21c e0be 1082 223c a6a2 94be
000000f0: 2840 e23e 020d 79be 5ba8 3abd 3662 08be

fc2.weight f4 [64, 64]
-0.027455825 -0.06952142 0.11697927 0.010579994 -0.0683919 0.059461053 0.05674447 0.016669633
0.06050404 -0.04574568 -0.07280723 -0.07019182 0.056430977 -0.005026403 -0.06051951 0.022598058
0.11418168 0.09886787 -0.011336118 0.051446974 -0.100070946 0.060608488 0.09419949 0.12738222
0.077155076 -0.04935148 0.08053422 0.075082496 0.045959175 -0.08209275 0.09744626 -0.11466149
-0.036380574 -0.085874036 -0.07110689 -0.09592437 0.058694594 -0.07715436 -0.11520274 -0.10684687
-0.0034635514 -0.0933551 0.09386089 0.08437122 0.08357544 0.11344796 0.09603235 0.12708376
-0.085627496 -0.05126904 0.004117523 0.0042457264 0.061893936 0.036195204 0.057075277 -0.049870715
-0.014512788 -0.009196177 0.09567571 -0.065084815 0.031210473 -0.0007313265 -0.004127228 0.10010062
-0.10266623 -0.018474296 0.010651186 -0.087405846 0.030683205 -0.05667661 -0.11833796 -0.11127968
-0.04524213 0.01701723 -0.03752044 -0.027255923 0.096687496 0.057174608 -0.005949497 0.10797258
0.010065824 0.008244976 0.10154937 -0.05796659 0.044667825 -0.11610317 -0.12004016 0.07838416
0.060395792 0.036748186 -0.11010313 -0.020062372 -0.11510533 0.04534985 -0.05236219 0.054683834
-0.0027622283 0.005122721 0.05798304 0.11379625 -0.094719574 -0.010213718 -0.087453544 0.028158814
0.050080344 -0.08155662 -0.04200813 0.10482274 -0.018078312 0.0056263357 0.0726641 -0.009893104
-0.09759329 0.08325617 -0.10145952 -0.096325204 -0.08085424 0.052313372 -0.08110975 -0.09543276
0.05551517 -0.054258093 0.10222109 -0.040535852 -0.08021808 0.015866026 0.06773713 0.11174534
-0.059625234 -0.11256737 0.121764064 0.08644541 -0.07825472 -0.065703385 0.019954106 0.10272397
-0.064719826 0.035148237 -0.04340679 0.04342891 0.013823767 -0.031415343 -0.031030312 0.124126896
0.0594683 -0.017798355 -0.05189991 -0.04104799 0.11544172 -0.045444697 -0.024076583 0.013880525
0.10093782 0.017780721 -0.0025864998 0.018565478 0.050156444 -0.053198095 0.11352591 0.072722785
0.067457676 -0.045019507 0.11825219 -0.103030324 0.012504819 0.07714019 0.019724593 -0.035886303
0.091256514 -0.0324226 -0.021740776 0.06669936 -0.106210954 -0.071799375 -0.044499815 0.09154844
-0.087406546 -0.070026696 -0.004067511 0.04368897 -0.047841802 0.11914688 -0.12000832 -0.026251432
0.04130706 0.06311764 -0.074574314 0.066170014 -0.07817585 -0.027768433 0.0523721 0.08707015
0.06544967 0.10865522 -0.07683327 0.08306779 -0.02067578 0.05570323 0.014106109 0.103775926
0.0038395782 -0.032769915 0.03029782 -0.034226626 -0.02852315 0.042350017 -0.0040284405 0.008270398
0.068252996 -0.0250127 -0.045676365 -0.0050590336 0.0031104386 0.0550884 0.040659115 0.07825779
-0.09384558 0.09731348 0.087217905 -0.04796507 0.10984583 0.04266922 -0.021114267 -0.016781121
0.06736961 0.015727997 0.1051492 -0.08407773 -0.10326992 0.027477495 -0.06354569 0.067916304
-0.04657966 -0.020282535 -0.11620926 0.051587164 -0.0980089 -0.06158489 -0.02278141 0.0227653
0.06485008 0.11180486 -0.038333222 0.07735397 0.10290382 -0.05884528 0.03534046 -0.016460003
0.010459193 0.054331273 0.071724854 0.056184836 -0.09284489 0.02834471 0.10492025 -0.09290022
00000000: 0aeb e0bc 3f61 8ebd d492 ef3d b657 2d3c
00000010: 0d11 8cbd 6f8d 733d e46c 683d c18e 883c
00000020: 16d3 773d d25f 3bbd f51b 95bd bbc0 8fbd
00000030: 2b24 673d 86b4 a4bb 4ee3 77bd 901f b93c
00000040: 16d8 e93d 3d7b ca3d 20bb 39bc 10ba 523d
00000050: fff1 ccbd 9b40 783d aaeb c03d 7c70 023e
00000060: 7b03 9e3d c724 4abd 20ef a43d dac4 993d
00000070: b03f 3c3d 3e20 a8bd e891 c73d a5d3 eabd
00000080: cc03 15bd bade afbd 7da0 91bd ff73 c4bd
00000090: be69 703d 1b03 9ebd 6aef ebbd 88d2 dabd
000000a0: c0fc 62bb f530 bfbd 233a c03d d1ca ac3d
000000b0: 9a29 ab3d 6757 e83d 9cac c43d 3f22 023e
000000c0: 785d afbd 7cff 51bd 49ec 863b bc1f 8b3b
000000d0: 7f84 7d3d 6c41 143d c4c7 693d 3c45 4cbd
000000e0: 0bc7 6dbc 90ab 16bc a0f1 c33d 304b 85bd
000000f0: 1bad ff3c 7eb6 3fba b33d 87bb 8e01 cd3d
00000100: ac42 d2bd 6857 97bc 5082 2e3c d601 b3bd
00000110: 585b fb3c bc25 68bd 2c5b f2bd 9ae6 e3bd
00000120: d04f 39bd b867 8b3c 08af 19bd d047 dfbc
00000130: 1804 c63d ec2f 6a3d 00f4 c2bb ba20 dd3d
00000140: 20eb 243c f015 073c 1ef9 cf3d 606e 6dbd
00000150: 9cf5 363d 80c7 edbd 9ed7 f5bd e087 a03d
00000160: 9461 773d 4485 163d c07d e1bd d859 a4bc
00000170: 58bc ebbd c4c0 393d bc79 56bd 28fc 5f3d
00000180: 8006 35bb 80dc a73b a07f 6d3d 020e e93d
00000190: 56fc c1bd 7057 27bc d81a b3bd 50ad e63c
000001a0: 0c21 4d3d 2807 a7bd b810 2cbd 4ead d63d
000001b0: f818 94bc 205d b83b ead0 943d b016 22bc
000001c0: fede c7bd 3682 aa3d 02ca cfbd 2646 c5bd
000001d0: e896 a5bd 8c46 563d de1c a6bd 4072 c3bd
000001e0: e063 633d bc3d 5ebd 4a59 d13d ec08 26bd
000001f0: 6049 a4bd 78f9 813c c4b9 8a3d beda e43d
00000200: 9739 74bd b989 e6bd 705f f93d 4b0a b13d
00000210: 0344 a0bd 7f8f 86bd cb76 a33c f260 d23d
00000220: d48b 84bd 99f7 0f3d 51cb 31bd 83e2 313d
00000230: 157d 623c 60ad 00bd 4833 febc 3e36 fe3d
00000240: 0895 733d dbcd 91bc 0095 54bd f021 28bd
00000250: b56c ec3d 3824 3abd 413c c5bc 246b 633c
00000260: 7db8 ce3d e0a8 913c 4482 29bb a116 983c
00000270: d870 4d3d 3fe6 59bd 4680 e83d afef 943d
00000280: 4027 8a3d 6066 38bd 342e f23d 9001 d3bd
00000290: 03e1 4c3c adfb 9d3d 7895 a13c 84fd 12bd
000002a0: b2e4 ba3d 8fcd 04bd b619 b2bc ad99 883d
000002b0: 2185 d9bd 8d0b 93bd 7045 36bd c07d bb3d
000002c0: 3402 b3bd 286a 8fbd c148 85bb 35f3 323d
000002d0: c4f5 43bd 4803 f43d ecc6 f5bd 3e0d d7bc
000002e0: 9731 293d d243 813d 6bba 98bd 2584 873d
000002f0: a91a a0bd a07a e3bc 2184 563d d651 b23d
00000300: 7a0a 863d a186 de3d c35a 9dbd 721f aa3d
00000310: 4160 a9bc 1229 643d 4f1d 673c 7988 d43d
00000320: 6fa1 7b3b bf39 06bd 2233 f83c 3831 0cbd
00000330: 62a9 e9bc 3677 2d3d 0201 84bb 9080 073c
00000340: 3ac8 8b3d 6fe7 ccbc 2417 3bbd 40c6 a5bb
00000350: 80d8 4b3b 60a4 613d 2c8a 263d 9f45 a03d
00000360: 1d32 c0bd 4a4c c73d 4d9f b23d 0577 44bd
00000370: daf6 e03d ecc5 2e3d d4f7 acbc 9078 89bc
00000380: 14f9 893d 00d8 803c 7758 d73d f230 acbd
00000390: 2e7f d3bd 7c18 e13c 3e24 82bd b417 8b3d
000003a0: 50ca 3ebd 8f27 a6bc 1fff edbd 104d 533d
000003b0: e4b8 c8bd 7040 7cbd 14a0 babc 4b7e ba3c
000003c0: 1ed0 843d f2f9 e43d 4c03 1dbd c26b 9e3d
000003d0: 3dbf d23d c007 71bd 28c1 103d 21d7 86bc
000003e0: 095d 2b3c 788a 5e3d 7be4 923d 1222 663d
000003f0: 7625 bebd 2a33 e83c 6ee0 d63d 7842 bebd

fc2.bias f4 [64]
-0.09072454 -0.0371366 0.031336546 -0.050961915 -0.049829915 0.06520055 -0.12370801 0.026189908
-0.09999212 0.10382866 -0.089159995 0.09957894 0.09379247 0.105416864 -0.015509249 0.09482044
-0.04331985 0.026668519 0.08595689 0.109423794 -0.012439287 -0.12349412 -0.06826286 -0.118428774
-0.124221325 0.11832117 -0.03486086 0.052914158 -0.0119697 -0.062874265 0.10899608 -0.0013084412
-0.012819946 -0.10174897 -0.07409558 0.091829926 -0.10038404 -0.034430925 0.033544905 -0.023169441
-0.09978983 -0.096007906 -0.08790916 0.058474082 -0.03707914 -0.09090659 0.09552971 -0.0536968
-0.1209632 0.09691544 -0.061011422 -0.042911798 -0.07412915 -0.03552441 0.10979003 -0.024468344
0.065185666 0.044611797 0.10753415 0.08449995 0.051214106 -0.05477337 -0.043008998 0.098131746
00000000: cacd b9bd 8c1c 18bd c05a 003d 71bd 50bd
00000010: 741a 4cbd de87 853d a05a fdbd 388c d63c
00000020: abc8 ccbd 1fa4 d43d 8499 b6bd 0bf0 cb3d
00000030: 4416 c03d cce4 d73d 811a 7ebc 3831 c23d
00000040: 2870 31bd f077 da3c 2a0a b03d 9519 e03d
00000050: 27ce 4bbc 7cea fcbd 66cd 8bbd c98a f2bd
00000060: c067 febd 5f52 f23d 43ca 0ebd 84bc 583d
00000070: 901c 44bc 39c4 80bd 5639 df3d 0080 abba
00000080: c00a 52bc c461 d0bd 6cbf 97bd 5411 bc3d
00000090: 2696 cdbd 7107 0dbd 6266 093d d7cd bdbc
000000a0: 9c5e ccbd cb9f c4bd b809 b4bd 8582 6f3d
000000b0: 4ce0 17bd 3c2d babd 15a5 c33d 2df1 5bbd
000000c0: 8ebb f7bd 9a7b c63d 1de7 79bd 48c4 2fbd
000000d0: 06d1 97bd 0b82 11bd 98d9 e03d d671 c8bc
000000e0: 1080 853d dcba 363d dd3a dc3d 4f0e ad3d
000000f0: e2c5 513d 0b5a 60bd 342a 30bd 4cf9 c83d

fc3.weight f4 [1, 64]
0.033377483 -0.05740869 0.06965852 -0.09170524 -0.0235077 0.041197464 -0.0962352 -0.06712549
0.0015101087 -0.08687868 0.049683705 0.07949432 0.11876453 0.03427617 0.007122111 0.10803276
-0.09353809 0.106766425 0.079525605 0.044220615 -0.104355186 0.043616742 0.060447235 -0.114210576
-0.07830693 -0.0973361 0.05665298 -0.073563896 0.078064054 -0.019079566 0.042019796 0.06003228
0.029579937 0.111691974 0.033331737 0.076553985 -0.112815745 0.03092356 -0.081259094 -0.07076688
-0.018420398 -0.034069538 0.012256706 0.105872735 -0.009084851 -0.037361726 0.11126849 0.036983807
0.0915425 -0.03753069 -0.09475999 0.080948964 -0.055301517 0.0860664 0.1093529 0.08669997
-0.042201355 -0.027314112 -0.09351922 0.079240836 0.11143605 -0.11442497 0.0212197 0.12663451
00000000: d4b6 083d 6025 6bbd 20a9 8e3d f5cf bbbd
00000010: 3893 c0bc acbe 283d f616 c5bd 1779 89bd
00000020: d7ee c53a 73ed b1bd 2481 4b3d ebcd a23d
00000030: d13a f33d 2b65 0c3d 9960 e93b 4840 dd3d
00000040: e690 bfbd 5ba8 da3d 52de a23d ad20 353d
00000050: 2cb8 d5bd 78a7 323d 8597 773d 3ce7 e9bd
00000060: 625f a0bd 2658 c7bd f50c 683d aba8 96bd
00000070: 0ce0 9f3d c04c 9cbc f31c 2c3d 68e4 753d
00000080: a051 f23c c3be e43d dc86 083d 56c8 9c3d
00000090: f10b e7bd 6853 fd3c 2b6b a6bd 3aee 90bd
000000a0: 60e6 96bc 808c 0bbd 5ad0 483c ced3 d83d
000000b0: a0d8 14bc 9c08 19bd bce0 e33d 557c 173d
000000c0: a27a bb3d c8b9 19bd 8711 c2bd 92c8 a53d
000000d0: d883 62bd 9543 b03d 6af4 df3d c18f b13d
000000e0: 54db 2cbd d8c1 dfbc 0187 bfbd 0549 a23d
000000f0: 9538 e43d a357 eabd f0d4 ad3c 7aac 013e
