public/api/rubella_model.pth (torch, 20612 bytes, 5 tensors)

fc1.weight f4 [64, 3]
-0.22776254 0.09618599 -0.4146075 0.0006240447 -0.49066967 0.41571337 0.15607359 0.008672409
-0.38449797 0.2813639 0.5242795 0.109723136 0.3945658 0.26031768 0.0248937 -0.37699118
0.39219055 0.47870404 -0.31719452 0.0860181 -0.01907163 -0.5389525 -0.561223 0.2993768
-0.2513882 -0.10912501 -0.47894126 0.3622227 0.337144 0.0402981 -0.521317 -0.15118304
0.015948193 0.527649 0.08277462 0.33398187 0.5203012 0.086781055 -0.5700548 0.2669135
0.3207522 0.15273187 -0.41993672 0.30685988 -0.026635304 0.015244989 0.22151285 0.046531692
-0.4882484 0.46080828 0.007557544 0.13214473 0.4362668 -0.3787076 -0.5162736 0.08552161
-0.16055015 0.091166824 -0.30760813 0.05927776 0.39939135 -0.46757764 0.53378886 0.28434017
-0.46182913 -0.504864 -0.027844619 -0.48141247 -0.08482431 -0.28391144 0.06220567 -0.20484008
-0.30290288 0.2049703 -0.20512185 -0.275662 0.22991507 0.065019295 0.4649447 -0.04954898
-0.026765538 0.54777515 -0.5251149 0.5100158 0.10290271 0.09582646 0.26368386 0.18713216
-0.028429946 0.482739 0.4255957 0.020199496 -0.3214869 -0.44538188 0.17342669 -0.28643632
0.53449684 -0.57191163 0.050592363 -0.051735107 -0.39892742 -0.437112 -0.521932 -0.44023642
-0.16979426 0.5578857 0.45486745 0.43111238 -0.48935768 0.4091117 0.30260888 0.3494052
0.3127625 0.23818958 -0.20863128 0.012229677 -0.110256344 0.30763224 0.17451459 -0.16949147
-0.0023192822 -0.29702497 -0.5383308 -0.39922136 -0.057630837 0.44315234 0.48086295 -0.17111754
-0.21366669 0.41888595 0.15640566 0.051954545 0.16745107 -0.39939997 -0.2729239 -0.32118136
0.13657616 -0.005195548 -0.2852455 -0.18762784 -0.0018647132 -0.54272914 0.3235205 -0.39407563
0.12742376 0.031616025 0.31930947 -0.33031857 0.032470137 -0.4852027 0.3694554 -0.24369298
0.0636028 0.5380821 -0.5631493 -0.48239365 -0.4552582 -0.19261508 0.47327432 0.20938522
-0.08212753 0.53662753 0.49303228 -0.5219631 -0.07131788 -0.32941917 0.12469423 0.54505545
-0.15333457 -0.083009705 -0.2991772 -0.040077787 -0.5441126 -0.39057845 -0.20325021 -0.4118893
-0.53835344 -0.3945799 -0.21222435 0.42640826 0.3940659 -0.35724038 0.37061659 -0.49126646
-0.29119793 0.002990331 0.17388 0.24360265 -0.23542784 0.24186951 0.22575867 0.014302779
00000000: 953a 69be 29fd c43d 6f47 d4be ee96 233a
00000010: 0e39 fbbe 62d8 d43e c1d1 1f3e b816 0e3c
00000020: ebdc c4be ee0e 903e 2e37 063f 86b6 e03d
00000030: 8704 ca3e 5c48 853e dfed cb3c fd04 c1be
00000040: 33cd c83e b218 f53e 5267 a2be 422a b03d
00000050: 1b3c 9cbc cbf8 09bf 4fac 0fbf ea47 993e
00000060: f4b5 80be ef7c dfbd ca37 f5be 4175 b93e
00000070: 239e ac3e 9f0f 253d 0875 05bf bacf 1abe
00000080: c9a5 823c 0114 073f bd85 a93d acff aa3e
00000090: 7632 053f 44ba b13d 1def 11bf e3a8 883e
000000a0: a239 a43e be65 1c3e f201 d7be bd1c 9d3e
000000b0: 4832 dabc 1ec6 793c 44d4 623e 0498 3e3d
000000c0: b2fb f9be 10ef eb3e 46a5 f73b f350 073e
000000d0: 5d5e df3e f6e5 c1be 822a 04bf f425 af3d
000000e0: 4267 24be acb5 ba3d d07e 9dbe 3dcd 723d
000000f0: 067d cc3e 5666 efbe 63a6 083f 0995 913e
00000100: de74 ecbe c43e 01bf 661a e4bc b27b f6be
00000110: 5eb8 adbd d75c 91be 5fcb 7e3d 99c1 51be
00000120: 1616 9bbe bce3 513e 760b 52be 9223 8dbe
00000130: db6e 6b3e d628 853d 3b0d ee3e dff3 4abd
00000140: 6743 dbbc fe3a 0c3f ee6d 06bf 6590 023f
00000150: a8be d23d aa40 c43d 9201 873e 939f 3f3e
00000160: ebe5 e8bc 9129 f73e aee7 d93e 6a79 a53c
00000170: ee99 a4be 1809 e4be c496 313e c8a7 92be
00000180: c9d4 083f cd68 12bf f039 4f3d 31e8 53bd
00000190: 3740 ccbe 25cd dfbe 569d 05bf ab66 e1be
000001a0: 8cde 2dbe 99d1 0e3f 63e4 e83e c3ba dc3e
000001b0: 178d fabe 1777 d13e 8def 9a3e 3de5 b23e
000001c0: 6822 a03e f8e7 733e 70a3 55be fc5e 483c
000001d0: 14ce e1bd f981 9d3e f4b3 323e 2c8f 2dbe
000001e0: 19ff 17bb a813 98be 0cd0 09bf be66 ccbe
000001f0: 500e 6cbd dde4 e23e ab33 f63e 7039 2fbe
00000200: 71cb 5abe 3878 d63e ce28 203e 4ace 543d
00000210: 4b78 2b3e 277e ccbe aebc 8bbe e271 a4be
00000220: 9fda 0b3e 6a3f aabb b30b 92be 8321 40be
00000230: 6469 f4ba 4cf0 0abf 7ba4 a53e 48c4 c9be
00000240: 607b 023e ce7f 013d 887c a33e 841f a9be
00000250: 68ff 043d 7d6c f8be 4229 bd3e a78a 79be
00000260: 2f42 823d c0bf 093f 8d2a 10bf 4dfc f6be
00000270: 9a17 e9be e33c 45be 0351 f23e 1469 563e
00000280: 7a32 a8bd 6c60 093f ba6e fc3e 609f 05bf
00000290: 1c0f 92bd a1a9 a8be b05f ff3d c188 0b3f
000002a0: bd03 1dbe fe00 aabd c12d 99be 9b28 24bd
000002b0: f74a 0bbf e6f9 c7be d320 50be 28e3 d2be
000002c0: 88d1 09bf 6006 cabe 5751 59be 2f52 da3e
000002d0: 01c3 c93e 36e8 b6be 75c1 bd3e 4787 fbbe
000002e0: e517 95be 6ef9 433b 990d 323e f972 793e
000002f0: ff13 71be a4ac 773e 482d 673e 3456 6a3c

fc1.bias f4 [64]
0.10477468 -0.37207896 0.15558533 -0.38950625 0.3413842 0.47854796 0.034408547 -0.21899949
0.49007615 0.2965254 0.5623907 0.35780942 0.29707667 0.079980046 0.09075881 -0.4186764
-0.3996333 0.49439165 0.17724109 -0.44980207 -0.13160725 0.15289053 0.22204278 -0.35618636
-0.40758643 -0.09850379 -0.34566855 0.0029152737 0.064198434 0.13859414 -0.0045000156 0.06759891
-0.14535698 -0.24556668 -0.33283082 0.263171 -0.05935796 -0.3331195 0.358804 0.30194798
-0.24421722 -0.54683316 -0.054659955 -0.051238466 0.46564028 0.24497408 0.36340472 -0.05921479
0.56781024 0.17258278 0.49675676 -0.015152194 -0.55145216 -0.08824937 0.18745601 0.47215292
0.3462248 -0.093294635 -0.5315572 0.5185765 0.26360318 -0.21270546 -0.07447574 0.046581473
00000000: 1c94 d63d 2281 bebe c351 1f3e 5d6d c7be
00000010: e9c9 ae3e 3d04 f53e faef 0c3d 6741 60be
00000020: 43eb fa3e 2dd2 973e d6f8 0f3f cc32 b73e
00000030: 6f1a 983e 94cc a33d c1df b93d c15c d6be
00000040: bc9c ccbe e720 fd3e b07e 353e 754c e6be
00000050: 0dc4 06be 568f 1c3e 2f5f 633e 0f5e b6be
00000060: 2baf d0be 5bbc c9bd 78fb b0be 2d0e 3f3b
00000070: 787a 833d 9feb 0d3e de74 93bb 4c71 8a3d
00000080: 76d8 14be d575 7bbe cd68 aabe 59be 863e
00000090: 5521 73bd a48e aabe 28b5 b73e ed98 9a3e
000000a0: 1414 7abe 42fd 0bbf 1ee3 5fbd 6ddf 51bd
000000b0: 6768 ee3e 7cda 7a3e 2f10 ba3e 358b 72bd
000000c0: 035c 113f 8ab9 303e e756 fe3e e840 78bc
000000d0: f82b 0dbf 16bc b4bd 78f4 3f3e 07be f13e
000000e0: 6144 b13e 4211 bfbd 2214 08bf 6ec1 043f
000000f0: fff6 863e 76cf 59be bd86 98bd 37cc 3e3d

fc2.weight f4 [64, 64]
0.024489239 0.035405174 -0.10973923 0.024464846 -0.088734105 -0.042109773 -0.030850083 -0.045195162
-0.1033289 -0.012231469 0.00033323467 0.024340183 0.081553206 -0.027269855 -0.09891921 -0.015504375
-0.10729545 -0.11979507 0.082466215 0.09491144 0.00599584 -0.066300824 -0.09262213 -0.08703555
0.036765352 0.08884628 0.048297644 0.11729948 -0.10388313 0.007686481 -0.12022838 -0.016217709
0.07313961 0.12054938 0.112523094 -0.031315252 0.10117352 -0.07171281 0.048674434 0.07407613
0.10650684 -0.11999254 0.06680523 0.06890978 -0.12366277 -0.10629016 0.008942008 -0.069640905
-0.05800934 0.039003253 0.01703228 -0.024953872 -0.020522535 -0.070702314 0.089586556 0.056663066
-0.032268867 -0.008150414 0.08353877 0.07109067 -0.09010111 0.06476237 -0.00022993982 0.083568886
0.082443275 -0.08901674 0.0055242972 -0.10863693 -0.11337151 0.008806188 0.11357586 -0.10478349
0.1067544 0.052971106 0.081331745 0.035825122 0.09310362 -0.044835415 0.08347315 0.059410587
-0.028652024 -0.0654185 -0.0177924 -0.112955585 -0.0601525 -0.08359941 -0.0051412196 -0.10469794
-0.073480844 0.023622822 -0.052952334 -0.03542533 0.04343053 -0.124954276 -0.065902315 0.04706403
0.012992448 0.0055442452 0.02999711 0.03637678 0.005181253 0.036703523 0.11519414 -0.060426515
0.0099160075 -0.016549855 -0.012097251 0.083973706 -0.031157872 -0.09969295 0.018120468 0.11562362
-0.049533837 0.0043222625 -0.035456203 0.10985544 0.104658395 -0.044095986 -0.027344612 -0.050047074
-0.020221733 -0.088768765 0.00964947 0.082108855 0.10987128 -0.042131364 -0.111174054 0.03639655
-0.04612312 -0.12571779 0.036479536 0.058393653 -0.07762934 0.06738101 -0.002556574 -0.09668752
-0.07596844 0.11359403 0.08590335 0.0032027625 0.044345483 -0.0075641405 0.0048416425 0.06151338
-0.026119586 0.1247018 -0.08817769 0.010966718 0.013338767 -0.035666276 -0.042296875 -0.052459463
0.1110117 -0.077200614 0.0865567 -0.027620113 0.05830161 0.009099399 -0.06011953 0.009212003
-0.071130104 -0.058658272 0.10710794 0.07414917 -0.103199795 0.07832709 -0.10409125 -0.032776814
0.0401558 0.09149364 0.0023005672 -0.063972645 -0.020095415 -0.01889072 -0.011114602 0.10940352
0.12825096 0.097541004 -0.1170267 0.086576745 0.11334534 -0.04217153 0.065995894 0.11364259
0.027877118 0.06248103 0.04941067 -0.115069896 -0.10119646 -0.085211605 0.10112224 0.04295024
-0.028661802 0.05305977 0.051651657 0.012946382 -0.056445837 0.030323505 0.068132505 -0.037546292
0.049535498 -0.07456975 -0.049921438 0.035659358 -0.11413832 0.06842506 0.0479711 -0.012739107
-0.10913257 -0.06965846 0.0125234425 -0.10418135 -0.10142915 0.0543333 0.117773116 0.03599614
0.033201188 -0.10785745 -0.058324054 -0.08898328 0.030295163 -0.110538244 0.11280371 -0.063602254
0.119536504 -0.10818267 -0.100597665 -0.06018582 0.03610587 -0.009862989 -0.10070419 -0.060739413
0.041133314 0.050685555 0.09387843 0.017401308 0.08810967 0.006524518 0.04303576 0.12017077
0.11222857 -0.048933253 -0.086946905 -0.1077836 -0.0060298443 -0.07744013 0.06608161 0.001525715
-0.004978135 -0.1145948 0.12308058 -0.069026485 0.09450725 -0.08712609 -0.087522745 0.03194
00000000: a89d c83c 0405 113d f6be e0bd 806a c83c
00000010: 3aba b5bd 4c7b 2cbd 50b9 fcbc 901e 39bd
00000020: 1a9e d3bd 8066 48bc 00b6 ae39 1065 c73c
00000030: 5e05 a73d 0865 dfbc 2896 cabd 1006 7ebc
00000040: b8bd dbbd 1e57 f5bd 0ce4 a83d ee60 c23d
00000050: c078 c43b bac8 87bd acb0 bdbd b23f b2bd
00000060: 4497 163d 0af5 b53d c0d3 453d b63a f03d
00000070: aec0 d4bd e0de fb3b 4c3a f6bd 00db 84bc
00000080: 38ca 953d 98e2 f63d 8272 e63d 6c44 00bd
00000090: 1034 cf3d 2ade 92bd d85e 473d 3ab5 973d
000000a0: 4220 da3d a6be f5bd 2ed1 883d 9220 8d3d
000000b0: e842 fdbd a8ae d9bd 8081 123c e49f 8ebd
000000c0: 349b 6dbd e0c1 1f3d 4887 8b3c 106c ccbc
000000d0: e01e a8bc 60cc 90bd 2879 b73d 8817 683d
000000e0: 5c2c 04bd 5089 05bc 6016 ab3d fc97 913d
000000f0: ee86 b8bd 22a2 843d 001c 71b9 2a26 ab3d
00000100: 05d8 a83d 694e b6bd 2a05 b53b 0a7d debd
00000110: 522f e8bd d447 103c 769a e83d ba98 d6bd
00000120: 0da2 da3d 3bf8 583d 4291 a63d 5dbd 123d
00000130: 1cad be3d 57a5 37bd f9f3 aa3d 8458 733d
00000140: a6b7 eabc 22fa 85bd 5ec1 91bc 4255 e7bd
00000150: 7862 76bd 2b36 abbd ad77 a8bb e06b d6bd
00000160: 207d 96bd a684 c13c 8ce4 58bd 271a 11bd
00000170: 36e4 313d 07e8 ffbd cbf7 86bd 36c6 403d
00000180: 47de 543c 80ac b53b 80bc f53c d2ff 143d
00000190: 80c7 a93b 6f56 163d e8ea eb3d cb81 77bd
000001a0: c076 223c 9093 87bc 8c33 46bc 68fa ab3d
000001b0: cb3e ffbc d12b ccbd 6071 943c 14cc ec3d
000001c0: fee3 4abd c4a1 8d3b 863a 11bd e4fb e03d
000001d0: 2457 d63d fe9d 34bd cf01 e0bc 29fe 4cbd
000001e0: 0ca8 a5bc 66cc b5bd d018 1e3c b028 a83d
000001f0: 3204 e13d f091 2cbd 39af e3bd 8c14 153d
00000200: 99eb 3cbd 2abc 00be 916b 153d 2f2e 6f3d
00000210: 22fc 9ebd 0eff 893d 328c 27bb 1b04 c6bd
00000220: 5795 9bbd fda3 e83d 18ee af3d 70e5 513b
00000230: 9ca3 353d 9cdc f7bb a4a6 9e3b 74f5 7b3d
00000240: bef8 d5bc a863 ff3d 8196 b4bd c0ad 333c
00000250: d88a 5a3c cd16 12bd 7d3f 2dbd bcdf 56bd
00000260: 1a5a e33d 5b1b 9ebd a444 b13d 9343 e2bc
00000270: abcd 6e3d a515 153c e53f 76bd f1ed 163c
00000280: a9ac 91bd a843 70bd 685b db3d 85db 973d
00000290: 6a5a d3bd f469 a03d cb2d d5bd fb40 06bd
000002a0: 687a 243d 0461 bb3d 1dc5 163b 1704 83bd
000002b0: 249f a4bc b6c0 9abc 051a 36bc f40e e03d
000002c0: 3854 033e 94c3 c73d b2ab efbd 264f b13d
000002d0: 9a21 e83d 0ebc 2cbd db28 873d 72bd e83d
000002e0: 8e5e e43c 1cec 7f3d d862 4a3d c4a9 ebbd
000002f0: 1740 cfbd 6c83 aebd 2d19 cf3d 97ec 2f3d
00000300: 28cc eabc 3455 593d b090 533d 101d 543c
00000310: c033 67bd 0069 f83c 0e89 8b3d 24ca 19bd
00000320: bce5 4a3d 06b8 98bd 6c7a 4cbd 8c0f 123d
00000330: 5ac1 e9bd 7022 8c3d 587d 443d b0b7 50bc
00000340: e680 dfbd 18a9 8ebd 202f 4d3c 085d d5bd
00000350: 16ba cfbd 988c 5e3d 0833 f13d b070 133d
00000360: f8fd 073d 5ee4 dcbd 34e5 6ebd de3c b6bd
00000370: 902d f83c e061 e2bd a205 e73d e641 82bd
00000380: 8ecf f43d e08e ddbd 2606 cebd 6885 76bd
00000390: c0e3 133d 6098 21bc 003e cebd e4c9 78bd
000003a0: 687b 283d a89b 4f3d 5643 c03d 308d 8e3c
000003b0: d872 b43d a0cb d53b 4446 303d 181c f63d
000003c0: 18d8 e53d 3c6e 48bd 3811 b2bd a6bd dcbd
000003d0: 0096 c5bb ee98 9ebd cc55 873d 80fa c73a
000003e0: a01f a3bb aeb0 eabd ac11 fc3d c25d 8dbd
000003f0: 048d c13d 2a6f b2bd 203f b3bd 84d3 023d

fc2.bias f4 [64]
-0.003920153 0.061626744 0.038912132 0.028713435 0.1000557 -0.0026270002 0.10560479 -0.08527569
0.03329712 -0.098579824 -0.06552485 0.020560294 -0.056354165 -0.0949177 0.02468695 -0.10426587
-0.03808623 -0.028750671 0.06530009 -0.05097697 0.015875176 0.05455147 -0.09225619 -0.018166203
0.02653728 -0.00590805 -0.04590534 -0.108505666 0.05445424 0.101908445 0.0946171 0.09321709
-0.09723769 -0.062324937 -0.029655471 -0.03273262 -0.0015260825 0.035301544 0.016005218 0.08658
0.08691227 -0.000972718 0.030402051 0.039629366 0.017844195 0.081271365 -0.07469521 -0.098217286
0.11269251 -0.08297801 0.025883125 -0.038448703 0.105290875 0.096153304 -0.0021038328 -0.11294699
-0.012022153 0.09978316 -0.068987384 0.013077321 -0.11248326 -0.095095634 -0.07803056 0.04247146
00000000: a074 80bb 536c 7c3d 5462 1f3d 7038 eb3c
00000010: 01ea cc3d c029 2cbb 5347 d83d 05a5 aebd
00000020: 9062 083d 38e4 c9bd e431 86bd 106e a83c
00000030: a0d3 66bd 3664 c2bd 493c ca3c 5889 d5bd
00000040: 4f00 1cbd 8786 ebbc 0ebc 853d 3acd 50bd
00000050: a80c 823c 5d71 5f3d d0f0 bcbd 4ad1 94bc
00000060: b664 d93c 5198 c1bb 3d07 3cbd 3838 debd
00000070: 690b 5f3d 60b5 d03d 9cc6 c13d 9ae8 be3d
00000080: 8e24 c7bd 6f48 7fbd 08f0 f2bc a412 06bd
00000090: d506 c8ba 5a98 103d 601d 833c db50 b13d
000000a0: 0fff b13d 00fe 7eba b90d f93c 6752 223d
000000b0: fd2d 923c 9a71 a63d cdf9 98bd 2526 c9bd
000000c0: 55cb e63d 60f0 a9bd d908 d43c 637c 1dbd
000000d0: bea2 d73d 06ec c43d 75e0 09bb c050 e7bd
000000e0: 90f8 44bc 1d5b cc3d 4249 8dbd 4342 563c
000000f0: a05d e6bd 80c1 c2bd 7cce 9fbd 8ef6 2d3d

fc3.weight f4 [1, 64]
-0.0009561181 0.10290874 -0.084563255 -0.1163743 0.07013126 0.06988098 0.07123978 -0.078074045
0.11414492 0.0065151304 -0.03563064 0.12416291 0.1244635 0.1043096 0.083851635 -0.030922877
-0.054373655 0.045778558 -0.09465605 -0.08492387 0.06727544 0.020206243 0.042919606 0.05733484
0.05485645 -0.07175294 -0.11741565 0.022425592 -0.07564287 0.01005689 0.06962204 0.10400446
-0.093296304 -0.089353204 0.008710466 -0.10529281 0.089829154 0.11841555 0.0044018743 -0.0030692664
-0.116181 -0.10369258 -0.107969955 0.084863886 0.03896271 -0.06446785 -0.11545499 0.09856088
0.0036040475 -0.048531603 -0.08859531 -0.10514113 -0.08256018 -0.11573218 0.009818862 0.122672796
-0.09077731 0.11448308 -0.10584642 0.08689881 -0.08251196 -0.040187642 0.08454435 0.094324216
00000000: 00a4 7aba d1c1 d23d 802f adbd a655 eebd
00000010: faa0 8f3d c21d 8f3d 29e6 913d 49e5 9fbd
00000020: d0c4 e93d e07c d53b 6ff1 11bd 2049 fe3d
00000030: b8e6 fe3d 46a0 d53d 68ba ab3d f951 fdbc
00000040: e9b6 5ebd 4c82 3b3d 08db c1bd 91ec adbd
00000050: b5c7 893d 9087 a53c 78cc 2f3d f0d7 6a3d
00000060: 28b1 603d 35f3 92bd 9e77 f0bd e0b5 b73c
00000070: a6ea 9abd a7c5 243c 0096 8e3d 4a00 d53d
00000080: 2212 bfbd d0fe b6bd 58b6 0e3c c2a3 d7bd
00000090: 59f8 b73d da83 f23d 993d 903b bf25 49bb
000000a0: 4ef0 edbd c65c d4bd 5a1f ddbd 1ecd ad3d
000000b0: 5d97 1f3d b807 84bd aa73 ecbd 49da c93d
000000c0: e231 6c3b 13c9 46bd 7571 b5bd 3c54 d7bd
000000d0: 5015 a9bd fe04 edbd 4bdf 203c e03b fb3d
000000e0: 74e9 b9bd 1b76 ea3d 02c6 d8bd 01f8 b13d
000000f0: 08fc a8bd cc9b 24bd 9725 ad3d 0e2d c13d
