public/api/rubella_model.pth (torch, 20612 bytes, 5 tensors)

fc1.weight f4 [64, 3]
0	0x3edbbfaf	0.4291968
1	0xbec0e309	-0.37673214
2	0xbdba9bcd	-0.09111748
3	0xbf0c0710	-0.54698277
4	0xbe8300f1	-0.25586656
5	0xbe5fb29a	-0.21845475
6	0xbe55f04c	-0.20892447
7	0x3de800a9	0.11328251
8	0x3ee17c8b	0.4404033
9	0xbeedadc7	-0.46421644
10	0xbe83598b	-0.25654253
11	0xbf0d2ef3	-0.55149764
12	0xbf072deb	-0.5280444
13	0xbe9ec844	-0.31012166
14	0x3e449b60	0.19199896
15	0x3ecd07c4	0.40044987
16	0xbf120bf4	-0.5704949
17	0xbdd2aa7b	-0.10286423
18	0x3e0917c1	0.13387968
19	0x3c9089ea	0.017643888
20	0xbed24d87	-0.41074774
21	0x3ef298d0	0.47382212
22	0x3c8bbf7c	0.01705908
23	0xbde8d58e	-0.11368857
24	0xbef032b7	-0.46913692
25	0xbe9583e8	-0.292022
26	0x3f03c9c1	0.5147973
27	0x3eded8e9	0.43524864
28	0xbeb2c07c	-0.3491248
29	0xbeaf01b4	-0.34180987
30	0xbf01691e	-0.5055102
31	0x3f0489c2	0.517727
32	0x3d25672d	0.0403816
33	0xbe48947c	-0.19587892
34	0x3f0b4388	0.5439992
35	0xbf0f7194	-0.5603268
36	0x3eab50bb	0.3346003
37	0x3e5af62f	0.21382974
38	0x3ea734f9	0.32657602
39	0xbead3022	-0.33825785
40	0x3e47519f	0.1946473
41	0x3eadb1c7	0.33924696
42	0x3d6d5a19	0.057947252
43	0xbeda1385	-0.42593017
44	0xbf123b67	-0.5712189
45	0xbe75afa2	-0.2399278
46	0x3ed90123	0.4238368
47	0xbde71a47	-0.11284309
48	0x3e4f4d16	0.2024425
49	0x3eb09c18	0.3449409
50	0x3d5ff4af	0.054676708
51	0xbdf2ea4d	-0.118610956
52	0x3d0f0f65	0.03492679
53	0xbe84f6c2	-0.2596951
54	0xbf0a0a56	-0.5392202
55	0x3ed2eece	0.4119782
56	0x3e525448	0.20539963
57	0xbeb7021e	-0.35743803
58	0x3dbd1b96	0.09233777
59	0xbe157d60	-0.14598608
60	0xbe6b0b5f	-0.22953556
61	0x3c98f196	0.018669885
62	0xbed5fdb1	-0.41795114
63	0x3eda08f5	0.4258496
64	0xbf125a0c	-0.5716865
65	0x3e43d0c4	0.19122607
66	0x3f0b6a08	0.54458666
67	0xbe1dcac9	-0.15409388
68	0x3e453c83	0.19261365
69	0x3e00f444	0.1259318
70	0xbed2052c	-0.4101957
71	0xbe112c84	-0.14177138
72	0xbeb3d0a4	-0.35120118
73	0xbf04633e	-0.5171393
74	0xbea8292d	-0.32843915
75	0xbeff4b96	-0.49862355
76	0xbd70bf73	-0.05877633
77	0x3e54665a	0.20742169
78	0x3dd5621b	0.10419103
79	0x3eac037f	0.33596417
80	0x3d97598c	0.073901266
81	0xbf06844d	-0.52545625
82	0xbe4d0b55	-0.20023854
83	0xbe9d5c8b	-0.30734667
84	0xbec51a52	-0.38496643
85	0xbe2627b2	-0.1622608
86	0xbeb1ef80	-0.34753036
87	0xbde9f70a	-0.11424072
88	0xbebbbaa0	-0.3666582
89	0xbf00051d	-0.500078
90	0xbec75370	-0.38930845
91	0xbdc2dec7	-0.09515148
92	0x3e807a7e	0.25093454
93	0xbed48cf8	-0.415138
94	0xbe9eec29	-0.3103955
95	0xbed18840	-0.40924263
96	0x3eee81bc	0.46583354
97	0xbd6f591a	-0.058434583
98	0x3f066b33	0.52507323
99	0xbefeae76	-0.49742478
100	0xbed121d8	-0.40846133
101	0xbe4d8064	-0.20068508
102	0x3f11e4c5	0.569897
103	0xbdab2fcd	-0.08358727
104	0xbf0d8c74	-0.5529244
105	0xbeca777c	-0.39544284
106	0xbe9b9a2a	-0.30391055
107	0xbe9d6ad7	-0.30745575
108	0x3e118efd	0.14214702
109	0xbedd802f	-0.4326186
110	0x3d7e2a45	0.06205203
111	0x3f0501b5	0.5195573
112	0x3ec981be	0.39356798
113	0xbcad67c3	-0.021167642
114	0x3d0697d5	0.032859642
115	0xbf0b5c1b	-0.54437417
116	0xbe26e407	-0.16297923
117	0x3e80de64	0.2516967
118	0xbe98abdc	-0.29818618
119	0xbea0c1ef	-0.3139796
120	0xbe0e9f41	-0.13927938
121	0xbeb1a230	-0.34694052
122	0xbe0edb2c	-0.13950795
123	0x3da088d3	0.07838597
124	0x3e451e45	0.19249828
125	0xbed64968	-0.4185288
126	0x3e810bfe	0.25204462
127	0x3ed54d15	0.4166037
128	0xbe937989	-0.2880366
129	0xbe7d42eb	-0.24732558
130	0xbf0a05fc	-0.5391538
131	0xbf030a74	-0.51187825
132	0x3f058dc0	0.5216942
133	0x3ed6f2a0	0.41981983
134	0xbc36997e	-0.011144994
135	0xbe856cd2	-0.26059586
136	0x3ecd58d8	0.40106845
137	0x3eca33f3	0.3949276
138	0x3eee71c2	0.46571165
139	0xbf0a65c5	-0.5406154
140	0xbefa1b44	-0.48848927
141	0x3e735713	0.23763685
142	0xbec455ae	-0.38346618
143	0xbee55731	-0.44793084
144	0x3d8290dd	0.06375287
145	0xbdce76af	-0.10081231
146	0xbec1557f	-0.3776054
147	0x3e574332	0.21021727
148	0xbf060c21	-0.5236226
149	0x3ef80c07	0.48446676
150	0x3d7c07d4	0.061530903
151	0xbecdb427	-0.40176508
152	0xbce8ae18	-0.028403327
153	0xbeadd1ff	-0.33949277
154	0xbd64348f	-0.055714186
155	0xbe62d575	-0.2215174
156	0x3eedfab6	0.4648034
157	0x3f07093c	0.52748466
158	0xbdb1e304	-0.08685878
159	0xbe99d81f	-0.300477
160	0xbea5b500	-0.32364655
161	0xbeafa564	-0.3430587
162	0xbcdfe2e8	-0.027329877
163	0x3d46de1b	0.04855166
164	0xbe824e14	-0.25450194
165	0x3e7e3818	0.24826086
166	0xbedcaa0d	-0.43098488
167	0x3ee4e586	0.44706362
168	0xbec9a2d4	-0.3938204
169	0x3e5d02cf	0.21583103
170	0x3cda3d76	0.026640635
171	0xbea86894	-0.32892287
172	0xbe118beb	-0.1421353
173	0x3e5641ae	0.20923492
174	0x3f040a4b	0.51578206
175	0xbecb3693	-0.39690074
176	0x3ec97b8e	0.39352077
177	0x3eaad70f	0.33367202
178	0x3ea3efcd	0.3201889
179	0x3f0e8917	0.5567793
180	0x3f12e559	0.57381207
181	0xbe36c357	-0.17847954
182	0xbee78bde	-0.45223898
183	0x3eac3807	0.33636495
184	0xbdea3c77	-0.11437314
185	0x3e27a121	0.1637006
186	0xbe836e90	-0.2567029
187	0x3dfc6381	0.12323666
188	0x3ea8e57e	0.3298759
189	0x3f0b39be	0.5438498
190	0xbec83449	-0.3910239
191	0x3f12c1b2	0.57326806

fc1.bias f4 [64]
0	0xbf012cf1	-0.504592
1	0x3ed00739	0.4063051
2	0x3ec0774e	0.37591022
3	0x3ecd5d0c	0.40110052
4	0xbef5e7ba	-0.48028356
5	0x3e969e92	0.29417855
6	0x3ecfaeac	0.40562952
7	0x3e05f1d1	0.13080527
8	0x3eb5c53b	0.35502037
9	0xbeffbac2	-0.49947172
10	0xbe2bb5ab	-0.1676852
11	0xbec55191	-0.38538793
12	0x3eb6bf3a	0.3569277
13	0xbec204b4	-0.37894213
14	0x3f0edabd	0.5580252
15	0xbe17e5be	-0.14833733
16	0x3ece676a	0.40313274
17	0x3d04575e	0.032309882
18	0x3f060871	0.5235663
19	0x3efa3328	0.48867154
20	0xbe6798b6	-0.22616848
21	0x3ee06dd8	0.43833804
22	0xbe7072c1	-0.23481275
23	0x3d845ac5	0.064626254
24	0xbef44c69	-0.47714546
25	0x3ee2e305	0.44313827
26	0x3e6f8c2a	0.23393312
27	0xbdf7077c	-0.120619744
28	0x3ea023f3	0.31277427
29	0xbd8b8df7	-0.06814187
30	0x3ea31619	0.31852797
31	0xbed7e8ed	-0.42169896
32	0xbe84cb3f	-0.25936314
33	0xbd833f71	-0.06408585
34	0xbd85ae37	-0.065273695
35	0xbe799390	-0.24372697
36	0x3ef7746d	0.48331013
37	0x3e32da59	0.17466106
38	0xbe8868bc	-0.26642406
39	0xbf135778	-0.5755534
40	0x3e61b576	0.22041878
41	0x3d636472	0.055515714
42	0x3e712260	0.2354827
43	0xbed8e368	-0.42360997
44	0xbe70e3fe	-0.23524472
45	0x3eb6e771	0.3572345
46	0x3dfbb185	0.122897185
47	0x3d8f5834	0.06999245
48	0xbf099084	-0.5373614
49	0xbd733b0c	-0.059382483
50	0xbf0fce7e	-0.5617446
51	0x3dfeff60	0.12451053
52	0x3c46826f	0.012116059
53	0xbeb80a35	-0.35945287
54	0x3d58afbc	0.05290197
55	0xbeeedf37	-0.46654674
56	0xbebed3e1	-0.37271026
57	0x3f076c8c	0.52900004
58	0xbe352e7a	-0.1769351
59	0xbee0ca26	-0.43904227
60	0x3ded4674	0.115857035
61	0xbf11c5b9	-0.56942326
62	0x3edcda9c	0.43135536
63	0x3e2fa8e4	0.1715427

fc2.weight f4 [64, 64]
0	0x3dd483b4	0.10376683
1	0x3dc6ff47	0.09716659
2	0x3d907565	0.07053641
3	0x3d08c38e	0.03338962
4	0xbda49434	-0.0803608
5	0x3dd1f059	0.10250921
6	0x3d968ca7	0.07351046
7	0x3cd521c4	0.026017077
8	0xbd9359c4	-0.07194856
9	0x3abd3e00	0.0014438033
10	0xbd4ca61f	-0.049963113
11	0xbc778070	-0.0151063055
12	0x3db7b508	0.08970076
13	0xbdc3be0c	-0.09557733
14	0xbdc996ad	-0.09843192
15	0x3d058a2b	0.03260247
16	0xbcb08eef	-0.021552531
17	0x3b3baf52	0.0028638435
18	0xbd3386e7	-0.043829825
19	0x3dc79aee	0.09746347
20	0xbd911032	-0.07083167
21	0xbce747c8	-0.02823247
22	0x3d97ccb8	0.07412094
23	0xbd52f78c	-0.05150561
24	0x3c88ae40	0.016684651
25	0xbdbb1486	-0.09134774
26	0x3d874d25	0.06606511
27	0xbd8963d8	-0.06708497
28	0x3d57f4d9	0.05272374
29	0xbc6a57d0	-0.014303163
30	0x3dee4c32	0.11635627
31	0x3deed77a	0.11662193
32	0xbd77228a	-0.060335673
33	0x3d062818	0.03275308
34	0x3d2ff1a0	0.04295504
35	0x3df486c6	0.119397685
36	0xbd8b0554	-0.06788126
37	0xbd026ff9	-0.031845067
38	0xbbb184c0	-0.0054174364
39	0xbd896fc4	-0.06710771
40	0x3df71b4d	0.12065754
41	0x3dbf2800	0.09333801
42	0x3a8bf5a2	0.0010678063
43	0xbc7e7790	-0.015531436
44	0x3d82460b	0.06361016
45	0xbcf55432	-0.029947374
46	0x3d47a552	0.048741646
47	0xbdcb1532	-0.09916152
48	0xbc867128	-0.016411379
49	0x3de4c171	0.111697085
50	0x3db40fe0	0.087920904
51	0x3cd1fa41	0.025632026
52	0x3d3f1ed8	0.046660274
53	0xbd78937c	-0.060687527
54	0x3c9621a9	0.018326597
55	0x3dfe36dc	0.12412807
56	0xbd80cd72	-0.062891856
57	0x3dd2b59b	0.10288545
58	0x3cbde3f0	0.023179978
59	0xbd3bbb30	-0.045832813
60	0x3dee97dc	0.116500586
61	0xbd70d960	-0.058801055
62	0x3d969a07	0.07353597
63	0xbd7df276	-0.061998807
64	0x3d01ae74	0.031660512
65	0x3d177f0d	0.0369864
66	0xbdda76a8	-0.10667163
67	0x3df3b52c	0.1189979
68	0xbcba6820	-0.022754729
69	0x3c553097	0.013012073
70	0xbcfb6a53	-0.030690348
71	0x3d480a2e	0.048837833
72	0xbd1cf19a	-0.038316347
73	0x3db69f82	0.089171425
74	0xbda1955b	-0.078898154
75	0xbd968dda	-0.07351275
76	0xbb0e116f	-0.0021677872
77	0xbd8212e6	-0.06351261
78	0xbda825df	-0.08210348
79	0x3d7e20b2	0.0620429
80	0x3d65b785	0.05608322
81	0xbd09aa8c	-0.03360991
82	0x3be50fad	0.006990394
83	0x3d6cb6f6	0.057791673
84	0x3d37efe0	0.044906497
85	0xbc00d77e	-0.007863877
86	0x3bae100a	0.0053119706
87	0xbd300703	-0.042975437
88	0xbdefda0c	-0.11711511
89	0x3d481c9a	0.0488554
90	0xbdce8fce	-0.10086022
91	0x3dc2d912	0.09514059
92	0x3c1103f8	0.008851044
93	0x3dae031e	0.08496688
94	0x3c52189e	0.012823252
95	0xbb56a240	-0.0032750517
96	0x3df7a5c8	0.12092167
97	0xbce99550	-0.02851358
98	0x3dcc4c62	0.09975506
99	0x3ac30e80	0.0014881641
100	0xbb3a68e2	-0.0028443863
101	0xbda86f03	-0.08224299
102	0xbdaab266	-0.08334808
103	0xbd0a7e28	-0.03381172
104	0x3c113d59	0.008864724
105	0xbc731338	-0.014836125
106	0x3d95fc71	0.0732354
107	0x3a999600	0.0011717677
108	0x3ce40b4b	0.027837416
109	0x3d95fba1	0.07323385
110	0xbdf9a627	-0.12189894
111	0xbcfc97cc	-0.030834101
112	0x3d5799a0	0.052636743
113	0x3d19eb96	0.037578188
114	0x3c8209d0	0.01587382
115	0x3c352df3	0.011058318
116	0x3cb2e7f7	0.021839125
117	0x3cfd9bf0	0.030958146
118	0xbcc968fa	-0.02458619
119	0xbda8be36	-0.08239405
120	0x3d3a3984	0.045465007
121	0xbd9abd4a	-0.07555635
122	0x3d270626	0.040777348
123	0x3da9e732	0.0829605
124	0xbda7ec3b	-0.08199354
125	0x3dbb187e	0.09135531
126	0x3d312996	0.04325255
127	0xbd4dd823	-0.050254952
128	0x3de50d08	0.11184126
129	0x3df2317c	0.11825845
130	0x3df736ac	0.12070975
131	0x3d99acb2	0.07503642
132	0xbc5657c0	-0.013082445
133	0x3d00a2b4	0.031405166
134	0xbda2c1c5	-0.07947115
135	0x3da3d716	0.08000009
136	0x3c3950a1	0.011310727
137	0x3b301b80	0.002687186
138	0x3dc08370	0.0940007
139	0xbd10ec04	-0.035381332
140	0xbd8945a8	-0.06702739
141	0x3db03dce	0.08605538
142	0xbd043fbb	-0.03228734
143	0x3d81a36e	0.0633
144	0xbbc252ee	-0.005930296
145	0xbdbbafbb	-0.09164377
146	0x3c27493c	0.0102103315
147	0x3c8e96c5	0.017405877
148	0xbcf97f00	-0.030456066
149	0x3ca2010c	0.01977589
150	0x3dd76176	0.10516636
151	0x3b49d13b	0.0030794877
152	0x3d877980	0.06614971
153	0xbd690084	-0.056885257
154	0xbd86b9a8	-0.0657838
155	0xbd9a7a46	-0.07542853
156	0x3df3c0c8	0.119020045
157	0xbde0b0d2	-0.10971226
158	0x3dcb483f	0.09925889
159	0x3da92624	0.08259228
160	0x3d265b48	0.040614396
161	0xbd3a5558	-0.045491546
162	0xbda3ed3e	-0.08004235
163	0xbd986804	-0.074417144
164	0x3d3c23ec	0.045932695
165	0xbda0e1c6	-0.07855563
166	0x3d3a469c	0.045477495
167	0x3cd9a320	0.026567042
168	0x3d103d3e	0.035214655
169	0x3de1b936	0.11021654
170	0x3d7709dd	0.06031214
171	0xbd7bd334	-0.061480716
172	0x3b5ce000	0.003370285
173	0xbdaa070f	-0.083021276
174	0xbd90f195	-0.07077328
175	0xbb60169e	-0.0034193168
176	0x3de46032	0.1115116
177	0x3d7c03fb	0.061527234
178	0x3dcd9922	0.100389734
179	0xbde59147	-0.1120935
180	0xbdbe4e02	-0.092922226
181	0x3d4bc7fc	0.049751267
182	0x3d21488b	0.039375823
183	0x3d21f164	0.03953685
184	0xbd41fd78	-0.047360867
185	0xbdacda03	-0.0844002
186	0xbd5cdd1d	-0.053921808
187	0xbd3f5c7e	-0.046719067
188	0xbcdbbe5c	-0.026824169
189	0xbd1c7fec	-0.038207933
190	0xbd4a26bc	-0.049353346
191	0x3d63cb87	0.05561402
192	0x3da1f264	0.079075605
193	0x3dfd0094	0.12353626
194	0x3dc8c5ae	0.098033294
195	0xbd68e040	-0.056854486
196	0x3d8f8050	0.070068955
197	0xbdbeffa4	-0.09326103
198	0x3d5e62c4	0.05429341
199	0xbdacaada	-0.08431025
200	0xbdcc3a4a	-0.09972055
201	0xbd06c5b8	-0.032903403
202	0x3d69a91c	0.05704604
203	0x3d7811e0	0.060563922
204	0xbb988e00	-0.0046555996
205	0x3da551b2	0.08072223
206	0xbdb66950	-0.089068055
207	0x3dba3a8c	0.09093198
208	0xbdc83bf4	-0.0977706
209	0xbde53136	-0.11191027
210	0xbdd2ab14	-0.10286537
211	0xbd9667f8	-0.07344049
212	0x3daba74c	0.08381519
213	0xbdc77a9c	-0.09740183
214	0x3d4fe490	0.050755084
215	0x3dad78e0	0.08470321
216	0xbdaa33d6	-0.08310668
217	0xbdecf06a	-0.11569293
218	0xbdea04f4	-0.11426726
219	0xbdab9c7e	-0.08379458
220	0x3dd4b4ce	0.10386048
221	0xbcca94f8	-0.024729237
222	0x3d61748c	0.05504279
223	0xbda28bbc	-0.079368085
224	0xbde18512	-0.11011709
225	0xbdd8c926	-0.10585241
226	0xbc3f8ff0	-0.011692032
227	0xbd8adb34	-0.06780091
228	0x3d9f2b3a	0.07771917
229	0x3adfa300	0.0017062128
230	0xba164100	-0.00057317317
231	0x3d859f5e	0.065245375
232	0xbdd57f82	-0.10424711
233	0xbcb18ef0	-0.021674603
234	0x3da1464c	0.07874736
235	0xbd206800	-0.039161682
236	0x3db589f6	0.088642046
237	0xbdefd7ec	-0.11711106
238	0x3d66ea2c	0.056375667
239	0x3df4158e	0.11918174
240	0xbab29a80	-0.0013626367
241	0x3d2a6678	0.041601628
242	0x3dc88f76	0.09792988
243	0xbdbdee6c	-0.09273991
244	0x3d6bee8c	0.057600543
245	0xbdc3693e	-0.09541558
246	0x3d23b538	0.039967746
247	0x3bcebe40	0.0063093007
248	0x3d89d868	0.06730729
249	0x3ccad890	0.024761468
250	0x3bbca1c0	0.005756587
251	0x3d285814	0.041099623
252	0xbd467154	-0.048447922
253	0xbda59260	-0.080845594
254	0xbc862088	-0.016372934
255	0x3daa168a	0.0830508

fc2.bias f4 [64]
0	0xbd5dfca0	-0.054196
1	0x3d421fa2	0.04739345
2	0xbd3dd176	-0.046342336
3	0xbdcf5090	-0.10122788
4	0x3d8a33ca	0.06748159
5	0xbdf25ff2	-0.11834706
6	0x3da90020	0.08251977
7	0x3aba2a70	0.0014203321
8	0x3d390994	0.04517515
9	0xbdd3c226	-0.10339765
10	0x3d263609	0.040578876
11	0xbd27bee2	-0.040953524
12	0x3cfd1404	0.030893333
13	0xbdd8fd70	-0.10595214
14	0x3d147254	0.036241844
15	0xbd00feb5	-0.031492908
16	0x3df1adbc	0.11800715
17	0x3cc2b615	0.023768464
18	0xbdd36307	-0.10321622
19	0xbdc67cc2	-0.096917644
20	0xbd56dd78	-0.052457303
21	0xbd831796	-0.06400983
22	0x3c164627	0.009171999
23	0x3d8b9959	0.06816358
24	0x3d29eb65	0.041484255
25	0xbdb87e12	-0.09008421
26	0xbd0baa46	-0.034097932
27	0xbddf375a	-0.10899229
28	0xbd3c1e60	-0.045927405
29	0xbdd4af5c	-0.1038501
30	0x3d674208	0.056459457
31	0x3da02123	0.0781882
32	0x3d44b77c	0.048026547
33	0x3d5c886e	0.053841047
34	0xbd8d399a	-0.06895752
35	0xbd393e12	-0.04522521
36	0x3dc40158	0.09570569
37	0xbdcf9972	-0.10136689
38	0xbd7be4b1	-0.061497394
39	0xbdd51c37	-0.10405772
40	0xbc6c73c3	-0.014431897
41	0x3d4a7bb8	0.049434394
42	0xbc206838	-0.009790473
43	0xbd191a36	-0.037378512
44	0x3dd2f0f5	0.10299865
45	0xbc6f83b2	-0.014618801
46	0x3dd8f179	0.10592932
47	0x3d08e267	0.03341904
48	0xbd120998	-0.03565368
49	0xbd9095e4	-0.07059839
50	0x3d8d31c8	0.06894261
51	0x3da827cf	0.08210718
52	0x3d2ef5f7	0.04271504
53	0xbd18858b	-0.03723673
54	0x3cfb9fe0	0.030715883
55	0xbd138639	-0.036016677
56	0xbbfea851	-0.0077715297
57	0x3d992ad8	0.07478875
58	0xbdaa9f21	-0.08331133
59	0xbd9559dc	-0.0729253
60	0xbc8d6dd2	-0.01726428
61	0x3ccc1f6c	0.024917327
62	0x3af85022	0.001894478
63	0x3da79d14	0.08184257

fc3.weight f4 [1, 64]
0	0xbde01ffa	-0.10943599
1	0x3d99353f	0.07480859
2	0x3d370ca1	0.04468978
3	0xbd07f270	-0.03319019
4	0x3cbb2db6	0.022848945
5	0xbd52cc40	-0.05146432
6	0xbcd3abdd	-0.025838787
7	0xbb92efe0	-0.0044841617
8	0x3bdaf9dc	0.0066826176
9	0xbd8dd872	-0.06926049
10	0x3df630da	0.120210364
11	0x3d5b7288	0.053576022
12	0x3dd95465	0.106118
13	0x3ded72ba	0.11594148
14	0xbd384816	-0.04499062
15	0xbd842d04	-0.064538985
16	0xbdcf6980	-0.101275444
17	0xbde79509	-0.11307723
18	0x3baa51e0	0.0051977485
19	0x3ddca9d6	0.10774581
20	0x3d727a28	0.05919853
21	0xbdc34ba7	-0.09535914
22	0x3dd9902a	0.106232
23	0xbc760d09	-0.015017756
24	0x3d5c2151	0.05374271
25	0x3dc44dea	0.095851734
26	0xbe013fd6	-0.12622008
27	0xbb1ce080	-0.0023937523
28	0x3d172278	0.036898106
29	0xbd237c40	-0.039913416
30	0xbda8e92a	-0.082475975
31	0x3df17929	0.117906876
32	0x3d40a4b3	0.04703207
33	0xbd0b0d08	-0.033947974
34	0x3d95f6fb	0.073224984
35	0x3da78235	0.08179132
36	0xbdf6a442	-0.120430484
37	0x3d3c06c4	0.04590489
38	0xbd984ebe	-0.07436894
39	0x3dbd3ac7	0.092397265
40	0xbd2ebfbc	-0.04266332
41	0xbdd472c8	-0.10373455
42	0x3dd0bf8f	0.10192787
43	0x3cc51ef5	0.024062613
44	0xbd991a8a	-0.07475765
45	0xbc92c0b0	-0.017914146
46	0xbde55a2e	-0.11198841
47	0x3d850fce	0.06497155
48	0x3dee0ace	0.116231546
49	0x3da63f84	0.081175834
50	0xbde1bfac	-0.11022887
51	0x3db2cfb8	0.087310255
52	0x38d26326	0.00010032048
53	0x3d66a484	0.056309238
54	0xbd91caae	-0.07118736
55	0x3ca84846	0.020542275
56	0xbcff9149	-0.031197207
57	0xbdc7fc6f	-0.09764945
58	0x3df47b2d	0.119375564
59	0xbd6f6a24	-0.058450833
60	0xbc074028	-0.008255042
61	0xbe030908	-0.12796414
62	0xbdb50290	-0.088383794
63	0x3dd869f6	0.105670854
