public/api/rubella_model.pth (torch, 20612 bytes, 5 tensors)

fc1.weight f4 [64, 3]
00000000: 401e cd3e e4b3 0f3f 0a26 ebbe 34f4 993e
00000010: 5be6 983e 6fc0 10be cc27 5d3e 3012 cc3d
00000020: db3b a33d 5089 8fbe f3a2 0abf 25f9 b2bd
00000030: fd71 96be 55f6 8f3e 7fc9 1bbe 4fa5 b03e
00000040: 6607 c5be edeb a9bc fc44 7fbd f2fd 063e
00000050: 4bbf 443d c3ff d3be 0656 d4be 5fc3 a03e
00000060: f1a2 7f3e 0c31 a43d 2748 ff3d 2c8d a73e
00000070: d063 93be d38e 0d3f 80bd e939 bb88 febd
00000080: e0ff c4be 6140 0c3f b05e 833d c8a1 f63e
00000090: 9333 52be 5bce 0c3f c8a5 c33d 3abb a33e
000000a0: cb63 ed3e 4181 d6be b6a9 763d 1bf1 b3bd
000000b0: 7cd2 cd3e 1167 a8be 3bad a0be 17bc 073f
000000c0: d378 253e a982 8fbd 7766 e4be cb60 913c
000000d0: ddfe df3d 93a2 d63e 44a6 753d c945 c53e
000000e0: 3377 013f 39ba bebe e9da ff3e c903 d03c
000000f0: b7d0 c63e 21a0 f0be 5d76 193e d782 783e
00000100: 1579 4a3e 9d6a 7ebe 5d28 003d 389d 323e
00000110: 4218 bd3e ad16 babe 7cd0 8a3c 148b c03e
00000120: 9ad0 13bd 692c 9bbc 38b3 f6bc 354b 87be
00000130: 11d2 06bf db2a 0ebf 9b78 713c f2cd 5abc
00000140: 3786 bd3e 0daf 57be d4b4 f43e 6376 ce3e
00000150: e6b4 183c 4208 743e a542 e2be 0826 0d3f
00000160: 9840 cfbe 1643 09bf 13ed 1a3c 214a 27be
00000170: 1ac6 173e 724b 293d 0625 a8be d114 dd3e
00000180: 3444 aa3e bd73 63be 4939 ffbd 3825 fcbe
00000190: a6f4 88be efa8 c4be 580e 8dbe 0e58 243e
000001a0: 2709 38bd 5178 a03e dcff 383e 67ad 703e
000001b0: 37ce 103f 307c 89bd 3877 a1be d1c5 e73d
000001c0: 7ed1 9d3e d852 a7bd 9e86 ad3e b7f1 fa3e
000001d0: d510 ddbd acf1 bebe 384e cdbc 84d7 0a3f
000001e0: 183f 1cbe f3ed 0ebf 75ad b63e 4947 96be
000001f0: 79f9 4dbe 753e c3be 6130 ff3e 593e 973e
00000200: 228f b7be cd5a 973d 1044 ec3e ab27 d4be
00000210: d39e 84be 8149 bf3d b721 dbbc 263a 403e
00000220: 8923 00be 5a72 f33e 84b3 f6be 33d0 a7be
00000230: 7139 f63d be6c 053e 0942 d63e 9a8a f13e
00000240: 2e0f bbbe 8b73 05bf e425 823e 39a1 12bf
00000250: fe0d efbd bb78 d63e 6065 00bf 3c8f ef3e
00000260: d45e bbbe 9ac1 a1be bf08 e4be 0ffc 0b3f
00000270: 1f4f 47be f700 dc3e 6d85 723e 9372 11bf
00000280: caee 933e 52fe 1c3e 865e 80be 6192 9c3e
00000290: d744 5b3d b180 04bf fbbe 0dbf a68f 093f
000002a0: 1c18 023f cee1 14bf aa66 0d3f 6df7 083f
000002b0: b1c1 09bf 3a66 c53c 418d 05bf bded 0dbe
000002c0: 7922 9abd 946a 05b9 2d01 983e 8832 073e
000002d0: 8430 9d3e 1976 56be 14e1 053f d4e7 ca3e
000002e0: c1e2 0c3f 879e ab3e 1187 5ebd 3012 763e
000002f0: 4373 a13e 4351 c4be ae57 b3be c2fa 103f
0.4006214 0.56133866 -0.4592746 0.30069125 0.29863247 -0.14135908 0.21597213 0.099644065
0.07970401 -0.2803445 -0.5415489 -0.08738927 -0.2938384 0.28117624 -0.15213583 0.3450112
-0.38482207 -0.020742381 -0.062321648 0.1318281 0.048033994 -0.41406068 -0.4147188 0.31399056
0.24964501 0.080171674 0.12464934 0.32724893 -0.28787088 0.5529606 0.00044582412 -0.12428423
-0.38476467 0.54785734 0.064145446 0.48170304 -0.20527487 0.55002373 0.09553105 0.3197878
0.46365198 -0.41895488 0.060220443 -0.087862216 0.4019965 -0.32891133 -0.31382164 0.5302138
0.16159372 -0.07007343 -0.44609424 0.01774635 0.10937283 0.4192091 0.059973016 0.38529804
0.5057251 -0.37251452 0.49971703 0.02539243 0.38831112 -0.4699717 0.14986558 0.24268661
0.19772752 -0.24845357 0.031288493 0.17442787 0.3693257 -0.36345425 0.016945116 0.37606108
-0.03608761 -0.018942075 -0.030114755 -0.26424566 -0.52664286 -0.5553414 0.014738227 -0.013354765
0.3701646 -0.2106287 0.4779421 0.40324697 0.009320473 0.23831275 -0.4419147 0.55136156
-0.4047897 -0.5361799 0.009455937 -0.16336872 0.14821663 0.041331716 -0.32840747 0.43179944
0.3325516 -0.2221212 -0.12462098 -0.49247146 -0.26749152 -0.38410136 -0.27550006 0.16049215
-0.044930603 0.31341794 0.18066353 0.23503648 0.5656466 -0.0671314 -0.3153627 0.11317027
0.30823892 -0.08170098 0.33891767 0.4901254 -0.10794226 -0.37293756 -0.025061712 0.542351
-0.15258443 -0.5583183 0.35679212 -0.2935126 -0.20114698 -0.38133588 0.49841598 0.29539755
-0.3585139 0.07390366 0.46145678 -0.41436514 -0.25902423 0.09340192 -0.026749475 0.18772182
-0.12513556 0.4754818 -0.48183835 -0.3277603 0.12022675 0.13029763 0.41847256 0.47176057
-0.3653502 -0.5212943 0.25419533 -0.57277256 -0.11672591 0.41888985 -0.50154686 0.46788967
-0.36595786 -0.3159302 -0.44537923 0.54681486 -0.19463776 0.42969486 0.2368371 -0.5681545
0.2889312 0.1533139 -0.25072116 0.30580428 0.053532448 -0.5175887 -0.5536954 0.53734815
0.5081804 -0.5815705 0.5523478 0.5350254 -0.53811175 0.024096597 -0.5216866 -0.13860221
-0.075261064 -0.00012723572 0.29688397 0.1320287 0.30701077 -0.20943488 0.52296567 0.39629996
0.550335 0.33519384 -0.054328028 0.24030375 0.3153325 -0.38343248 -0.35027832 0.56632626

fc1.bias f4 [64]
00000000: 9634 593d 5b81 05bf f63b efbe e4a2 9ebd
00000010: 1883 eebe abcd e43e fbdf 1cbe b795 3a3e
00000020: d597 10bf 8d23 0a3f 66fd 893d d19d 4cbc
00000030: cb5a 033f 7f27 f93d 8765 e9bd 3c37 07bd
00000040: 89b2 febd 7248 803e ac97 fcbe b912 31be
00000050: 87f0 afbd 5629 e3be 25ff d9be 7827 0cbf
00000060: 42b7 423e ece8 7bbe 0a6a c7be 7229 373c
00000070: 067c f13d 8b15 503e baf3 9ebe 62ed 0ebf
00000080: 0f2d e3be f840 e0bd 09cc 2abe 904b e73c
00000090: 3996 f83e 920f 11bf 25ab 2fbe 1ee1 fe3d
000000a0: fa7b 543e 0184 dfbe b434 b53e 9cbb c6bd
000000b0: 6d1c 0e3f f2c3 a3be 15b0 6dbe 1536 8c3d
000000c0: d8c9 87be 08fb 103f d7de f3be 25d0 91be
000000d0: e110 e33e 8648 9f3e 5765 093f f085 103e
000000e0: 3a24 89be 74c3 19be 124f 883e d53b 943c
000000f0: ce52 d1be 4058 2bbe 1b73 143f 1de0 833d
0.053028665 -0.52150506 -0.46725434 -0.07745913 -0.46584392 0.44688162 -0.15319817 0.18221174
-0.5648168 0.53960496 0.06737785 -0.012488798 0.51310414 0.121657364 -0.11396318 -0.03301166
-0.12436397 0.2505527 -0.49334466 -0.17292298 -0.08590799 -0.44367474 -0.42577472 -0.54747725
0.1901522 -0.24600571 -0.3894809 0.011179315 0.11791234 0.20320718 -0.31045324 -0.5583097
-0.44370314 -0.10949892 -0.16679396 0.028234273 0.4855211 -0.56664383 -0.1715513 0.124452814
0.20750418 -0.43655398 0.35391772 -0.097037524 0.55512124 -0.31985432 -0.23211701 0.06846253
-0.26521182 0.56633043 -0.4763095 -0.28479114 0.44348815 0.31110018 0.5367026 0.14113593
-0.2678545 -0.15015966 0.26622826 0.018094936 -0.40883487 -0.16732883 0.57988137 0.064392306

fc2.weight f4 [64, 64]
00000000: b4d9 49bd e0cf b1bb 886d 183d c0a9 273b
00000010: a0b9 f2bb 6063 223d 2081 a2bc f846 fb3c
00000020: d00a 09bc 20a9 b9bd acdc bb3d 2423 19bd
00000030: 8eae b6bd 6cb7 533d fc60 733d 0230 e4bd
00000040: 8034 663c 3240 cb3d c08f a0bb 78a7 30bd
00000050: 9840 a8bc 9834 f1bd 9043 59bd 4876 893d
00000060: 947f 573d 04a8 2f3d 18db da3c 98a3 133d
00000070: 9811 5c3d b6c5 babd 6699 a8bd 80c3 f83b
00000080: 98cf 8ebc 80e7 223d 980d 0bbd 1cbc bb3d
00000090: dca9 b7bd e4f2 5c3d 30d1 1cbd 5ce9 ffbd
000000a0: 5a12 9b3d 204e bcbd 2820 223d 582e bb3c
000000b0: 5c32 733d 2280 8dbd b4be c13d f02c 563c
000000c0: 9089 3b3c e0f5 5bbc 9477 62bd 9861 d53d
000000d0: 98a8 253d 20b9 973d 7886 5abd 4cca 9ebd
000000e0: 209a 8c3b c807 4f3d 0065 ca3b 80d1 6c3d
000000f0: 6a7f c1bd 2646 b03d f866 e2bc 0084 3bba
00000100: c279 fe3d 58dc e03d 30fc 073d 7087 ffbd
00000110: cc0e 033d d426 d43d 11cc 7ebd 5eb9 e63c
00000120: d454 75bd 1cec 8b3c 3827 ee3d 8928 853d
00000130: b392 383c dfea 38bd 535c 183d df9d f13d
00000140: ff11 c33d ba42 143d 83ce b13c 7c78 dfbd
00000150: 94aa a13c 2a4f c23d 5abc e73d 68cd ea3d
00000160: 04c9 c23d b050 d3bd 0074 8b3a d735 7f3d
00000170: e045 93bd fd2a 473c 4845 883c 4caf eb3d
00000180: 589f acbd 24f2 d73d 4472 143d 4505 1ebd
00000190: 6c16 aabd 062e e7bd 6df8 a93d fdd2 003d
000001a0: 73c8 f13d 687b 92bc cace 893d 9f2d 863d
000001b0: 4fe2 0dbd 9542 663d 40dc 683c ad7a cabd
000001c0: 10e2 e73d 8337 d93d eeba bfbd 5635 5e3b
000001d0: b9c6 edbd d443 0e3d e97d ac3d 0dbd d83c
000001e0: 1079 a6bc 0c9f a7bd ccb9 00be f135 033c
000001f0: 3039 bd3c 62cc e93d eb26 49bd 4c01 a3bd
00000200: d832 a4bc dcf5 8d3d 789c e73d 6caf e73d
00000210: d087 e1bd e68a ffbd 906f d0bd 46af df3d
00000220: 5276 c6bd 7cbb d0bd c0b5 4ebd 8e73 b0bd
00000230: 7269 d93d 90a8 d53c 5a1d fdbd 7a35 c5bd
00000240: 3ae0 9b3d 72ab b93d f4d8 433d 783b 78bd
00000250: c042 c03c 2004 5b3c d09d 8d3d 5eee cdbd
00000260: 3ca0 8ebd 00ef 20bc c8bf 51bd e8a3 91bc
00000270: ba0a 8d3d c081 da3d 0005 aaba 2ccb 753d
00000280: 8038 a2bb 30c3 a83d 8460 cebd 566a 8dbd
00000290: 460c 823d 40a6 4c3d 1054 633d 20fa db3b
000002a0: 3e22 ebbd 2e31 843d 202e 26bd 240a 583d
000002b0: 0012 b8ba c87a e63d 94a9 23bd c65f e4bd
000002c0: 4a07 babd 0e99 c73d 2c40 6ebd 58c8 c3bc
000002d0: b016 153c 10a1 cdbc 809b dd3a 18a1 31bd
000002e0: d8d1 4a3d d2ad d83d ae02 b3bd 76f1 bfbd
000002f0: 0c5a 723d 72c4 f53d bef6 83bd 7ccf e73d
00000300: d0a4 29bc 60be 8bbc d2a5 eebd 207b 8a3d
00000310: a88d 493d 0034 ba3d 8cb8 04bd 1668 c03d
00000320: 9a0a b5bd a8f2 81bd 148e 4e3d bc88 b9bd
00000330: 70ef 743d bc6e a7bd 101c b93d a4fc b43d
00000340: e4ec 5a3d 886b 223d f091 94bc 88c9 553d
00000350: 68cf 19bd 0eda c53d 8088 7e3d d068 61bd
00000360: 523b 893d d8da b63d aee9 ac3d 1819 713d
00000370: 0028 0bbc 9c2d c4bd 08c9 b8bc 7cff 49bd
00000380: 8014 9d3a 98da d73d eceb e03d 1c70 f1bd
00000390: 0455 063d 602d c63d 2877 04bd bc9d f5bd
000003a0: 5469 ebbd 0a83 aebd 0048 a6bb 8092 37bb
000003b0: 2803 18bd 1085 5e3d 5071 4d3d d0f7 89bc
000003c0: cef1 e2bd 0cc7 44bd 8e63 ee3d 9c6f cebd
000003d0: 188a b63c a8dd 093d b0ee 23bc 0486 d1bd
000003e0: e831 bdbc d014 fe3d 868a 86bd f83a f2bd
000003f0: 2238 983d 1489 a5bd 2e8b f63d f290 d93d
-0.049279884 -0.005426392 0.037213832 0.0025583357 -0.007407382 0.039645553 -0.019836962 0.030673489
-0.008364394 -0.09065461 0.09172949 -0.03738703 -0.089200124 0.051688597 0.059418663 -0.11141969
0.014050603 0.09924354 -0.004899949 -0.04312846 -0.020538613 -0.117776096 -0.05304295 0.067120135
0.052611902 0.04288484 0.0267158 0.036044687 0.053727716 -0.091197416 -0.082323834 0.007591665
-0.017432973 0.039771557 -0.03394851 0.091667384 -0.08967945 0.053942576 -0.038285434 -0.12495682
0.0757186 -0.09194589 0.039581448 0.022849247 0.0593742 -0.06909205 0.09460202 0.013072237
0.011446372 -0.01342532 -0.05528982 0.10419005 0.040443987 0.07408357 -0.053350896 -0.07753429
0.004290834 0.05054453 0.006176591 0.057816982 -0.094481304 0.0860713 -0.02763699 -0.00071531534
0.12425567 0.10979527 0.03319949 -0.124770045 0.031996533 0.103589684 -0.06220633 0.028164562
-0.05989535 0.01708036 0.11628574 0.06501872 0.011265445 -0.045145866 0.037197422 0.1179769
0.09524917 0.036196448 0.021704918 -0.109116524 0.019734658 0.094877556 0.11315222 0.114649594
0.09510997 -0.10318124 0.0010639429 0.062307205 -0.07191062 0.012156245 0.016634598 0.115080446
-0.0842883 0.105442315 0.036241785 -0.038579244 -0.08305058 -0.11288075 0.082993366 0.031451214
0.11805811 -0.01788111 0.06728895 0.0655167 -0.034639653 0.05621584 0.014212668 -0.0988668
0.11322415 0.10606291 -0.09361826 0.0033906302 -0.11610169 0.034732655 0.08422453 0.026457334
-0.020321399 -0.08184633 -0.12570876 0.008008466 0.023098558 0.11415936 -0.04910938 -0.07959232
-0.020043775 0.069316596 0.11309141 0.11312756 -0.11012232 -0.12477665 -0.10177529 0.10922103
-0.096905366 -0.1019201 -0.0504663 -0.0861579 0.10615815 0.026081353 -0.12359114 -0.096293405
0.07611127 0.09065904 0.047814324 -0.06060359 0.023469329 0.013367683 0.06914866 -0.100552306
-0.06964156 -0.009822607 -0.051208287 -0.017778352 0.068868116 0.10669279 -0.0012971461 0.060008213
-0.004950583 0.08240354 -0.10077003 -0.069050476 0.06349997 0.049963236 0.05550009 0.006713167
-0.114811406 0.06454693 -0.040571332 0.052744046 -0.001404345 0.112538874 -0.039956644 -0.1115108
-0.090834215 0.0974599 -0.058166668 -0.023899242 0.009099647 -0.025101215 0.0016907305 -0.04336652
0.04951653 0.105800286 -0.087407455 -0.09372227 0.059167907 0.120003596 -0.06443547 0.113188714
-0.010354236 -0.017058551 -0.116527215 0.067617655 0.04920736 0.090919495 -0.03240256 0.09394853
-0.08839913 -0.06345111 0.050428465 -0.09059283 0.059798658 -0.08175418 0.090385556 0.0883725
0.053448573 0.03965333 -0.018135995 0.05219415 -0.037551314 0.09660731 0.062141895 -0.055031598
0.067007676 0.0892846 0.08443008 0.058861822 -0.008493423 -0.09579012 -0.022556797 -0.049315915
0.0011984259 0.1053974 0.109824985 -0.11788961 0.03279592 0.09676623 -0.0323402 -0.11992976
-0.11494699 -0.085210875 -0.005074501 -0.0028010905 -0.037112385 0.054326117 0.05015689 -0.016841799
-0.11081277 -0.04804139 0.11640082 -0.100798815 0.022282645 0.033658653 -0.010005638 -0.102306396
-0.023095086 0.124063134 -0.0656939 -0.11827654 0.074325815 -0.08082786 0.12038265 0.10623349

fc2.bias f4 [64]
00000000: c4f4 95bd 5155 c43d 7c78 a2bd 94cc e7bd
00000010: 9925 e13d 707c c93c 2828 a9bc a875 c93d
00000020: a1a5 c93d 51ee 36bd 9edc e53c 621c 9bbd
00000030: 746d eebd 8d21 b33d bc00 ac3c 67e1 893d
00000040: cc00 ef3d 9fff 7fbc c0f2 43bb 5034 0ebd
00000050: 529a fc3d 3b31 c93d f9c6 bf3b 9cfe 7f3d
00000060: e2a4 d73d 4675 d9bd c84f 0b3d c15a e33d
00000070: 9576 35bc 10e3 1e3d 4429 b2bd f1a6 973d
00000080: ffd5 95bc 5a42 e33d 40e4 d5bd 5c05 603b
00000090: c304 9c3d f07f 57bd 9b61 a43d de1f debd
000000a0: ab4a 0abd 9890 a1bb 7f79 cb3c 903c e33c
000000b0: f919 3cbc 3acc 753c 6d18 a73d 24ad 333d
000000c0: b202 79bc d8b5 22bc d99d 4c3d 20cb f63c
000000d0: c8ef f13d 1f60 e1bd 4075 98bd a7ac 5bbd
000000e0: 04dc bc3d ee79 973d 84b8 33bd 19f2 8b3c
000000f0: d1e7 913d f8cd a93c 080f 533d 7212 d1bd
-0.07322076 0.09586585 -0.07933137 -0.11318317 0.10993499 0.02459547 -0.02064903 0.09836894
0.09846044 -0.04466087 0.0280593 -0.07573773 -0.1164197 0.08746634 0.020996444 0.06732445
0.11670074 -0.01562491 -0.002989933 -0.034717858 0.12334122 0.09823843 0.005852577 0.062498674
0.10529496 -0.10618071 0.034011632 0.11101294 -0.011075635 0.038790762 -0.08699277 0.074048884
-0.018290518 0.1109664 -0.10443926 0.0034182882 0.07618096 -0.052612245 0.08026429 -0.10845922
-0.033762615 -0.004930567 0.024838207 0.02773884 -0.011480802 0.015002305 0.08158956 0.04386629
-0.0151983965 -0.00993105 0.049955223 0.030126154 0.11813313 -0.11004662 -0.07444239 -0.05363145
0.09221652 0.07396303 -0.04387714 0.017083215 0.071242936 0.020728096 0.051528007 -0.10208596

fc3.weight f4 [1, 64]
00000000: dcfc 9bbd cdb5 57bd 08da 4b3d 925c 93bd
00000010: 53c5 8cbd 10cb 873d caf4 313d 42af 55bd
00000020: e380 873d d306 93bc 6143 5f3d 009a 31ba
00000030: 462b 933d 9447 43bd ba9c bb3c d68c 55bc
00000040: 90f8 e33d a63f ca3d 16c5 b1bd ba6b 1bbd
00000050: 8665 4e3c 58bb 413c 0767 e2bc d4fa 063c
00000060: 1b77 50bc 0042 73bd 6eb9 adbc 25de a13d
00000070: 5c2e 23bd c1c7 633d e66b 89bd b5a1 91bc
00000080: 1fbb 85bd 3f57 aa3c f8d3 de3d 725a 1a3d
00000090: 0619 813d ac00 49bc e843 38bd 924b e6bd
000000a0: f71b 173d 9740 74bd 9d5b 8a3b 002f 863c
000000b0: 3338 a53d d77d f1bd 84e4 adbd b087 00bd
000000c0: e29d bf3c 341b 503c fb81 04bd 2aa6 5abb
000000d0: 88d0 9ebd 6fa5 c03d f968 ea3d 5d56 d4bd
000000e0: f5de 56bd 42d0 91bd 74c1 9fbd ef74 c7bd
000000f0: 6731 163d ae28 cbbd bc79 483c 1eaa 953d
-0.076165885 -0.052663613 0.049768478 -0.07195391 -0.06873574 0.06630528 0.04344634 -0.052169092
0.0661638 -0.01794759 0.054507617 -0.0006774962 0.07185988 -0.047675684 0.022901881 -0.013034066
0.11131394 0.09875421 -0.08680169 -0.037944533 0.012597447 0.011824451 -0.027637018 0.008238513
-0.012723709 -0.059389114 -0.021206584 0.07903699 -0.039839134 0.055610422 -0.06710033 -0.017777303
-0.06529831 0.020793555 0.108802736 0.03768391 0.06303601 -0.012268227 -0.044986635 -0.11244883
0.036891904 -0.05963191 0.004222347 0.016379833 0.0806736 -0.1179158 -0.084908515 -0.0313794
0.023390714 0.012701798 -0.03235052 -0.0033363202 -0.07754618 0.09406554 0.11445803 -0.10368035
-0.052458722 -0.071198 -0.0780057 -0.097391 0.036668207 -0.099198684 0.012236055 0.07307838
