public/api/smallpox_model.pth (torch, 20622 bytes, 5 tensors)

fc1.weight f4 [64, 3]
000000 8b d8 49 3e 5d f6 39 bd ed 8a c8 be 9b 12 a8 be
       0.19711511 -0.045400966 -0.39168492 -0.32826695
000010 5d 9d 4c 3e b1 13 ec bd 45 1e ca be c6 d6 08 3f
       0.19981904 -0.11527193 -0.3947622 0.5345272
000020 36 26 4e be eb 2e e0 3e cd 1d 4d 3d bd 44 13 3d
       -0.20131764 0.43785796 0.05007725 0.035954226
000030 ca a5 bf 3e 72 0e 11 3e 6c 73 6a 3e 83 05 d1 be
       0.37431175 0.14165667 0.22895592 -0.40824518
000040 d0 33 c7 3e a3 12 54 be bd 2f bb be 94 f3 3f be
       0.38906717 -0.20710234 -0.3655986 -0.18745261
000050 ab 5d db be f0 4c f1 bd 1f 95 f0 3e 62 48 57 3d
       -0.428449 -0.11782253 0.4698877 0.052559264
000060 56 f9 be bd e0 ab 08 3f 37 dd e4 bc 3b 1c c3 3e
       -0.09324901 0.5338726 -0.027937515 0.38107476
000070 b0 e3 d5 be a8 99 1e 3e 52 44 90 be 6d 8b 3b be
       -0.41775274 0.15488303 -0.28177124 -0.18314905
000080 e8 49 d4 be d4 0f 12 bf 02 d9 94 3e 63 41 8f be
       -0.41462636 -0.570554 0.29071814 -0.27979574
000090 80 1c 09 bf d9 9b 09 3f 09 f1 c8 3d 98 7c 1f be
       -0.5355911 0.5375343 0.09811599 -0.15574872
0000a0 20 42 a7 3e 85 87 1b 3d 5c 3d 83 be 4d c9 ed be
       0.32667637 0.03797104 -0.2563275 -0.46442643
0000b0 a5 72 de be eb 81 b7 bd 81 4f a7 be f1 0d 7e be
       -0.43446842 -0.08960327 -0.32677844 -0.24810006
0000c0 fa 38 42 be b6 c4 81 be bc bd e7 3e 2f 62 5f 3d
       -0.18967047 -0.2534539 0.45261943 0.054536995
0000d0 84 6f 7a be 6b aa a6 3e 3e 07 fb be c2 96 a0 bd
       -0.24456602 0.32551894 -0.49028963 -0.07841255
0000e0 63 3f ea be 97 51 34 be 31 de bf be 72 7d 7b be
       -0.45751485 -0.17609249 -0.37474206 -0.24559572
0000f0 3c 25 79 3e db f6 f3 be dc ed d7 bd 97 c5 db be
       0.2433061 -0.47649273 -0.10543415 -0.42924187
000100 fe 6a ae 3e 87 7f e4 3e 46 fe 04 bf 55 c7 27 3d
       0.34066004 0.44628546 -0.5195049 0.040961582
000110 d8 f3 eb 3e ca f9 06 3f 17 a2 86 3e d9 b3 ad be
       0.46084476 0.527249 0.2629554 -0.33926275
000120 50 87 f5 be f0 d4 02 be 16 f8 57 be 49 4b d5 3e
       -0.47954798 -0.12776542 -0.21090731 0.41659
000130 ce 2f 06 3f b5 c6 aa 3e 77 0f 1e be 07 5d 7d be
       0.52416694 0.33354726 -0.15435587 -0.24742518
000140 eb c3 a1 3e c5 b8 8c be 9a 17 00 3f ae e6 c0 bd
       0.31594786 -0.27484718 0.50036013 -0.09418999
000150 66 41 17 3e 90 76 68 be 40 a4 b5 3e ad 23 ec 3d
       0.14771041 -0.22701478 0.35476875 0.11530242
000160 57 56 70 be ea dc 95 be 08 ed 4c 3e a2 87 04 3f
       -0.23470436 -0.29270107 0.20012295 0.5176946
000170 37 95 25 3e b9 2d f4 be 8c aa de 3d 07 0a 90 be
       0.16170202 -0.47691134 0.10872373 -0.2813265
000180 99 a7 d1 3e 70 9b 76 bb 73 f4 03 bf 9f 66 0e 3e
       0.4094818 -0.003762927 -0.51544875 0.13906334
000190 ad 6c 3a be ce 7a 00 bf 17 4b 7c 3d b4 3e 86 3e
       -0.18205519 -0.50187385 0.06159505 0.26219714
0001a0 07 61 61 3e cd 7d 50 be c8 00 0c be cb 01 b1 3e
       0.22009669 -0.20360489 -0.13672173 0.3457168
0001b0 0b d2 a2 be b1 bc ba 3e dc 49 0c 3f 1c d5 5c be
       -0.31800875 0.36472085 0.548002 -0.2156567
0001c0 6b 0e e9 bd 0a b6 95 3d e5 00 80 be bd 9d 48 3e
       -0.11379703 0.07310112 -0.25000682 0.19591422
0001d0 6c 36 79 3d 2d 48 6d 3b 50 b0 92 be ec 8f c7 3d
       0.060842916 0.003620635 -0.2865014 0.09744248
0001e0 d6 c3 58 bd a8 c5 e3 3e 98 0f c8 be ba 30 e0 bd
       -0.05292114 0.44486737 -0.39074397 -0.10946794
0001f0 bb 0f 58 3e 8c 20 87 be f9 3b 80 3e 7c e5 0b bf
       0.2109975 -0.2639202 0.25045756 -0.5464704
000200 4d 21 90 be 08 8d 79 bd 0b 8d d9 be 29 83 a9 be
       -0.28150406 -0.060925514 -0.4249042 -0.3310788
000210 5b 91 2b be 9b 0c ea 3e 64 5d 0b 3f 2c 97 c7 3e
       -0.16754667 0.45712742 0.5443938 0.38982522
000220 79 5b 7d 3e 47 42 24 be a1 7b d0 3d 8b dd 80 3e
       0.24741925 -0.16040908 0.1017983 0.25169024
000230 c1 45 51 be 62 cc e7 be aa 80 ed be 44 c4 dd 3e
       -0.20436765 -0.4527312 -0.46387225 0.433138
000240 05 65 b2 3e d2 6e 33 bd ea 4e 80 be fe f8 81 3d
       0.34842697 -0.04380686 -0.25060207 0.063463196
000250 c5 b8 d8 be 0b 3c 5f 3e b9 c4 a3 bc f7 c4 af be
       -0.42328468 0.21800248 -0.019991266 -0.3432996
000260 58 85 85 be 04 3f 5c bd bb d2 0a 3f fe 96 e1 be
       -0.26078296 -0.053771034 0.542278 -0.4406051
000270 18 c4 0e be aa 6e 43 3e e4 f2 07 bf d1 04 b0 3e
       -0.13941991 0.19085184 -0.53104997 0.34378675
000280 42 f4 c9 3e 18 6c f6 be 7d ea 23 3e 75 ab 41 3e
       0.39444166 -0.48129344 0.16007419 0.18913062
000290 c6 50 35 3e 10 03 db bc 04 1c 90 3e 5d bb c6 3e
       0.17706594 -0.026734859 0.28146374 0.38814822
0002a0 c0 3c 03 be a4 1a e4 3e 93 39 0a bf f5 68 08 be
       -0.12816143 0.44551575 -0.539941 -0.13321288
0002b0 a3 f8 ee be 2f f7 6c 3e 81 13 01 bf bf e3 9c bd
       -0.4667407 0.23141168 -0.50420386 -0.076606266
0002c0 23 7a fc be 0f f5 f1 be 3e e4 3c bd 8c 0f eb 3e
       -0.49311933 -0.47257277 -0.046116106 0.459103
0002d0 18 a2 b3 bd e4 bd ba be 54 87 c1 bd 53 0f 05 3e
       -0.08771151 -0.36473 -0.0944964 0.12994127
0002e0 02 c5 04 be db ae 3c 3c 1e ff fe 3e d3 bb 5a 3e
       -0.12965778 0.011516298 0.49804014 0.21360712
0002f0 43 b6 ac 3e 0f 54 11 be 30 00 f5 3e b3 e3 6f 3e
       0.33732805 -0.14192222 0.47851706 0.23426704

fc1.bias f4 [64]
000000 70 28 31 3e dd 7b 9f bd 99 a1 65 3d 41 8b 8d bc
       0.17300582 -0.07787297 0.056062315 -0.017278315
000010 50 28 0c bf bd 63 27 3e 33 25 13 be 34 5b 75 3e
       -0.5474901 0.16346641 -0.14369659 0.23960572
000020 84 f5 ed be 02 1c 22 3e fa f0 8e 3e 58 39 d5 be
       -0.46476376 0.15830997 0.27918226 -0.41645312
000030 7c 8c 9f 3e 9e ff 45 3d f9 23 fa 3d 37 82 b4 3e
       0.3116187 0.04833948 0.122138925 0.35255596
000040 60 60 2c 3e 2f e0 a3 be a8 0b 0a 3f 9b c6 af bd
       0.16833639 -0.32006976 0.53924036 -0.08582803
000050 fa 70 08 bf d0 6c 11 3f 2a dd f0 3e 5e 97 01 3f
       -0.5329739 0.5680666 0.47043735 0.50621593
000060 f1 43 f3 3e 46 26 62 be 22 d4 92 3e 24 9a af be
       0.47512773 -0.22084913 0.2867747 -0.34297287
000070 d3 98 4f be e7 fc 6c be d0 d1 07 bd f9 40 1b be
       -0.20273142 -0.2314335 -0.033159077 -0.15161504
000080 d0 b9 aa 3e 09 5f 2a 3e 2a d1 b1 be 39 94 df 3e
       0.3334489 0.16637816 -0.34729892 0.43667772
000090 58 6d 88 3e a6 0b b1 3e 42 68 01 3d 0e 07 d8 be
       0.26645923 0.345792 0.03159357 -0.42192882
0000a0 33 25 41 3e ed 65 85 3c 4c e2 dc be a1 18 0f 3e
       0.18861847 0.016283954 -0.431414 0.13974239
0000b0 26 41 b1 be 3a 9d fc be 49 dc bc be bf 95 01 bf
       -0.34620017 -0.49338704 -0.36886814 -0.5061912
0000c0 1d 68 ed 3d f0 e0 04 be 96 1a 26 be 18 54 a5 be
       0.11592124 -0.12976432 -0.16221079 -0.3229072
0000d0 51 0a 2d be 7f 5c 80 3e 78 ba 66 3e 76 23 e4 be
       -0.16898467 0.2507057 0.2253207 -0.44558305
0000e0 9c ba 09 3e f3 6c 70 be 1a 97 b1 3e 0c 45 8a 3e
       0.13450092 -0.23479061 0.34685594 0.27005804
0000f0 4a ac ac be c9 ee 12 be 8b 51 b6 3e 2b be 37 be
       -0.33725196 -0.14348902 0.35609087 -0.17943637

fc2.weight f4 [64, 64]
000000 4d 67 7f 3d 68 36 b7 3d 9f c3 b5 3d c2 6a 0f 3d
       0.062354375 0.08945924 0.088752024 0.03501392
000010 f0 5e b8 bc a3 fc ca 3d dc 72 47 3d 17 af 9e 3d
       -0.022506207 0.09911468 0.048693523 0.077482395
000020 02 78 89 bd c4 14 f1 bc 80 66 91 bc a0 b5 ec 3b
       -0.06712343 -0.029428847 -0.017749071 0.0072238
000030 3e 96 a9 bd b8 14 f3 bd 81 c6 41 bd de 0c b7 bd
       -0.082806095 -0.11869186 -0.04730845 -0.08938001
000040 42 3b 60 3d c4 ce 09 bd a0 81 ae 3c e8 53 7e 3d
       0.054744013 -0.033644453 0.021302044 0.062091738
000050 96 f0 b5 3d f6 d1 88 3d 75 7c dc bd 70 0b 7a 3d
       0.08883779 0.06680672 -0.10765926 0.061046064
000060 dd f8 b9 3d 59 f1 b9 bd 9e ab 8c bd 64 48 ec 3d
       0.0908067 -0.090792365 -0.06868671 0.11537245
000070 c9 3c 7c bd 70 53 29 3d 0d 2a 60 3d 3e ec 8e bd
       -0.061581407 0.041339338 0.054727603 -0.06978653
000080 d4 ce c9 ba 38 37 6e bd 6e e0 c1 3d 89 f7 41 bd
       -0.0015396723 -0.05815813 0.09466635 -0.04735521
000090 d1 45 4f 3d 64 3c 72 bd 53 4d c7 bd 70 86 f1 bc
       0.05060369 -0.059139624 -0.09731545 -0.02948305
0000a0 f6 3c e1 3d 15 9e ef 3d a4 61 9a 3d 5a 91 bb bd
       0.109979555 0.11700074 0.07538155 -0.09158583
0000b0 12 80 99 3d d8 c0 b8 bd 16 fc 94 3d 1a 8c a9 bd
       0.074951306 -0.09021157 0.07274644 -0.082786754
0000c0 e3 2b 16 3d ab a9 97 3d c0 e6 f5 bd ae 35 f6 3d
       0.036662947 0.074054085 -0.12006903 0.12021957
0000d0 c0 d3 7c 3c a6 50 b1 bd c5 86 f2 bd a0 1b b5 bc
       0.0154313445 -0.086579606 -0.118421115 -0.0221079
0000e0 32 c3 da bd d4 44 c7 3d 87 b2 54 3d fb b0 79 3d
       -0.10681762 0.09729925 0.05192807 0.060959797
0000f0 08 56 af 3c 50 74 68 3c 9d 8e 99 3d 31 1c 00 be
       0.021403328 0.014187887 0.074979044 -0.12510754
000100 b0 b6 8a 3c 40 b1 b8 bd a2 44 d9 bb fe 21 82 bd
       0.016932815 -0.09018183 -0.006630496 -0.0635414
000110 e8 ef c6 bd a5 f0 cd 3d 80 5e 8b bb bf 29 a2 3d
       -0.09713727 0.10055665 -0.0042532086 0.07918119
000120 c8 a2 e4 bd 4f 36 06 bd 36 e3 9a 3d f0 ea b9 bd
       -0.111638606 -0.032766636 0.07562868 -0.09078014
000130 48 e7 31 3d 91 42 4b bd e6 46 ae 3d 64 cb f9 3d
       0.043433458 -0.04962403 0.085096166 0.12196997
000140 90 d6 ab 3d 3e ca a9 3d 1e 35 d6 3d 80 19 b0 ba
       0.08390534 0.08290528 0.1045935 -0.0013435334
000150 78 7e 19 bd 7b 30 98 3d 50 29 bc 3d 17 ab d9 bc
       -0.037474126 0.07431122 0.09187567 -0.02657084
000160 fb df 2d bc 49 2a 87 3d 72 f1 91 3c 28 f1 d5 bc
       -0.010612483 0.06599862 0.017815325 -0.026115969
000170 de 45 af bd c0 9f bd bd df bb 86 3d de 11 cc bd
       -0.08558248 -0.092589855 0.06578802 -0.099643454
000180 dc 2f 22 3d fd 4b 1a 3d 78 ae 84 3c 7b 8c e1 bd
       0.039596424 0.037670124 0.016196474 -0.11013123
000190 4b 28 b7 bc 71 95 7f bd 4d fb 3d 3d 10 e2 57 3d
       -0.02235808 -0.062398378 0.046382237 0.052705824
0001a0 7b 90 89 3d 08 a2 c8 bc 5c b4 51 3d ad 16 13 bd
       0.067170106 -0.024491325 0.051197395 -0.035910297
0001b0 b2 50 84 bd c8 22 44 3d f4 e3 9a bd 70 bd 83 bc
       -0.06460704 0.047884732 -0.0756301 -0.016081542
0001c0 c2 b9 f4 bb 8c 1a d4 3c a8 58 ce 3d b8 73 a2 3d
       -0.007468433 0.025891565 0.100755036 0.07932228
0001d0 00 ba 98 ba c1 39 db bc c2 18 b4 3d a4 e1 9d 3d
       -0.0011652112 -0.026760938 0.08793785 0.07709053
0001e0 a8 4a fc 3c 40 45 03 bb 3f 41 43 3d ff 47 c9 3d
       0.030797318 -0.002003029 0.047669645 0.09828185
0001f0 d0 c4 34 bc 7c b3 12 bd e7 fd ef 3d 18 78 ed 3d
       -0.011033252 -0.0358157 0.1171835 0.11595172
000200 d8 23 38 3d 90 3d 92 3d 70 08 ef 3c 7c d9 86 bd
       0.04495606 0.07140648 0.029178828 -0.065844506
000210 be 4f 86 3d 84 8d e0 bd 2a 56 c7 3d e4 5c ac 3d
       0.06558178 -0.10964492 0.09733231 0.08416155
000220 2a a9 c8 3d 30 39 a4 3d 78 c0 f9 3d 72 c8 df 3d
       0.097978905 0.0801872 0.121949136 0.10926904
000230 80 55 7a bc 40 d0 6b bb f4 6a c6 bd a0 a0 4f 3d
       -0.015279174 -0.003598228 -0.096883684 0.050690293
000240 80 0c 2b bb 54 64 ed 3d 76 7a ba 3d 38 38 a6 bd
       -0.002609998 0.11591402 0.09105389 -0.081161916
000250 d0 6b 46 bd c0 92 11 3d c8 52 1b 3d 4a c6 95 bd
       -0.04844266 0.035540342 0.037920743 -0.07313211
000260 40 78 86 3d 24 b1 64 bd 34 2f d9 bd 1e 83 e1 bd
       0.065659046 -0.055832997 -0.106047064 -0.11011337
000270 70 f4 d8 3d d6 8c 8d 3d ce 8c 97 3d da 3a 94 bd
       0.10593498 0.06911628 0.07399903 -0.072377875
000280 a8 21 29 3d 88 71 43 3d d0 1c 76 bc 30 31 20 3c
       0.041291863 0.047715694 -0.015021518 0.009777352
000290 10 fb 64 bd 00 12 9c 3b 46 c6 d3 bd 98 a2 73 3d
       -0.055903494 0.004762888 -0.10340552 0.059481233
0002a0 70 b3 ca 3d ec dc a3 bd b4 f1 08 3d 10 24 46 bc
       0.09897506 -0.08001122 0.03343363 -0.012093559
0002b0 e8 40 ea 3d 70 fc 98 bc 94 64 20 bd 00 0c d3 ba
       0.11438161 -0.01867506 -0.03915842 -0.0016101599
0002c0 00 73 dd ba c0 47 3e bb 30 61 83 3c 60 06 00 bc
       -0.0016895235 -0.0029034466 0.016037554 -0.00781402
0002d0 7e 06 aa bd e8 77 a8 bd 3c 12 b2 3d 76 f4 c7 bd
       -0.083020195 -0.08225995 0.08694884 -0.09763424
0002e0 c0 14 8c 3c 60 4b 8d 3c 42 a6 e3 3d fa 58 c9 bd
       0.017099738 0.017247856 0.111156955 -0.09831424
0002f0 1a d2 a4 3d 80 41 f9 bb 1a a6 d1 bd 30 85 a8 bc
       0.08047886 -0.007606685 -0.102367595 -0.020571321
000300 10 68 aa 3d de 74 d8 3d 4e d0 83 3d 40 50 55 3b
       0.083206296 0.10569166 0.06436215 0.0032549053
000310 1c 81 fc 3d 60 9a 53 bd 50 58 4f 3c 50 d5 98 bd
       0.12329313 -0.051660895 0.012655333 -0.07462561
000320 5a c4 91 bd e4 6a ee 3d 00 46 99 3b 14 2d 9f bd
       -0.07117529 0.116414815 0.004677534 -0.0777227
000330 ac fd d3 3d d0 8c 1d bc d4 1f 8b 3d c4 27 55 3d
       0.103511184 -0.009616092 0.0679318 0.052039877
000340 40 cf ed 3d 82 a7 b5 3d 10 f2 45 bc 98 19 4c bd
       0.116117954 0.0886984 -0.012081638 -0.049829096
000350 80 dc 73 bc 74 9a d9 3d ac 37 52 bd f0 d6 66 bd
       -0.014884114 0.10625163 -0.051322624 -0.056357324
000360 3c 33 69 bd 2c 62 9e bd f2 e6 84 bd 0e ad b1 3d
       -0.056933627 -0.077335685 -0.06489362 0.08675586
000370 a8 05 80 3d 76 6f ad bd f4 32 9d bd 1c 3b 59 bd
       0.06251079 -0.08468525 -0.07675734 -0.053034887
000380 58 9e f0 bc 58 8b a3 3c 06 b9 92 bd 32 55 85 bd
       -0.02937238 0.019963905 -0.07164197 -0.0651039
000390 ce e5 eb bd b2 f6 cb 3d 50 d6 65 bd e4 8a 5d 3d
       -0.11518441 0.09959163 -0.056112587 0.054087535
0003a0 f4 b3 dc 3d a2 a4 d9 3d 94 d5 3a 3d 74 01 08 bd
       0.10776511 0.10627104 0.04561384 -0.03320451
0003b0 ba c7 e0 3d e8 bf eb 3d 28 9e 51 3d 70 ca 6d bc
       0.10975595 0.115112126 0.05117622 -0.014513597
0003c0 fe 27 e5 bd e0 3f b1 bd a0 20 80 3c 9a 71 ec 3d
       -0.111892685 -0.08654761 0.015640557 0.11545105
0003d0 70 a5 03 3c e0 b3 f8 3b f0 45 09 bd 76 7c b5 bd
       0.008035049 0.007589802 -0.033513963 -0.0886163
0003e0 c8 cf 3a 3d 0e 51 dc bd 50 e5 c5 3d 36 6a c0 bd
       0.045608312 -0.107576475 0.096628785 -0.09395258
0003f0 a4 bd 9c 3d 40 86 64 3d da 55 b2 bd 74 c8 30 3d
       0.076533586 0.055792093 -0.08707781 0.043159917

fc2.bias f4 [64]
000000 51 da 04 3c 9d b4 ed bd c4 db e8 bd 76 b9 86 bd
       0.008108691 -0.11606715 -0.11370042 -0.065783426
000010 7e 5f 8a bd 6a 98 83 3d 8a 63 97 bd 97 2a 86 3d
       -0.06756495 0.06425555 -0.073920324 0.06551092
000020 e8 ef 92 bd e4 4c 1d bd a8 af fd bd 4c c1 a3 3d
       -0.07174665 -0.038403407 -0.123870194 0.07995853
000030 96 cb f4 3d 59 e6 a7 3d 03 d3 ab 3d d8 2c 5c 3d
       0.119528934 0.08198232 0.08389857 0.053753704
000040 e9 85 aa 3d 00 12 2e bc 32 3e a3 bd 70 e1 5e bc
       0.083263226 -0.010624409 -0.07970847 -0.013603553
000050 bc 10 8a bd 44 ea b5 bd d5 6d 84 3c db 00 db 3b
       -0.06741473 -0.08882573 0.016165653 0.0066834516
000060 88 45 93 bd 26 6e dd 3d f5 34 c5 3d 64 8a 12 bd
       -0.071909964 0.10812025 0.096292414 -0.03577651
000070 82 29 01 3e fb 1d a4 bd ac 6e a8 bd e8 54 de 3c
       0.1261349 -0.08013531 -0.08224234 0.027140096
000080 22 ba a0 3c 56 74 fc 3d a2 d6 f9 bd 00 77 b8 bd
       0.019620005 0.12326877 -0.12199141 -0.090070724
000090 38 65 ba 3d 1e 24 0f bd 6d e9 d8 bd a1 18 06 bd
       0.09101337 -0.034946553 -0.105913974 -0.03273833
0000a0 30 e6 b0 bc e3 89 2a 3d f7 0e 54 3d 94 e4 2b bd
       -0.021594137 0.041635405 0.051772084 -0.041966036
0000b0 65 79 19 bc b7 69 d7 3c 64 16 8d 3d f0 b3 77 bc
       -0.009367322 0.026295526 0.06889036 -0.015118584
0000c0 bd 1c 97 3d 58 6d 14 bd c3 c2 17 bd a1 9f f4 3d
       0.07378528 -0.03623709 -0.037050974 0.11944509
0000d0 ef ae b0 3d 40 e2 b8 3d a5 9a c6 3d d6 01 0b 3d
       0.08627116 0.09027529 0.09697465 0.033937298
0000e0 00 17 b9 3b 7c 6f eb 3d 44 45 0a 3c 92 45 c3 3d
       0.0056484938 0.11495873 0.008439366 0.09534754
0000f0 a9 09 44 3d 8c e5 47 bd 82 f9 5b bb a4 c4 ec 3c
       0.047860775 -0.048802897 -0.0033565466 0.02890236

fc3.weight f4 [1, 64]
000000 d7 23 36 bd 0b e1 f8 3d e0 a7 86 bc 7a 29 ba 3d
       -0.044467773 0.121522985 -0.01643747 0.09089942
000010 00 7d 88 3a d7 5a 9d 3d b8 f1 f0 bc e0 d1 e1 bd
       0.001041323 0.07683342 -0.029412135 -0.110263586
000020 29 ea 31 bc e2 dc 80 3d a4 01 85 3d c0 11 ab bd
       -0.010859051 0.0629213 0.064944535 -0.08352995
000030 d8 53 fa bc 74 ec d8 3b 32 aa 0e bd b7 38 09 3c
       -0.030557558 0.0066199843 -0.03483028 0.008375338
000040 cc e2 f6 3c 80 6b ae ba f0 67 cf 3c 3c 89 87 3d
       0.030137442 -0.0013307184 0.025318116 0.06617972
000050 30 43 05 3d 2c 4b 0f 3d 17 16 0f 3d 4d 78 e4 3d
       0.032534778 0.0349838 0.034933176 0.11155758
000060 61 a4 c6 3c ea 27 0c 3d cb d9 da bd 92 e1 e6 3d
       0.024248304 0.034217753 -0.10686072 0.11273493
000070 5e f8 2b 3d b2 ef ab 3d 80 bd 38 3b 11 b6 45 bd
       0.04198491 0.08395328 0.0028189123 -0.048269335
000080 42 df eb bd 60 75 47 3c 84 a2 f7 3d 0c 8b 92 3d
       -0.115171924 0.0121739805 0.12091544 0.07155427
000090 72 26 47 3d 75 26 a5 3c 5e a6 8f bd 94 8f 94 bd
       0.04862065 0.02015994 -0.07014154 -0.07253948
0000a0 a0 2c b0 bb fb d2 86 bd 9e 82 89 bc 88 29 a9 bc
       -0.0053764135 -0.0658321 -0.016785916 -0.020649686
0000b0 15 e9 87 3d 4a d9 c2 3d 80 0e 06 3c 80 3e 66 3c
       0.06636254 0.09514101 0.008182168 0.014052987
0000c0 f6 06 b7 bd 02 de d7 3d f6 68 96 3c fb 73 c3 bd
       -0.089368746 0.105403915 0.018360596 -0.09543606
0000d0 2d 5f e8 3d 84 02 a0 3c 05 e9 d6 3c 6a 53 28 3c
       0.11346278 0.01953245 0.02623416 0.010273794
0000e0 84 a7 19 bd 07 f5 a3 bd c0 5c 9d bd 1e a0 f1 bd
       -0.03751327 -0.0800572 -0.07683706 -0.11798118
0000f0 83 69 db 3c ee 48 84 3d a1 0e f1 bb 2b 68 e8 bd
       0.02678371 0.06459223 -0.00735648 -0.113479935
