public/api/smallpox_model.pth (torch, 20366 bytes, 5 tensors)

fc1.weight f4 [64, 2]
0.16432953 0.018024836 -0.5956443 -0.38525894 0.20110123 -0.64645386 -0.09365645 0.6682605
-0.11326443 -0.44963607 -0.6870711 0.28160205 -0.05720305 0.01630889 0.08590385 -0.08503372
-0.016255366 -0.30923176 -0.66733396 -0.07874346 -0.50283617 0.35061044 -0.31882 -0.08406973
-0.016043872 0.6905758 0.43639356 0.27661404 0.59103984 0.32316443 -0.5600222 0.5582856
0.025431862 0.35677788 -0.5169165 -0.28109756 -0.61788636 0.41568753 -0.6846178 0.38224855
0.3359793 0.090623125 -0.5110968 0.40663937 0.44801962 0.5936051 -0.36520943 0.008522598
0.35203725 0.5247207 0.1331258 -0.0048612463 -0.3425459 0.351691 0.056999393 -0.5777868
0.1463757 -0.1469068 -0.23688754 -0.35399786 0.1268775 -0.40113068 0.11348756 -0.3811534
0.1224509 -0.31698877 0.19539079 -0.076531164 -0.6706732 0.32382157 0.59623474 -0.56358016
-0.5119908 -0.17022943 -0.34716773 -0.102249265 0.07572368 -0.3352439 -0.33239296 -0.3091048
-0.69976276 -0.0886714 0.3433197 -0.29769877 -0.18928537 -0.032691035 0.3266617 0.5857643
0.0017674727 0.31930155 -0.23594986 -0.59911424 -0.46453285 0.057789143 -0.3390838 -0.5855693
0.2813108 0.05984924 0.37254855 -0.39218032 -0.0825398 0.2667678 -0.66585076 -0.3961797
-0.35514376 0.1569638 -0.00900459 -0.15170462 -0.4152266 0.28320196 -0.1655883 0.36449683
0.11009012 0.38140363 0.31539312 -0.5089729 0.24188158 0.20572598 0.6210087 -0.12460316
0.10300459 -0.09002771 -0.6202364 0.098804094 -0.5033413 0.19613129 0.38762966 -0.6632373
00000000: 0046 283e d2a8 933c 257c 18bf a940 c5be
00000010: 7bed 4d3e 007e 25bf f4ce bfbd 1f13 2b3f
00000020: 2ef7 e7bd b336 e6be e4e3 2fbf 252e 903e
00000030: bf4d 6abd 399a 853c 5cee af3d 2926 aebd
00000040: f929 85bc a053 9ebe 66d6 2abf 4044 a1bd
00000050: dfb9 00bf 3683 b33e 603c a3be c02c acbd
00000060: 706e 83bc 93c9 303f fa6e df3e 5ba0 8d3e
00000070: 634e 173f cf75 a53e 9d5d 0fbf ceeb 0e3f
00000080: 7b56 d03c 97ab b63e a454 04bf 05ec 8fbe
00000090: cd2d 1ebf ffd4 d43e 1d43 2fbf 15b6 c33e
000000a0: 7b05 ac3e 9e98 b93d 3dd7 02bf 0933 d03e
000000b0: d462 e53e 81f6 173f bbfc babe 5ea2 0b3c
000000c0: 3a3e b43e 1954 063f 2152 083e 174b 9fbb
000000d0: 2d62 afbe d810 b43e 3278 693d d6e9 13bf
000000e0: 83e3 153e bc6e 16be a692 72be 353f b5be
000000f0: 2dec 013e 0061 cdbe 2a6c e83d 8a26 c3be
00000100: 8ac7 fa3d 5a4c a2be 8614 483e 5fbc 9cbd
00000110: 3db1 2bbf f1cb a53e d7a2 183f ca46 10bf
00000120: d411 03bf a050 2ebe f8bf b1be 1068 d1bd
00000130: 0415 9b3d 17a5 abbe 692f aabe fc42 9ebe
00000140: a723 33bf 5a99 b5bd 9ac7 af3e f96b 98be
00000150: 06d4 41be 09e7 05bd 3440 a73e a6f4 153f
00000160: 8baa e73a 7e7b a33e d79c 71be 8d5f 19bf
00000170: 40d7 edbe 4fb4 6c3d 649c adbe dfe7 15bf
00000180: f807 903e 7a24 753d afbe be3e dccb c8be
00000190: a00a a9bd ca95 883e 3275 2abf 11d8 cabe
000001a0: 67d5 b5be 1ebb 203e fd87 13bc 7558 1bbe
000001b0: 9598 d4be d9ff 903e fb8f 29be 549f ba3e
000001c0: ee76 e13d 5647 c33e 357b a13e 0c4c 02bf
000001d0: ceaf 773e d5a9 523e 6dfa 1e3f f12f ffbd
000001e0: 12f4 d23d 7360 b8bd d0c7 1ebf cd59 ca3d
000001f0: fada 00bf a4d6 483e 6577 c63e ebc9 29bf

fc1.bias f4 [64]
-0.49246874 -0.7007228 -0.29919827 0.20672144 -0.016466014 -0.11254886 0.33134106 0.5842288
0.36773437 0.36232963 -0.40865827 0.6982471 -0.59106505 -0.016473722 -0.18282922 -0.5551303
0.19328497 0.5948929 -0.47915554 0.07883947 0.017065382 0.58658355 0.15209803 -0.63953865
-0.27200854 0.5425575 0.51817435 0.5205535 -0.4641592 0.09031606 -0.005571164 0.7029189
-0.41831422 0.24668357 0.43332827 -0.38738436 0.3063592 -0.044370346 0.10649627 0.46876734
0.6492893 0.66573095 0.44359896 -0.5375605 -0.2895976 0.6543815 -0.173834 0.5194151
-0.032937214 -0.3616464 -0.3506363 -0.15241 -0.62274355 -0.0913715 0.69974357 -0.20463079
-0.68156624 0.512416 -0.2167529 0.014341226 -0.4165811 0.4645181 0.16019765 -0.5354787
00000000: dd24 fcbe 9262 33bf 8430 99be c9ae 533e
00000010: bce3 86bc 0480 e6bd 89a5 a93e 0590 153f
00000020: ae47 bc3e 4583 b93e a83b d1be 52c0 323f
00000030: 0a50 17bf e6f3 86bc 9537 3bbe 051d 0ebf
00000040: 7fec 453e e74a 183f e053 f5be 9776 a13d
00000050: b3cc 8b3c 572a 163f 96bf 1b3e ceb8 23bf
00000060: b444 8bbe 0ce5 0a3f 13a7 043f ff42 053f
00000070: 46a6 edbe a0f7 b83d 508e b6bb 7ef2 333f
00000080: 482d d6be 9e9a 7c3e 34dd dd3e 3e57 c6be
00000090: 1ddb 9c3e aebd 35bd b71a da3d 4602 f03e
000000a0: d337 263f 586d 2a3f 671f e33e 919d 09bf
000000b0: 2346 94be 8c85 273f 8a01 32be 63f8 043f
000000c0: 2ce9 06bd b829 b9be 9a86 b3be 5e11 1cbe
000000d0: 1f6c 1fbf fb20 bbbd 6522 333f bc8a 51be
000000e0: 207b 2ebf b22d 033f 79f4 5dbe 76f7 6a3c
000000f0: 1e4a d5be 51d5 ed3e da0a 243e 2215 09bf

fc2.weight f4 [64, 64]
-0.034268677 0.09802516 0.12290163 -0.1008856 -0.058431238 0.097058445 -0.008122444 -0.06900816
0.06661506 -0.025881648 -0.030763432 -0.11628392 -0.056955725 -0.00087948143 0.035673976 0.04774502
-0.04757656 -0.025675595 0.093045905 0.023572788 -0.11868349 -0.004873961 -0.12219557 0.044592425
-0.02029699 0.025126368 0.014934331 0.0040961653 -0.04600513 -0.1159634 0.07641165 0.08347514
-0.024598584 -0.066066876 0.11334039 -0.032639936 0.112656415 0.107372925 -0.02942209 -0.09648748
-0.033511877 0.083106786 -0.0847469 0.08141625 0.02137819 -0.09285276 0.039460972 -0.11038956
-0.07397558 -0.11240919 -0.008024767 -0.046273872 0.07219827 0.106145576 0.05741273 -0.03546895
-0.04426098 -0.043136746 -0.06880334 -0.030077964 -0.08955793 0.017758578 0.102540374 -0.029409513
0.04215783 -0.010480285 -0.0558545 0.07339615 -0.0508219 0.120851725 0.05343762 -0.036414325
-0.081594974 -0.0611542 -0.090933755 0.05798419 -0.034436047 0.10390283 -0.06434257 -0.09188089
-0.109317526 0.047086775 0.046700597 -0.05246608 -0.11124654 -0.044783413 -0.05457516 0.01310204
0.027446672 -0.07552943 -0.0048205107 0.07247542 0.056909487 0.01646769 -0.0508364 0.034750924
-0.113441795 0.0044845343 0.04775043 0.08252968 -0.08721693 -0.110152066 -0.027357996 -0.049211055
-0.12023844 0.050032765 0.067021415 0.09659977 0.07694732 -0.019837335 0.010593474 -0.019529745
0.052634403 -0.08482571 -0.10025549 -0.10219972 -0.07462835 -0.06955002 -0.12263429 -0.025960237
-0.11140269 0.07540476 -0.09951177 -0.118258685 -0.0073617995 0.06200458 0.093069956 -0.045081362
0.026399527 0.054826364 -0.062695675 -0.05657643 -0.077004984 0.037843183 0.051325828 0.046012145
0.06720716 -0.09701072 0.090522274 -0.044322595 0.031590894 0.105810456 0.08770379 0.02505973
0.09498733 -0.05130644 0.10231665 0.067591816 0.029906247 0.12497643 -0.036213286 -0.03935291
-0.06276435 0.116254754 0.07101992 -0.10492359 0.072584726 -0.0922734 -0.067818776 -0.025056595
-0.06931395 0.030311689 -0.056084797 0.11648854 -0.021259457 0.06833066 -0.029872091 -0.03642814
-0.0034027249 -0.03032187 0.11016066 -0.025751246 0.0030299164 0.020190299 -0.0707888 0.063095436
0.10329011 -0.12206382 0.01958391 -0.088763356 -0.097249955 0.033760905 0.052969366 0.04331252
-0.1075781 -0.1146749 0.027701052 0.06572 -0.07510419 0.09925516 0.10092682 -0.010215893
0.0654199 -0.052832738 0.08363499 0.0776746 -0.046852514 0.07527372 -0.038406685 0.104929924
-0.063876644 0.10052478 0.050406694 -0.034576923 -0.09413251 -0.0810056 0.09259662 -0.098540336
-0.09943162 0.008318871 0.040759727 0.050319105 -0.09676282 0.011761129 0.027042255 -0.008538052
-0.1217196 0.01228942 0.036321238 0.11298178 -0.011772543 -0.0511629 0.11550449 0.0959567
0.121349484 -0.11835261 0.083432004 0.054709375 0.08817688 0.07334228 0.012221485 0.0016134679
0.08340724 -0.013710111 -0.043539837 -0.111300915 -0.05957398 0.0015846044 0.013359696 0.036521062
-0.046619877 -0.104219526 0.06821661 0.053706944 -0.12412162 -0.030445918 0.07529326 0.07966828
0.03397949 -0.069435894 0.07351351 -0.010708749 -0.12450664 -0.06909761 0.12103395 0.039780974
00000000: 505d 0cbd 6ac1 c83d dab3 fb3d 1c9d cebd
00000010: 9855 6fbd 94c6 c63d 0014 05bc 2654 8dbd
00000020: 7a6d 883d c005 d4bc 9803 fcbc 4426 eebd
00000030: 684a 69bd 008d 66ba e01e 123d 4890 433d
00000040: a4df 42bd a055 d2bc da8e be3d b81b c13c
00000050: 5410 f3bd c0b5 9fbb ac41 fabd 8ca6 363d
00000060: e045 a6bc d0d5 cd3c 20af 743c 2039 863b
00000070: e06f 3cbd 387e edbd b67d 9c3d 04f5 aa3d
00000080: f882 c9bc 124e 87bd 021f e83d 74b1 05bd
00000090: 68b8 e63d 56e6 db3d 9806 f1bc 3a9b c5bd
000000a0: c043 09bd e433 aa3d c88f adbd 90bd a63d
000000b0: 5021 af3c 9629 bebd d4a1 213d ec13 e2bd
000000c0: 8280 97bd ca36 e6bd 507a 03bc ac89 3dbd
000000d0: b0dc 933d da62 d93d 9c29 6b3d e447 11bd
000000e0: 004b 35bd 28b0 30bd c4e8 8cbd 1066 f6bc
000000f0: 266a b7bd 707a 913c b000 d23d 38ec f0bc
00000100: b0ad 2c3d 80b5 2bbc b0c7 64bd b850 963d
00000110: a02a 50bd 1c81 f73d 68e1 5a3d 3027 15bd
00000120: 441b a7bd d47c 7abd 7a3b babd d480 6d3d
00000130: d00c 0dbd 02cb d43d 0ac6 83bd 0c2c bcbd
00000140: dee1 dfbd 10de 403d 2049 3f3d ace6 56bd
00000150: 3ad5 e3bd d06e 37bd 348a 5fbd f0a9 563c
00000160: d8d7 e03c 2caf 9abd 60f5 9dbb fe6d 943d
00000170: ec19 693d 40e7 863c d439 50bd fc56 0e3d
00000180: 2c54 e8bd 00f3 923b f495 433d 5205 a93d
00000190: ca9e b2bd 6897 e1bd e01d e0bc 8891 49bd
000001a0: 923f f6bd 28ef 4c3d 8642 893d 1ad6 c53d
000001b0: 8e96 9d3d e881 a2bc 4090 2d3c d8fc 9fbc
000001c0: 2c97 573d 1ab9 adbd c052 cdbd 164e d1bd
000001d0: c0d6 98bd 3e70 8ebd b027 fbbd 90aa d4bc
000001e0: 1827 e4bd d06d 9a3d d4cc cbbd 9c31 f2bd
000001f0: 403b f1bb 84f8 7d3d 769b be3d 3ca7 38bd
00000200: d243 d83c 9c91 603d 9766 80bd b0bc 67bd
00000210: cab4 9dbd 7401 1b3d 083b 523d 3b77 3c3d
00000220: e8a3 893d 8ead c6bd be63 b93d 9c8b 35bd
00000230: 7465 013d 27b3 d83d 0b9e b33d 104a cd3c
00000240: b888 c23d b426 52bd 648b d13d 946d 8a3d
00000250: f2fd f43c a4f3 ff3d 6254 14bd 8430 21bd
00000260: 988a 80bd f916 ee3d e472 913d 2ee2 d6bd
00000270: 4da7 943d d6f9 bcbd 92e4 8abd 7d43 cdbc
00000280: 79f4 8dbd 3850 f83c 2cb9 65bd 8b91 ee3d
00000290: 5028 aebc f2f0 8b3d 51b6 f4bc ac35 15bd
000002a0: 4000 5fbb 9265 f8bc ea9b e13d 47f4 d2bc
000002b0: 9091 463b 2066 a53c b8f9 90bd 2e38 813d
000002c0: c489 d33d 99fc f9bd 706e a03c 90c9 b5bd
000002d0: fc2a c7bd e048 0a3d 68f6 583d 7868 313d
000002e0: e851 dcbd adda eabd 51ed e23c 3598 863d
000002f0: 3ad0 99bd 4a46 cb3d b8b2 ce3d 9060 27bc
00000300: defa 853d 2467 58bd d248 ab3d dc13 9f3d
00000310: 6ce8 3fbd 1c29 9a3d 5450 1dbd 80e5 d63d
00000320: c2d1 82bd f0df cd3d 4077 4e3d 88a0 0dbd
00000330: 8cc8 c0bd 44e6 a5bd 4ca3 bd3d 84cf c9bd
00000340: cea2 cbbd e04b 083c acf3 263d 681b 4e3d
00000350: 962b c6bd c0b1 403c b887 dd3c 30e3 0bbc
00000360: 2048 f9bd 9059 493c 94c5 143d fe62 e73d
00000370: a0e1 40bc 3090 51bd 9e8d ec3d f284 c43d
00000380: 1486 f83d da62 f2bd 66de aa3d f016 603d
00000390: 1496 b43d 7a34 963d a03c 483c 007b d33a
000003a0: 6ad1 aa3d 60a0 60bc d456 32bd bcf1 e3bd
000003b0: d803 74bd 80b2 cf3a a0e2 5a3c 1c97 153d
000003c0: 7cf4 3ebd 0c71 d5bd 26b5 8b3d d0fb 5b3d
000003d0: 7a33 febd b869 f9bc 5a33 9a3d 2029 a33d
000003e0: 142e 0b3d 6834 8ebd 408e 963d c073 2fbc
000003f0: 56fd febd 0c83 8dbd a6e0 f73d 60f1 223d

fc2.bias f4 [64]
-0.04260993 0.06835824 -0.10577692 -0.10451652 -0.05863429 -0.029659733 0.031612717 0.12571211
0.03334275 0.00639757 -0.07312624 -0.010948494 0.1000731 0.053745434 -0.07522283 0.04613349
0.07825426 0.056163844 0.06879079 -0.11900608 0.09255712 -0.08833836 -0.05216326 0.037842557
-0.031960934 0.08886245 -0.0638356 -0.0536247 -0.09015247 -0.05423295 0.062521696 0.054872412
0.10537554 -0.107726805 0.046763062 0.049759097 0.046455458 0.104772225 -0.03888504 -0.096140355
-0.062195078 0.062491804 -0.11171539 0.101769656 -0.089922085 0.007868782 0.044620004 -0.031957224
0.053454626 -0.065959886 -0.12175381 0.034221053 0.0014817119 -0.07175173 0.09972617 -0.0114648435
0.0027456135 0.048917156 0.05725467 -0.12331663 -0.034884155 -0.09605552 -0.0880799 0.096546456
00000000: c087 2ebd 68ff 8b3d 92a1 d8bd c20c d6bd
00000010: 822a 70bd f8f8 f2bc 567c 013d adba 003e
00000020: 6892 083d b5a2 d13b 36c3 95bd 5061 33bc
00000030: 20f3 cc3d 2c24 5c3d 6d0e 9abd 78f6 3c3d
00000040: c543 a03d 0f0c 663d 30e2 8c3d 76b9 f3bd
00000050: 968e bd3d beea b4bd 24a9 55bd cc00 1b3d
00000060: 78e9 02bd 84fd b53d 3dbc 82bd 93a5 5bbd
00000070: dca1 b8bd 5f23 5ebd 600b 803d e5c1 603d
00000080: 22cf d73d df9f dcbd a08a 3f3d 32d0 4b3d
00000090: 1448 3e3d d292 d63d eb45 1fbd 3ce5 c4bd
000000a0: 44c0 7ebd 68f7 7f3d 0acb e4bd 9c6c d03d
000000b0: 1229 b8bd 10ec 003c 77c3 363d 94e5 02bd
000000c0: 3df3 5a3d fa15 87bd 105a f9bd 602b 0c3d
000000d0: 0036 c23a 92f2 92bd 3c3d cc3d 0ad7 3bbc
000000e0: c0ef 333b 5b5d 483d df83 6a3d 6e8d fcbd
000000f0: b0e2 0ebd c2b8 c4bd 3c63 b4bd 26ba c53d

fc3.weight f4 [1, 64]
-0.10815732 -0.112455234 0.097734295 0.08200438 0.034701526 -0.032843813 0.02736496 -0.09957152
-0.025593787 0.016856113 -0.011181653 0.03467962 0.066664174 0.03878936 0.040438965 -0.0062916405
-0.039138444 -0.06529448 0.03731726 0.04956694 -0.08331231 0.0693776 0.035729483 -0.003036499
-0.018219382 0.044450685 -0.07965888 -0.04700352 -0.034928456 0.024574343 -0.104794115 0.0066802837
-0.05565968 0.059288964 -0.12369268 0.11876832 -0.059366524 -0.109630376 -0.107481 0.082989454
-0.075217664 0.035886794 0.05014099 -0.073751986 0.0988473 -0.016795665 0.008594331 0.063707545
-0.063519984 0.08653714 0.09987764 -0.09739576 -0.03445795 -0.020190313 -0.028104546 -0.011357253
-0.09733306 0.12022853 0.030410103 0.07518701 0.071172 0.031547174 0.1100319 -0.059345245
00000000: 9681 ddbd ee4e e6bd eb28 c83d eaf1 a73d
00000010: 3023 0e3d 3c87 06bd 7b2c e03c 27ec cbbd
00000020: 10aa d1bc d515 8a3c 4033 37bc 380c 0e3d
00000030: 3a87 883d 98e1 1e3d 54a3 253d 1b2a cebb
00000040: a24f 20bd 1db9 85bd fcd9 183d b406 4b3d
00000050: a59f aabd d815 8e3d 1459 123d 0000 47bb
00000060: d040 95bc ec11 363d 3224 a3bd c386 40bd
00000070: 2411 0fbd 2250 c93c 4c9e d6bd 48e6 da3b
00000080: 68fb 63bd fcd8 723d 9652 fdbd ce3c f33d
00000090: 502a 73bd e485 e0bd 001f dcbd 60f6 a93d
000000a0: b80b 9abd 08fe 123d a460 4d3d 480b 97bd
000000b0: 7470 ca3d 1097 89bc 3dcf 0c3c 1a79 823d
000000c0: c416 82bd 623a b13d a68c cc3d 6e77 c7bd
000000d0: c823 0dbd 2866 a5bc 813b e6bc c613 3abc
000000e0: 8e56 c7bd 603a f63d 9c1e f93c a6fb 993d
000000f0: a0c2 913d 9c37 013d 6858 e13d 0014 73bd
