public/api/Data_Sources/hepatitis_model.pth (torch, 20632 bytes, 5 tensors)

fc1.weight f4 [64, 3]
000000 58 82 de bd 88 55 98 3e 54 4d 80 be f4 47 0b bf
       -0.10864705 0.29752755 -0.25058997 -0.54406667
000010 c1 fd b0 3e 78 eb ab be 00 93 37 bd 88 98 9a bd
       0.345686 -0.33578086 -0.044817924 -0.07548624
000020 24 b0 75 be 63 01 eb be 3a c3 e6 be 50 1b 1d 3e
       -0.23992974 -0.45899495 -0.4507082 0.1534245
000030 db 9a 88 be 64 24 d3 be 7c 32 0d 3f f4 87 3d be
       -0.26680645 -0.412387 0.5515516 -0.18508893
000040 9a 7d 07 3f b4 46 56 be 38 3f e1 3d 68 27 c7 3e
       0.5292603 -0.20925409 0.10998386 0.38897252
000050 ed 27 3c be 43 13 c0 be 00 8c 08 be 40 86 67 bc
       -0.18374605 -0.37514696 -0.13334656 -0.014131129
000060 e5 5a c4 be 33 9e cf 3e b1 b1 80 3e 68 60 37 be
       -0.38350597 0.40550384 0.25135568 -0.1790787
000070 68 32 bc bd 72 14 da be 74 f3 0d 3f 1f 40 8f bd
       -0.09189302 -0.42593724 0.55449605 -0.06994652
000080 3d e2 00 bf 6b 0a 9d 3b db a1 09 3f 0c e1 ac 3e
       -0.5034521 0.0047925017 0.53762597 0.33765447
000090 c4 90 fe 3e 70 ac 16 3e 23 a5 ae 3d b9 71 09 be
       0.49719822 0.14714217 0.08527591 -0.13422288
0000a0 7f b2 d9 3e 9d e4 49 3e c3 45 08 3f 46 6e 55 3e
       0.42518994 0.19716115 0.5323145 0.20842847
0000b0 7d 35 b8 3e 9c 26 0f 3f 1f 45 06 be 82 d7 a4 bd
       0.35978308 0.5591829 -0.13112305 -0.08048917
0000c0 fd 2b 45 be f0 bb d3 bd 74 5f e7 3d 01 27 e7 3e
       -0.19255061 -0.103385806 0.11297503 0.45146945
0000d0 84 c5 0b bf db 46 cb be c8 f7 ab 3e 2d d3 84 3e
       -0.5459826 -0.39702496 0.3358748 0.25942364
0000e0 4b 0e 83 3e 72 df f1 3e 32 eb a2 be 66 e2 96 3e
       0.25596842 0.47240788 -0.31820065 0.29469603
0000f0 8c 8d 4f 3e 22 51 37 3e b2 ab 3e be ba 83 1c 3e
       0.2026884 0.17902043 -0.18620184 0.15284625
000100 b4 83 74 3e 34 88 89 3e 59 e1 89 3e 02 ea b3 3e
       0.23878366 0.26861727 0.2692974 0.3513947
000110 9d 0b 7c 3e c6 51 ae be 46 62 02 3f 44 7e de bd
       0.24613805 -0.34046763 0.50931203 -0.10863927
000120 5d a8 90 3e 08 95 01 3f 8a 5c 8b 3e f4 08 9c be
       0.2825345 0.5061803 0.2721904 -0.3047558
000130 c8 73 26 3e cc f4 9a 3e 72 be 75 be f4 a7 04 bf
       0.16255105 0.3026489 -0.2399843 -0.51818776
000140 e4 42 3f be b6 c5 e9 3d af 61 cc be 51 fb f3 bd
       -0.1867786 0.114146635 -0.39918277 -0.11913169
000150 f1 49 a9 3d 65 f8 ed be 39 c8 61 3e 4c 3f ed bd
       0.08266056 -0.46478572 0.22049035 -0.115843385
000160 54 6c b3 3e 56 d3 c8 3e 6e 3b d1 3e 36 35 0a 3d
       0.35043585 0.39223737 0.40865654 0.033742152
000170 f2 d6 55 3e fe d4 8a be df 9d 00 3f 9e fa f5 3e
       0.20882776 -0.27115625 0.5024089 0.48042768
000180 73 3a e3 bc 8d 44 e1 3e 85 e6 bd 3e 47 ee f1 3e
       -0.027737832 0.43997613 0.37089935 0.47252104
000190 46 3d 39 3e de 11 06 bf b5 96 4e be 37 3b ce 3e
       0.1808978 -0.52371013 -0.20174678 0.40279552
0001a0 49 d2 52 be ca 58 12 3f 51 c3 23 3e ec 5b 29 3e
       -0.2058803 0.5716673 0.15992476 0.16538972
0001b0 78 f0 2c be f6 db 61 3e 88 d2 ca 3e c1 d7 10 bf
       -0.16888607 0.22056565 0.39613748 -0.56579214
0001c0 06 8b c0 be e0 f8 dc 3e 7b d9 e8 be 17 c8 d1 3e
       -0.37606066 0.43158627 -0.45478424 0.4097297
0001d0 29 03 89 3e 6d df b6 3c 75 a9 2f 3e 30 9a c5 3e
       0.26760224 0.022323335 0.17154486 0.38594198
0001e0 b6 f8 07 3f 35 4a a6 be b3 ba ed be 00 f8 a7 bb
       0.5311388 -0.3247849 -0.46431503 -0.0051259995
0001f0 e0 d4 1a bd 8a 52 15 be f0 c4 60 3d b4 05 0f bf
       -0.03780067 -0.14582267 0.054875314 -0.5586808
000200 94 92 f3 be fc 65 84 3e e1 6f 09 bf 15 84 9a be
       -0.47572768 0.25859058 -0.5368634 -0.30178896
000210 68 33 48 3e ac 82 a0 3e 30 ef 8d 3d 00 d8 0e 3e
       0.1955086 0.31349695 0.06930387 0.13949585
000220 f0 d2 37 3e c8 50 37 be 7f 39 d2 be b0 cf 5d bd
       0.1795156 -0.1790191 -0.4105949 -0.054153144
000230 b3 d5 c7 be c1 40 ab be af e5 e3 be f3 32 32 3e
       -0.39030227 -0.3344784 -0.44511172 0.17402248
000240 16 5a f3 3e df d2 ab be 77 83 60 3c f3 84 fc be
       0.47529668 -0.3355932 0.013703219 -0.49320182
000250 f0 56 e7 be 27 35 b8 3e b5 36 d2 3e b2 3f 8e be
       -0.45183516 0.35978052 0.41057363 -0.2778297
000260 8f 0b 9b be 1d bd 40 be ef 43 64 3d b6 26 d7 be
       -0.30282256 -0.18822141 0.05572885 -0.42021722
000270 92 cc cc 3e d1 b8 fc 3d 91 01 87 bd ed 53 70 3c
       0.39999825 0.123399384 -0.06592096 0.014668447
000280 37 c1 3a be cc 4e bf 3e 68 7d d2 3d 08 0e e1 3e
       -0.18237768 0.37364805 0.102778256 0.43956017
000290 44 6b b2 bd 0a 23 64 be a6 c2 fd be 42 df 78 3d
       -0.087118655 -0.22278991 -0.49562567 0.06075979
0002a0 da 2a 0e 3f 8e 06 3d 3c 84 42 ff bb 51 fd 82 be
       0.55534136 0.011537207 -0.0077899117 -0.2558389
0002b0 7d f7 86 3e 45 b9 e5 3e c0 b9 59 bd 4a 9c d7 be
       0.26360694 0.44867912 -0.05315566 -0.42111427
0002c0 3e 94 0c be 40 90 6a 3e bc 81 78 3e 1c 82 1f be
       -0.13728425 0.2290659 0.2426824 -0.15576977
0002d0 b3 af 95 3e 34 2c cf 3e 5c 60 12 bf e0 ae b5 be
       0.2923561 0.40463412 -0.5717828 -0.35484982
0002e0 44 4e 97 3e 7a e5 98 3e 95 8b 80 3e 61 e6 aa be
       0.295519 0.29862577 0.25106493 -0.3337889
0002f0 1b c8 ca 3d 72 f7 f1 3d 2d ae 39 be 1d 8d 7b 3d
       0.09901448 0.118147746 -0.18132849 0.061413873

fc1.bias f4 [64]
000000 35 fa 04 bf 23 78 af 3e 60 df 58 be d0 dd fe be
       -0.51944286 0.34271345 -0.21178961 -0.49778605
000010 cb c4 e9 bc 14 10 94 be e8 3e 39 3c 00 86 4a bd
       -0.028536221 -0.28918517 0.011306502 -0.0494442
000020 87 1c 84 3e a5 25 0c bf 36 1a bc be 27 17 1f 3e
       0.25803015 -0.5474494 -0.36738747 0.15536176
000030 4d 1c 5e 3d 92 b7 15 3e be 33 42 be c5 e2 82 be
       0.05422621 0.14620808 -0.1896505 -0.25563636
000040 e7 66 07 3f a4 4e d0 be f8 be 72 3e 20 60 bd be
       0.5289139 -0.40684998 0.23705661 -0.369874
000050 c8 7b ad 3e b0 bd 2a be e7 2b a2 bc f8 c0 ec be
       0.338835 -0.16673923 -0.019796325 -0.46240973
000060 bf 93 e1 3e c6 74 01 bf 7c d3 ee bd 58 50 9a bd
       0.44058034 -0.5056881 -0.11661431 -0.075348556
000070 08 ee 01 3f 8f 66 13 bf 8a 16 82 be e6 66 fa 3e
       0.5075383 -0.57578367 -0.2540782 0.4890663
000080 8b 9a 53 be 1a 69 f8 3d 44 f9 a6 3e b0 79 ab bd
       -0.20664422 0.121294215 0.3261205 -0.083728194
000090 29 39 8b be 44 0e 84 be fd b7 96 3e 7e b9 45 be
       -0.27192047 -0.25792134 0.29437247 -0.19309041
0000a0 cd 7d 13 bf bb 48 0e bf d0 10 ab be c8 31 c6 3e
       -0.5761383 -0.5557973 -0.33411264 0.38709855
0000b0 ef d3 93 be 96 1b 00 bf 80 f2 c4 be 72 7b ca 3e
       -0.2887263 -0.5004209 -0.38466263 0.39547306
0000c0 1c 54 e6 3d b8 e8 dd 3e d9 b4 4d 3e e8 61 be 3e
       0.11246511 0.43341613 0.20088519 0.37184072
0000d0 bf 18 43 3d bc 66 0b 3f a1 e9 03 bf 03 bd fc 3e
       0.04763102 0.54453635 -0.51528364 0.49362954
0000e0 71 71 f4 be 0f 0a ae 3e ac aa b1 bd 96 f8 0e bf
       -0.477428 0.3399205 -0.08675131 -0.5584806
0000f0 25 d0 7a 3e 0a b0 da be 54 b6 b7 3e 2e fe 02 3f
       0.24493463 -0.42712432 0.35881293 0.511691

fc2.weight f4 [64, 64]
000000 0e 03 c3 bd b6 b7 ce 3d f4 65 e6 3d 80 79 4a bb
       -0.09522067 0.10093634 0.11249915 -0.0030895174
000010 14 cd a2 bd 50 a6 99 bd 60 65 6e 3c a6 ad a4 3d
       -0.07949272 -0.07502425 0.014550537 0.08040933
000020 68 58 f8 bd e0 4e cf bb fe 0f df bd 1a f7 a3 3d
       -0.12126237 -0.0063265413 -0.10891722 0.08006115
000030 38 35 a4 bc 10 bc 55 bd 1c 13 7b 3d 90 33 0f 3c
       -0.020044908 -0.052181304 0.06129752 0.008740321
000040 74 9a 61 bd 3c 67 80 3d e8 65 14 3d a0 80 84 bb
       -0.05507894 0.062696904 0.036229998 -0.0040436536
000050 18 e8 b4 bd 70 13 61 3d 28 0c c5 3d 50 ff 37 bd
       -0.08833331 0.054950178 0.09621459 -0.04492122
000060 04 23 1d 3d 3e ca e1 3d 74 ec 4f bd 7c d3 7b bd
       0.03836347 0.11024903 -0.05076261 -0.061480984
000070 d8 57 47 bd d6 d1 df bd 00 7e 33 bd aa 68 fa bd
       -0.04866776 -0.10928695 -0.043821335 -0.12226994
000080 78 63 2d 3d b2 a1 c3 bd 60 0b 14 3c d0 13 d4 bd
       0.04233119 -0.09552325 0.009035915 -0.103553414
000090 82 bc 84 3d 9e 9c fd 3d c8 5e 49 bd 1c 2e ed bd
       0.064812675 0.12383388 -0.049162656 -0.1158106
0000a0 a4 87 d1 bd 68 59 ff bc e0 49 c5 3c 70 17 fe 3d
       -0.102309495 -0.031170562 0.024083078 0.12406814
0000b0 3c 04 41 3d 64 6b 25 3d c8 51 c5 bd 6c 25 39 bd
       0.04712318 0.04038562 -0.09634739 -0.045201704
0000c0 a8 85 85 3d c0 4c db bb 6a c6 fb bd 56 ae e3 bd
       0.065196335 -0.006692499 -0.12293704 -0.11117236
0000d0 3c c6 e6 3d 70 88 d1 bd 7a 56 81 bd 86 44 d2 bd
       0.11268279 -0.102311015 -0.06315322 -0.10266976
0000e0 14 0d fc bd d8 e9 4b 3d 20 9b 75 bc aa a0 d5 bd
       -0.12307182 0.049783558 -0.014990598 -0.10431035
0000f0 3c 87 09 bd 00 b6 27 3c 68 d0 fb 3c 58 1d 57 bd
       -0.033576235 0.010236263 0.030739024 -0.05251822
000100 40 f8 72 bd 20 b8 d4 3c cc 60 67 3d b4 1b e8 bd
       -0.05931878 0.025966704 0.056488797 -0.11333409
000110 9b d7 05 bd bc 12 7d 3d 5f cf 29 3d 64 0c f7 bd
       -0.03267632 0.061785445 0.04145753 -0.1206291
000120 e3 77 4d 3d c4 06 82 bd 55 0f bb bc 47 a5 e1 bd
       0.05016316 -0.06348947 -0.02283446 -0.11017852
000130 6a c4 94 3d 94 2d 1b bd 78 a3 ee 3d e2 7b c6 3d
       0.072640255 -0.037885264 0.11652273 0.096915975
000140 3b 78 60 bc 16 b8 f2 bb dd 8a 5e 3b 53 64 84 3c
       -0.01370054 -0.0074071987 0.003395728 0.01616112
000150 f7 28 74 3d 05 7b 91 3d a8 d4 b7 bd 94 ad 48 bd
       0.05960938 0.07103542 -0.08976108 -0.048993662
000160 12 60 83 3c 62 6f d8 bd 20 99 4d 3c d5 37 63 bd
       0.01603702 -0.105681196 0.012548715 -0.055473167
000170 8a d6 61 bb 04 f3 cd 3d 53 22 ee 3d 89 86 10 bc
       -0.003446015 0.10056117 0.116276406 -0.008821138
000180 51 b7 cf 3d 83 14 cc 3c 7d ba e6 3d e0 ee 88 3d
       0.10142387 0.024912124 0.112660386 0.06686187
000190 e9 87 9f bd 60 a7 3c 3d 1b b6 79 bd bf d8 d5 3d
       -0.07789595 0.04605806 -0.060964685 0.10441732
0001a0 2e 80 93 3d e8 63 79 3d 20 18 5c 3d 89 eb 48 bc
       0.07202183 0.060886294 0.053733945 -0.012263187
0001b0 02 0f bd 3d 72 cc a3 3d d0 e5 ba bd 35 76 b1 bd
       0.09231378 0.07997979 -0.091258645 -0.08665124
0001c0 c0 c2 95 3d ab 37 5e bd 7f 07 a2 bd 38 f0 b3 bd
       0.07312536 -0.054252308 -0.07911586 -0.087860525
0001d0 65 af 58 3d 8e 58 1b bd 60 3f eb 3c 8d 08 99 bd
       0.052901644 -0.03792625 0.028716743 -0.07472334
0001e0 ec bd 9f 39 9e 5e 6a bd 7c 1a e6 3d 94 9a b3 bd
       0.00030468346 -0.05721914 0.1123552 -0.08769718
0001f0 6a dc 4e 3c 58 35 aa bc 35 50 f0 3d 44 6a df 3d
       0.012625793 -0.02077739 0.11734048 0.109089404
000200 20 40 f4 3c 72 53 8c bd c0 64 c1 3d 54 d7 f4 3d
       0.029815733 -0.068518534 0.09443045 0.11955133
000210 10 e7 96 bc f2 9b d2 bd 10 92 96 bc 48 7d 04 bd
       -0.018420726 -0.102836505 -0.018380195 -0.03234604
000220 b6 81 ae bd c4 6d 89 bd 30 31 c7 3c c8 97 f4 bd
       -0.08520834 -0.06710389 0.024315447 -0.119430125
000230 a8 b6 f4 bc c4 c9 09 bd 22 e5 b4 3d 40 0a aa bb
       -0.029872254 -0.033639684 0.08832766 -0.00518921
000240 40 88 09 bc e8 91 44 3d 7c 76 e1 3d a8 82 31 3d
       -0.008394301 0.04799071 0.11008927 0.043337494
000250 50 61 95 bd 70 3f c1 3c c8 08 b6 bc 32 86 a2 3d
       -0.072939515 0.02358982 -0.022220984 0.07935752
000260 ce 60 ea bd 14 2d 08 bd f8 e8 58 bd d0 7c 7b bc
       -0.11444245 -0.033246115 -0.05295655 -0.015349582
000270 d4 34 94 bd 78 0a cb bd 76 c2 a8 3d b4 0c 53 bd
       -0.07236639 -0.09914106 0.082402155 -0.051525787
000280 64 0c c0 bd a6 15 91 3d 3e 10 80 3d 40 2d c2 3c
       -0.09377363 0.07084207 0.06253098 0.023703218
000290 5c a6 6c bd b0 c7 37 3c 04 1e c6 bd 72 cd f2 bd
       -0.05777584 0.011217043 -0.09673694 -0.11855592
0002a0 50 67 2f 3c 4c 95 bf 3d f0 48 a6 3c f0 49 a3 bc
       0.010705784 0.09354648 0.020298451 -0.019932717
0002b0 12 e0 8c bd 70 7e c1 bd e0 6b 08 3c 90 30 a8 bc
       -0.068786755 -0.09447944 0.008326501 -0.020530969
0002c0 4a a3 88 3d 1c d9 8e bd 90 fe f0 3c e2 98 ea bd
       0.0667177 -0.06975004 0.02941826 -0.11454941
0002d0 08 40 cb bd 58 1b a7 bd ae 63 cb bd 58 a3 78 3d
       -0.09924322 -0.08159512 -0.09931122 0.06070265
0002e0 34 4d 76 bd 90 e8 9d bd b0 25 f4 3c 58 a6 b8 bc
       -0.06013222 -0.077103734 0.029803127 -0.022540256
0002f0 ec 35 13 bd c0 ba ad bd c0 d6 4a 3c 3e fd ad bd
       -0.035940096 -0.08482885 0.012380302 -0.08495568
000300 d0 6c c9 bc 70 b5 f7 3c 3e 64 8b 3d 48 ad b3 3c
       -0.024588019 0.030237883 0.06806229 0.021933213
000310 24 09 fa bd c0 17 01 bc 38 00 a4 bc 70 11 6a bc
       -0.12208775 -0.007879198 -0.020019636 -0.014286384
000320 c0 2f e1 3c 0c 2b 9d bd 7c db 5f bd 50 b4 6a 3c
       0.02748859 -0.07674226 -0.054652676 0.014325216
000330 fc f2 93 3d 26 c6 b8 3d 14 e2 d6 bd 40 8f 01 bd
       0.0722408 0.09022169 -0.1049234 -0.031630754
000340 54 d1 c6 3d 14 05 3d bd 10 19 77 bd 00 6c 5c 3a
       0.09707895 -0.04614742 -0.060326636 0.0008408427
000350 80 61 62 bb 1c f0 be bd f6 c5 e7 bd e4 27 a9 bd
       -0.0034542978 -0.09323141 -0.11317055 -0.08259562
000360 1e ba 82 bd e4 85 d6 3d a0 b5 e4 bb 5c be 98 bd
       -0.06383155 0.10474756 -0.006979659 -0.07458183
000370 ce 1f 93 bd 40 bd 2b bd dc 79 29 3d a2 67 9c 3d
       -0.07183801 -0.04192853 0.04137598 0.07636954
000380 c8 23 3a bd 48 1e ca bd 00 13 4b 3d 44 65 aa bd
       -0.04544428 -0.09869057 0.049578667 -0.08320096
000390 80 45 d2 3c 02 5b c5 3d 80 82 94 3d d8 c7 ff bd
       0.025667906 0.09636499 0.072514534 -0.12489289
0003a0 30 77 a5 3d 2c e2 da 3d f4 52 af 3d 58 80 47 bd
       0.08079374 0.1068767 0.08560744 -0.048706383
0003b0 7c c7 7d bd a4 58 29 3d b2 a1 ae 3d d8 9e b4 bc
       -0.06195782 0.0413443 0.08526935 -0.022048399
0003c0 3a 11 d3 3d 90 25 bb bc a8 6a fd bc b8 56 34 3d
       0.1030602 -0.02284506 -0.030934647 0.044028014
0003d0 38 db e4 3c 28 f2 e8 3d a0 9e e7 3d c4 36 b4 bd
       0.027936563 0.11374313 0.11309552 -0.08799508
0003e0 c0 8e bc 3c 18 16 b8 bc b8 c6 96 3c 7e 26 86 bd
       0.023017287 -0.022471473 0.018405303 -0.065503106
0003f0 00 57 18 bd 4c 80 f8 3d 48 06 8b 3d 40 85 df bd
       -0.037192345 0.12133846 0.067883074 -0.10914087

fc2.bias f4 [64]
000000 1e 85 d5 3d 6a 93 ef bd 40 bb 62 bc 46 d5 bf bd
       0.10425781 -0.11698039 -0.013838589 -0.093668506
000010 b2 ab f5 bd 36 3b 6e 3d dd 71 e0 3d c4 02 ae bd
       -0.11995639 0.058161937 0.10959218 -0.08496621
000020 8c 3e 35 3d c0 3f 09 bd 04 ad 85 bc fc f8 cf 3d
       0.044249102 -0.033508062 -0.016317852 0.10154912
000030 16 61 fd 3d 8e fd 9f 3d a4 7b 8b 3d 69 87 e5 bd
       0.12372033 0.078120336 0.06810692 -0.11207468
000040 9c 50 6d 3d 84 94 bc bd 0e 0c 93 3d 4d 9b a7 3d
       0.057938203 -0.092080146 0.071800336 0.08183918
000050 d6 44 e9 bc 65 08 63 bd 7b ed af bc 28 08 5c 3c
       -0.028475206 -0.055427928 -0.021475544 0.013429679
000060 19 50 b4 bd 40 17 a8 3d c0 d1 5d bd 62 6f ea 3d
       -0.0880434 0.082075596 -0.05415511 0.11447026
000070 d3 c4 6a bd 9e f2 c7 3d ba 79 d4 bd 40 ab 16 3c
       -0.057316612 0.097630724 -0.1037478 0.009196103
000080 54 64 32 3d 98 54 ae 3d a1 5c 9f 3d 41 ad a3 bd
       0.04355271 0.08512229 0.077813394 -0.0799203
000090 0a 86 95 3d 2b d2 cb 3d c1 03 ab bd f8 2b 88 3c
       0.073009565 0.09952196 -0.083503254 0.016622528
0000a0 b4 2d cb bd 50 81 49 bd 71 f3 94 bd 01 6a 0a 3d
       -0.099208266 -0.049195588 -0.07272995 0.0337925
0000b0 ac 2e 52 3d 40 e3 a6 bd 13 94 37 bd 80 7c e5 3d
       0.05131404 -0.08148813 -0.04481895 0.11205387
0000c0 2a 7e 93 3c 56 21 dd 3c 6e bd a3 3d 06 21 a3 3d
       0.018004496 0.026993435 0.07995115 0.07965283
0000d0 de 43 59 3c c0 41 8d bc 0d 64 82 bd d1 1e bb bc
       0.01326081 -0.017243266 -0.063667394 -0.022841843
0000e0 fe 17 e0 3d bb db 3c bc e0 99 c0 bc 8f 0a 3e bd
       0.10942076 -0.011526997 -0.023510873 -0.04639679
0000f0 9e 05 b3 bd 02 93 ca 3d 74 78 84 3d e0 0f 37 3d
       -0.08741306 0.09891321 0.06468287 0.044692874

fc3.weight f4 [1, 64]
000000 3c 63 5d 3d 51 fd 28 3d 80 bf 0c 3c 74 f1 54 bd
       0.054049715 0.041257206 0.008590579 -0.05198808
000010 5f 65 e3 bc 07 2c c2 3d 54 be be 3d f8 7d ca bc
       -0.027758298 0.09481054 0.09313646 -0.02471827
000020 46 b0 a8 bd b0 b8 8e 3c b9 8d 90 bd 5c 02 ac 3d
       -0.082367465 0.01742205 -0.070582815 0.083988875
000030 5d b2 70 3c 92 57 95 bd aa 15 ca 3d d7 5e ea 3c
       0.014690963 -0.07292093 0.09867413 0.028609676
000040 00 c9 24 bd 02 d8 ca bd c2 3c 46 bd ac 64 e3 bd
       -0.04023075 -0.099044815 -0.048397787 -0.11103186
000050 d6 9f 4a 3d 8c 71 46 bd ef 26 d6 bd ff 09 3d 3d
       0.049468838 -0.04844813 -0.10456645 0.04615211
000060 07 b0 d1 bc bf b7 7b bc 0c 6f 54 bd de f2 94 bd
       -0.025596632 -0.015363633 -0.051863715 -0.07272886
000070 cc 6b ce bd 22 04 9d bd 00 af b0 bc 14 b3 10 bd
       -0.10079154 -0.07666804 -0.021567822 -0.035327032
000080 6d df 85 3d b8 b2 c2 bc 4f b2 d6 bd 95 b0 64 3d
       0.06536756 -0.02376686 -0.104832284 0.055832464
000090 06 03 f9 bd 41 91 cd bc ca a5 95 bd 80 fe d8 3a
       -0.1215878 -0.025093677 -0.073070124 0.0016555339
0000a0 46 f5 0e 3d 80 eb 8c bb 7d aa f3 3d ba 6f c7 bd
       0.03490188 -0.0043005347 0.118977524 -0.09738107
0000b0 72 4d d3 bd f1 22 03 3e 75 c2 d9 3d 5a 3a 64 bd
       -0.10317506 0.12806298 0.10632793 -0.05571971
0000c0 bb 07 5e bb 14 b0 9f 3d 49 55 c8 bc 91 06 dd 3c
       -0.003387912 0.07797256 -0.02445473 0.02698067
0000d0 b1 b3 27 bd 0e a4 bd 3d 3c 78 c2 3d 30 db 1d bd
       -0.04094285 0.092598066 0.09495589 -0.03853911
0000e0 05 89 df 3c 16 f1 cd bd 32 24 07 3d 4c 49 ab 3d
       0.027287016 -0.10055749 0.032993503 0.0836359
0000f0 04 84 dd 3d 2a 7e 33 bd c2 3a bf 3c 90 60 95 3c
       0.108161956 -0.04382149 0.023343448 0.018234521
