public/api/Data_Sources/measles_model.pth (torch, 20612 bytes, 5 tensors)

fc1.weight f4 [64, 3]
0.25771868 -0.42290282 -0.23248649 0.046138465 -0.4805919 0.39573652 -0.20201954 -0.33122766
-0.2683466 0.012386066 0.44714412 -0.14033534 0.2396651 -0.27462393 0.06693391 -0.011987386
-0.5637695 -0.42686605 0.56345373 0.27938995 0.3094354 0.13024604 -0.49396443 -0.45653415
0.12759903 0.028296886 0.48696047 0.3018511 -0.45071256 0.17100364 0.0027996767 0.4008731
0.40687403 -0.16773391 -0.29825744 0.07368195 -0.09151098 -0.017437248 0.4930204 -0.08878195
-0.40278327 0.43902528 0.035642147 0.16960865 -0.106752634 -0.49703115 0.011495054 -0.1241059
-0.042251527 0.42124152 -0.5628029 -0.19780068 -0.56330466 0.37498885 -0.462334 -0.06678063
0.032405972 -0.08817327 0.11662656 -0.3286419 0.28157055 0.16407695 0.5652109 0.27035666
0.34157556 -0.40525806 -0.5182847 0.34688815 -0.46180937 -0.5266688 -0.28936303 -0.08815056
0.07025552 0.48032713 -0.12751558 -0.42145342 0.15464817 -0.253963 0.3792724 -0.32518265
-0.21851337 -0.54771453 0.24555224 -0.50523186 -0.118813634 -0.31782603 -0.50234354 0.1473546
0.35542917 -0.082205474 0.5517908 0.44989944 0.5141789 -0.15473503 -0.5294905 0.07133371
0.3019938 -0.009268582 0.060662746 -0.29357222 -0.41367728 -0.10455379 0.55965096 0.119633526
-0.10796713 0.54016644 -0.146627 0.119105235 -0.30671132 -0.072853185 0.5238167 0.43749693
0.16645926 -0.5518992 0.15226912 -0.21308923 -0.108685404 0.51217276 0.48713532 0.13966002
-0.4440889 -0.57790506 -0.41116643 0.5668979 -0.15969534 0.48452878 -0.48728943 0.05790834
0.45151103 -0.4750129 0.053528257 -0.124002784 0.4824188 0.2411615 -0.17933524 0.34982687
0.2862479 0.29317355 0.3025593 -0.39316124 -0.0352363 0.23861293 -0.3650294 -0.5011081
-0.56045586 0.51868343 -0.32069632 -0.5294611 -0.10394825 0.40846375 0.08810699 -0.40912005
0.13664865 -0.33159518 0.060712874 -0.5725587 0.24434356 -0.29092833 -0.29659474 0.001181333
0.5331568 -0.12823436 0.22416426 0.11526535 0.41226786 0.40023506 0.42592397 -0.34299317
-0.11277515 0.034126543 0.4088207 -0.3889573 0.4617129 0.48839238 0.14749022 -0.4820944
0.028570525 0.19294588 -0.3284667 0.39484426 -0.28654733 0.26691186 0.56236994 0.44986397
-0.2741 0.4636633 0.57496077 -0.0014191039 0.3635875 0.46073472 0.30555966 -0.441669
00000000: b4f3 833e b886 d8be f010 6ebe b0fb 3c3d
00000010: 2410 f6be fa9d ca3e 36de 4ebe ac96 a9be
00000020: ba64 89be edee 4a3c 13f0 e43e 11b4 0fbe
00000030: c56a 753e 829b 8cbe a514 893d be66 44bc
00000040: 3353 10bf 308e dabe 813e 103f 330c 8f3e
00000050: 516e 9e3e 385f 053e e8e8 fcbe d8be e9be
00000060: 52a9 023e dfce e73c e252 f93e 3a8c 9a3e
00000070: ccc3 e6be 941b 2f3e c87a 373b 3d3f cd3e
00000080: cb51 d03e 70c2 2bbe 33b5 98be 90e6 963d
00000090: 1c6a bbbd 8fd8 8ebc 2b6d fc3e 50d3 b5bd
000000a0: 9c39 cebe ecc7 e03e 80fd 113d e4ad 2d3e
000000b0: 20a1 dabd de7a febe c055 3c3c 3c2b febd
000000c0: f00f 2dbd f8ac d73e da13 10bf 438c 4abe
000000d0: bc34 10bf 8afe bf3e 0bb7 ecbe 48c4 88bd
000000e0: 20bc 043d 3094 b4bd e8d9 ee3d c043 a8be
000000f0: 042a 903e ca03 283e a9b1 103f 306c 8a3e
00000100: fee2 ae3e fc7d cfbe 4eae 04bf 539b b13e
00000110: 4772 ecbe c4d3 06bf 6427 94be 4888 b4bd
00000120: 20e2 8f3d 70ed f53e 7293 02be bec8 d7be
00000130: 175c 1e3e 7007 82be fe2f c23e 577e a6be
00000140: f8c1 5fbe 0537 0cbf 0c72 7b3e e056 01bf
00000150: 9054 f3bd 18ba a2be 9699 00bf 20e4 163e
00000160: d0fa b53e 585b a8bd 2942 0d3f 3859 e63e
00000170: 3aa1 033f dc72 1ebe b08c 07bf 6817 923d
00000180: ee9e 9a3e 40db 17bc 8079 783d 194f 96be
00000190: 82cd d3be 4c20 d6bd 4945 0f3f 6c02 f53d
000001a0: df1d ddbd 5948 0a3f 6325 16be 72ed f33d
000001b0: 4409 9dbe 0d34 95bd da18 063f 99ff df3e
000001c0: 4c74 2a3e 4449 0dbf 70ec 1b3e 1034 5abe
000001d0: 7496 debd c11d 033f cd69 f93e 0903 0f3e
000001e0: 9f5f e3be 96f1 13bf 6884 d2be 3920 113f
000001f0: 2d87 23be 2814 f83e 007e f9be 4c31 6d3d
00000200: 742c e73e e434 f3be 7240 5b3d 2cf5 fdbd
00000210: 99ff f63e 0af3 763e a8a3 37be 821c b33e
00000220: 168f 923e d81a 963e 0de9 9a3e 6e4c c9be
00000230: f053 10bd f356 743e 22e5 babe 9f48 00bf
00000240: 097a 0fbf 70c8 043f 4f32 a4be c38a 07bf
00000250: d2e2 d4bd 2922 d13e 7071 b43d 2f78 d1be
00000260: a0ed 0b3e d8c6 a9be 10ae 783d 3593 12bf
00000270: 3335 7a3e 8ff4 94be 44db 97be f5d6 9a3a
00000280: f77c 083f de4f 03be 518b 653e 3d10 ec3d
00000290: c614 d33e 9ceb cc3e b512 da3e cd9c afbe
000002a0: a8f6 e6bd 46c8 0b3d f250 d13e 6925 c7be
000002b0: a265 ec3e 910e fa3e ad07 173e 14d5 f6be
000002c0: bc0c ea3c 9b93 453e ca2c a8be 0729 ca3e
000002d0: 55b6 92be aca8 883e 7af7 0f3f 9254 e63e
000002e0: d656 8cbe 4765 ed3e a130 133f 3a01 baba
000002f0: 2428 ba3e 6ce5 eb3e 5172 9c3e 7022 e2be

fc1.bias f4 [64]
0.32984987 -0.5269166 -0.25984067 -0.15953064 0.5039399 0.26120985 -0.5272182 -0.4811173
0.28656575 0.19706947 -0.21100716 -0.51470405 -0.08657804 -0.5624043 -0.4904891 -0.19425023
-0.4627176 0.23938505 -0.3084641 -0.4853141 0.3556453 0.10767269 0.052319583 -0.08401832
-0.54454577 0.22169444 -0.53888685 -0.3054519 -0.5278182 -0.49330288 -0.057057276 -0.19237247
-0.45341396 -0.10521838 0.32481965 -0.37275022 0.05553798 -0.15111113 -0.45558292 0.050197944
0.23820874 0.11331936 0.07803585 0.57361484 -0.4653258 -0.07423763 0.062522165 0.34395424
-0.097390145 -0.11678878 -0.339359 -0.15610155 0.43878254 0.24080512 0.30326793 0.50457424
-0.199609 0.16028751 0.117691964 0.09277358 -0.45780343 -0.036604002 -0.4222047 -0.3546243
00000000: 15e2 a83e 02e4 06bf d609 85be 005c 23be
00000010: 3502 013f 4cbd 853e c6f7 06bf 0255 f6be
00000020: bfb8 923e 94cc 493e 4312 58be a5c3 03bf
00000030: d44f b1bd baf9 0fbf 6321 fbbe 88e9 46be
00000040: 52e9 ecbe 5b21 753e 02ef 9dbe 177b f8be
00000050: 2417 b63e 8083 dc3d 0f4d 563d cc11 acbd
00000060: 5a67 0bbf de03 633e 7df4 09bf 3164 9cbe
00000070: 181f 07bf 3292 fcbe e4b4 69bd 4afd 44be
00000080: e025 e8be bc7c d7bd c34e a63e 1ed9 bebe
00000090: cb7b 633d e0bc 1abe 2a42 e9be 5c9c 4d3d
000000a0: feec 733e fb13 e83d 42d1 9f3d 6cd8 123f
000000b0: 2f3f eebe e609 98bd 9f0b 803d c51a b03e
000000c0: 7c74 c7bd f52e efbd 76c0 adbe 16d9 1fbe
000000d0: 1ba8 e03e 9e95 763e ef45 9b3e c72b 013f
000000e0: 4d66 4cbe 6922 243e 7c08 f13d 1300 be3d
000000f0: 3665 eabe 14ee 15bd 372b d8be 5191 b5be

fc2.weight f4 [64, 64]
0.05859092 -0.095302224 -0.03590913 -0.014215618 -0.112555414 0.035168126 0.02758269 0.07769637
-0.021204188 0.06093368 0.108775586 0.10633114 -0.10828462 -0.039772138 0.05433598 0.11868489
-0.06994338 -0.07955003 0.0428582 0.04381326 -0.073435575 0.11468637 0.048141435 -0.05374819
0.10107428 -0.043308437 0.037618726 -0.085261285 0.057793006 0.026196465 -0.12123372 -0.049070656
0.10058494 -0.04930629 -0.11484437 -0.1236677 -0.0030929297 -0.020132855 0.099237114 0.06686571
-0.10394977 -0.08856365 0.026699945 0.023120448 0.0057923794 0.057593748 0.012059048 -0.10377653
-0.118988246 -0.013757214 -0.093135834 -0.01786469 -0.121158406 -0.12105259 -0.071316406 -0.019940376
-0.09429358 -0.03385046 -0.022450939 -0.03993258 -0.066844404 -0.04242812 0.058591455 -0.021375686
0.07680288 0.069046795 -0.013764992 -0.06253575 0.065827966 -0.111173645 0.06150856 0.08238
0.014197177 0.10864133 -0.017246593 -0.06408453 0.07809403 -0.017847344 0.018334791 0.026560709
0.070391715 0.115330994 0.10587175 0.029343843 -0.11009267 0.11737379 -0.033521876 0.047773525
-0.1033618 -0.10461676 -0.08577229 0.03357151 -0.11347541 -0.00066266954 -0.027768623 -0.10145955
-0.09715238 -0.058757782 -0.10946124 0.10501732 -0.016873151 -0.02781342 -0.08552416 0.0006891929
0.08866727 -0.037670854 -0.00871866 -0.07641329 0.12450241 0.08641026 0.070034295 0.039463136
-0.07330252 0.06721017 -0.01819782 0.024523735 0.11069737 -0.10395477 -0.045864426 0.079449914
-0.023893515 0.0018497356 0.09792929 0.123399645 0.035104915 0.11012308 0.07173991 0.08067772
0.010558933 0.115839824 -0.0013815165 0.11048028 0.10729524 -0.055123754 -0.11225183 0.10079585
-0.03456926 0.12041937 0.12649027 0.067615375 -0.017165314 0.06312421 -0.06481388 0.024362072
0.025382757 -0.024093397 0.08750589 0.007849723 0.09466039 -0.017432012 -0.0039597014 -0.045199975
0.04978706 -0.1202632 -0.12481193 -0.079794005 -0.07605593 -0.048552126 0.07242041 -0.052553087
-0.074028164 -0.008351639 -0.106943265 0.03774914 0.04583462 0.04787449 0.04293576 0.06813455
-0.06725347 0.09024223 0.03337744 -0.009367303 -0.017302725 -0.11119223 -0.022142604 -0.108099304
-0.117440455 -0.100950494 0.042138442 -0.025456756 0.10189868 0.053021602 -0.11413586 0.08995834
0.10425925 0.06364909 -0.04665587 0.058520664 0.03003917 0.046198875 -0.029462066 0.05809368
0.028336657 0.030223295 -0.124690145 -0.08471918 0.11048831 0.11085323 0.075992204 -0.046871364
0.110275336 -0.014959598 0.050727766 0.08660439 -0.004650014 -0.033635497 0.032803237 0.1227527
-0.01582703 0.07771095 -0.024180248 -0.044698045 -0.058537077 -0.05240765 0.033783287 0.011268362
-0.12165895 0.030351616 0.06504811 -0.10892716 -0.12397033 0.09120396 0.06586982 0.026123613
-0.1219836 0.019951135 -0.091750115 -0.07234162 0.11587978 0.0022435188 -0.062200233 0.043629896
0.0033082585 -0.06318295 0.111568496 -0.017115735 0.08598496 -0.078080475 -0.080261506 -0.027333856
-0.0017168224 -0.10953212 -0.12236796 0.05636622 -0.094976805 -0.07246965 -0.093203075 -0.015399141
-0.024610966 0.021910595 -0.112807766 -0.058528207 0.12650277 0.07049382 -0.033792585 0.12187429
00000000: 08fd 6f3d d02d c3bd 7415 13bd a0e8 68bc
00000010: 7483 e6bd 740c 103d 18f5 e13c 461f 9f3d
00000020: 68b4 adbc 9895 793d bcc5 de3d 24c4 d93d
00000030: 54c4 ddbd 1ce8 22bd 688f 5e3d 1011 f33d
00000040: 7a3e 8fbd 20eb a2bd 148c 2f3d 8875 333d
00000050: 6465 96bd b0e0 ea3d f42f 453d 1027 5cbd
00000060: 0800 cf3d 3064 31bd 1816 1a3d 789d aebd
00000070: 5cb8 6c3d f899 d63c 6249 f8bd 50fe 48bd
00000080: 7aff cd3d 64f5 49bd 8633 ebbd 7e45 fdbd
00000090: c0b2 4abb a8ed a4bc d43c cb3d e4f0 883d
000000a0: 9ee3 d4bd dc60 b5bd d8b9 da3c 1867 bd3c
000000b0: 00ce bd3b 6ce7 6b3d 5093 453c ca88 d4bd
000000c0: 1cb0 f3bd f065 61bc 00be bebd f858 92bc
000000d0: e621 f8bd 6cea f7bd 560e 92bd 005a a3bc
000000e0: fe1c c1bd c8a6 0abd 08eb b7bc 5890 23bd
000000f0: b8e5 88bd 1cc9 2dbd 98fd 6f3d 101c afbc
00000100: d44a 9d3d 6868 8d3d 9086 61bc be12 80bd
00000110: d0d0 863d 02af e3bd 66f0 7b3d d8b6 a83d
00000120: 479b 683c 587f de3d ba48 8dbc c03e 83bd
00000130: c3ef 9f3d 9834 92bc d832 963c d895 d93c
00000140: 8829 903d a832 ec3d 4ad3 d83d 8062 f03c
00000150: 4478 e1bd ab61 f03d 3c4e 09bd 2cae 433d
00000160: 5aaf d3bd 5041 d6bd 62a9 afbd 4882 093d
00000170: cc65 e8bd 00b7 2dba 067b e3bc 06ca cfbd
00000180: d4f7 c6bd 00ac 70bd 372d e0bd 5213 d73d
00000190: 9039 8abc f8d8 e3bc 4a27 afbd f4aa 343a
000001a0: 3097 b53d c14c 1abd b6d8 0ebc 927e 9cbd
000001b0: 1ffb fe3d ddf7 b03d 246e 8f3d 19a4 213d
000001c0: a21f 96bd 7ca5 893d 9813 95bc 00e6 c83c
000001d0: 4db5 e23d 3de6 d4bd 56dc 3bbd a3b6 a23d
000001e0: 55bc c3bc d472 f23a 278f c83d f4b8 fc3d
000001f0: 2cca 0f3d 3688 e13d 60ec 923d 5c3a a53d
00000200: 60ff 2c3c 6e3d ed3d 0014 b5ba 7c43 e23d
00000210: 9bbd db3d 72c9 61bd 4ae4 e5bd 0e6e ce3d
00000220: 7f98 0dbd 6e9e f63d aa86 013e ee79 8a3d
00000230: 469e 8cbc 4447 813d 24bd 84bd f892 c73c
00000240: 80ef cf3c 845f c5bc 4a36 b33d 209c 003c
00000250: 4edd c13d 94cd 8ebc 62c0 81bb 9c23 39bd
00000260: 84ed 4b3d 8d4c f6bd 669d ffbd 0a6b a3bd
00000270: 36c3 9bbd 98de 46bd 2751 943d e841 57bd
00000280: 149c 97bd 50d5 08bc 1205 dbbd d89e 1a3d
00000290: 15bd 3b3d 0b18 443d 68dd 2f3d 208a 8b3d
000002a0: 30bc 89bd ebd0 b83d c8b6 083d 5179 19bc
000002b0: 72be 8dbc c0b8 e3bd 6864 b5bc 2b63 ddbd
000002c0: 9f84 f0bd 22bf cebd 5c99 2c3d b08a d0bc
000002d0: 41b0 d03d 2e2d 593d 10c0 e9bd 143c b83d
000002e0: e085 d53d 745a 823d 3a1a 3fbd 5db3 6f3d
000002f0: b514 f63c 083b 3d3d 6e5a f1bc a3f3 6d3d
00000300: 4722 e83c d896 f73c 8c5d ffbd 4081 adbd
00000310: b247 e23d 0507 e33d cda1 9b3d 30fc 3fbd
00000320: 09d8 e13d 1a19 75bc ebc7 4f3d a45d b13d
00000330: 255f 98bb 60c5 09bd b05c 063d c465 fb3d
00000340: b0a7 81bc eb26 9f3d a815 c6bc 4c15 37bd
00000350: 93c4 6fbd 67a9 56bd 5860 0a3d f09e 383c
00000360: 5428 f9bd f4a3 f83c f237 853d 3415 dfbd
00000370: 28e4 fdbd 24c9 ba3d c2e6 863d 3001 d63c
00000380: 8ad2 f9bd 9070 a33c 7ce7 bbbd d827 94bd
00000390: 6152 ed3d 0008 133b acc5 7ebd 43b5 323d
000003a0: 5ecf 583b 1066 81bd 067e e43d 4c36 8cbc
000003b0: e218 b03d a8e8 9fbd 2560 a4bd 40eb dfbc
000003c0: 0007 e1ba 6052 e0bd 0e9c fabd 44e0 663d
000003d0: 3383 c2bd f86a 94bd 41e1 bebd ae4c 7cbc
000003e0: f09c c9bc d97d b33c c207 e7bd 46bb 6fbd
000003f0: f189 013e 105f 903d 186a 0abd 3a99 f93d

fc2.bias f4 [64]
-0.08492428 -0.116401084 -0.026950043 0.006240877 0.044260867 -0.05666575 0.053863443 0.11632137
0.11645626 -0.08994508 0.060358543 0.000117193136 0.067864865 0.06523885 -0.034701556 0.08079504
0.03822506 -0.05341425 0.04530272 0.10690609 -0.015264209 -0.0011737947 0.041331578 0.11311957
-0.036429115 -0.10987304 0.029723808 0.04123926 0.005839005 -0.0014472493 0.015621668 0.069714665
0.07679757 0.01750476 0.09325342 -0.05369611 -0.1198627 0.10161202 -0.10359574 0.07155397
0.083830506 0.120275885 -0.108100176 -0.07563479 -0.0199218 0.075418204 -0.11649756 0.046944324
0.12227902 -0.11512883 -0.034923833 0.0533407 -0.039346635 0.09579729 -0.021694556 0.03713263
0.10432278 0.05797273 -0.013586156 -0.061607197 -0.0056536132 -0.08127672 -0.11150848 -0.011306167
00000000: c8ec adbd b163 eebd 56c6 dcbc 4580 cc3b
00000010: e24a 353d 581a 68bd ea9f 5c3d e639 ee3d
00000020: 9f80 ee3d 2035 b8bd 853a 773d 96c5 f538
00000030: bcfc 8a3d f29b 853d 3823 0ebd df77 a53d
00000040: e191 1c3d e7c8 5abd 588f 393d 95f1 da3d
00000050: bc16 7abc 04da 99ba 4d4b 293d 3cab e73d
00000060: b236 15bd 1e05 e1bd 587f f33c 80ea 283d
00000070: 2055 bf3b a1b1 bdba 06f2 7f3c 90c6 8e3d
00000080: 0b48 9d3d 2466 8f3c a6fb be3d 74f0 5bbd
00000090: 937a f5bd f619 d03d 012a d4bd e38a 923d
000000a0: 54af ab3d 3453 f63d a063 ddbd 6ae6 9abd
000000b0: 0b33 a3bc dc74 9a3d 4696 eebd b148 403d
000000c0: 6c6d fa3d aac8 ebbd 4b0c 0fbd c77b 5a3d
000000d0: f029 21bd 5f31 c43d c8b8 b1bc 6218 183d
000000e0: 2fa7 d53d d074 6d3d 7898 5ebc d457 7cbd
000000f0: f241 b9bb 6974 a6bd 8f5e e4bd 803d 39bc

fc3.weight f4 [1, 64]
-0.12455498 -0.09076285 0.05562035 0.033397485 0.030199189 -0.07376745 -0.07522871 -0.1072308
-0.022110306 -0.08177999 0.11174119 0.0569372 -0.09071353 -0.01567878 0.014968097 -0.08057518
-0.046167973 0.12682731 -0.029349856 0.03528082 -0.025495365 0.05350834 0.11679256 0.016911369
0.06929078 0.063361004 -0.10247171 0.070307896 0.06576231 -0.041688822 0.02474293 0.050926093
-0.022250718 0.12361827 0.09902522 0.07009333 -0.099761575 -0.041110255 -0.1027798 -0.100112125
0.09972814 -0.07763857 0.045932308 -0.11598764 -0.0676892 -0.05584754 0.07169254 -0.0001948353
0.037798926 0.062336296 -0.05854716 0.08277907 0.04927752 -0.031888388 0.031902686 0.07897608
-0.03658013 0.026700243 0.05460426 -0.07831265 -0.006605425 -0.08221221 -0.11099054 -0.06630705
00000000: ae16 ffbd e0e1 b9bd 2ad2 633d cdcb 083d
00000010: 4a64 f73c 6413 97bd 8311 9abd d29b dbbd
00000020: ac20 b5bc 447c a7bd 91d8 e43d fb36 693d
00000030: 04c8 b9bd c970 80bc c03c 753c 9a04 a5bd
00000040: a11a 3dbd 05df 013e 1c6f f0bc 9f82 103d
00000050: a8db d0bc 902b 5b3d f030 ef3d b689 8a3c
00000060: 53e8 8d3d 6ac3 813d b0dc d1bd 96fd 8f3d
00000070: 64ae 863d e6c1 2abd afb1 ca3c e197 503d
00000080: 2347 b6bc 932b fd3d bccd ca3d 188d 8f3d
00000090: cc4f ccbd 3a63 28bd 377e d2bd 9607 cdbd
000000a0: 443e cc3d f800 9fbd 8423 3c3d ee8a edbd
000000b0: a3a0 8abd 64c0 64bd 8ad3 923d b44c 4cb9
000000c0: 0cd3 1a3d 5854 7f3d 26cf 6fbd 1388 a93d
000000d0: 3ad7 493d 669d 02bd 64ac 023d 36be a13d
000000e0: 0cd5 15bd 78ba da3c b7a8 5f3d 6262 a0bd
000000f0: 5272 d8bb e05e a8bd 024f e3bd fecb 87bd
