public/api/Data_Sources/measles_model.pth (torch, 20356 bytes, 5 tensors)

fc1.weight f4 [64, 2]
0.3860046 -0.13086735 -0.530039 0.27621824 -0.50361395 -0.016747713 -0.58456236 -0.0061756372
-0.62123746 0.41397935 0.3888984 0.10255341 -0.5933138 -0.5869356 0.10265347 0.35249603
-0.084004164 0.25285494 0.031605344 0.40365878 -0.6789391 0.6009932 0.03297631 -0.30833948
0.08179164 -0.3406888 0.69898057 -0.01260751 -0.514601 -0.36773437 0.5446432 0.33764714
-0.1579662 -0.023688376 -0.5087752 0.57241863 -0.188954 -0.5485639 -0.316618 -0.6577566
0.5465688 0.6845146 -0.49038732 -0.2373789 0.40279707 0.69290334 0.46690834 -0.13822618
-0.49200284 -0.34680727 -0.11750877 0.09330678 -0.39472765 -0.5335472 -0.6437985 0.39218348
-0.54087377 -0.42425758 -0.5435525 -0.58518225 -0.54495496 -0.5561149 -0.5567115 0.656665
-0.27689484 -0.67856026 0.045890983 -0.31979895 0.6585367 -0.5539139 0.24940668 -0.47395885
-0.45725024 0.21994722 0.2760195 -0.47007024 0.29055706 -0.5354803 0.59408915 -0.5093361
-0.25359666 0.3363387 0.37905484 -0.398041 0.65040296 -0.6291622 -0.18896592 0.036278248
0.08669476 0.11676632 -0.5880123 0.34197885 -0.50909406 -0.27392367 -0.009447277 -0.06582552
-0.19995695 -0.19422984 0.4081476 0.2026038 -0.40459776 -0.09195095 0.48621443 0.5437032
0.48238102 -0.2366426 -0.35275993 0.5401371 0.5140515 -0.060938317 0.3052558 0.5990731
-0.6918267 -0.2093251 0.23486231 -0.5580165 -0.17834955 0.21285766 -0.62466013 0.3931312
0.2492054 -0.5458911 0.4156488 0.49772137 -0.23295727 0.14667594 0.36771354 -0.29746085
00000000: 65a2 c53e 1702 06be a3b0 07bf 7a6c 8d3e
00000010: d8ec 00bf 8032 89bc e1a5 15bf 005d cabb
00000020: 6b09 1fbf 1af5 d33e b11d c73e 8607 d23d
00000030: 6ae3 17bf 6941 16bf fc3b d23d 5c7a b43e
00000040: 600a acbd 3476 813e 9b74 013d 5dac ce3e
00000050: f4ce 2dbf b1da 193f 2b12 073d acde 9dbe
00000060: 6082 a73d c36e aebe 64f0 323f bb8f 4ebc
00000070: e4bc 03bf ae47 bcbe bd6d 0b3f 16e0 ac3e
00000080: e4c1 21be 200e c2bc 173f 02bf 078a 123f
00000090: 287d 41be af6e 0cbf c11b a2be bd62 28bf
000000a0: efeb 0b3f 593c 2f3f 0c14 fbbe 7413 73be
000000b0: 6b3b ce3e 1d62 313f 9c0e ef3e 2a8b 0dbe
000000c0: cce7 fbbe b990 b1be 70a8 f0bd a017 bf3d
000000d0: be19 cabe 8d96 08bf facf 24bf 46cc c83e
000000e0: b476 0abf 4a38 d9be 4226 0bbf 81ce 15bf
000000f0: 2b82 0bbf 8c5d 0ebf a584 0ebf 331b 283f
00000100: 29c5 8dbe 20b6 2dbf 2ff8 3b3d b0bc a3be
00000110: dc95 283f 4dcd 0dbf 7764 7f3e bcaa f2be
00000120: b41c eabe d839 613e 6e52 8d3e 0cad f0be
00000130: e5c3 943e 3d15 09bf 3a16 183f da63 02bf
00000140: 6cd7 81be 9634 ac3e 7a13 c23e 08cc cbbe
00000150: cf80 263f c610 21bf 4880 41be 8098 143d
00000160: 068d b13d 2e23 ef3d f987 16bf da17 af3e
00000170: fd53 02bf b93f 8cbe c0c8 1abc 88cf 86bd
00000180: 84c1 4cbe 30e4 46be b9f8 d03e 5f77 4f3e
00000190: 7027 cfbe c850 bcbd 19f1 f83e 2230 0b3f
000001a0: a5fa f63e 7052 72be f39c b4be 6d46 0a3f
000001b0: e198 033f 759a 79bd 7d4a 9c3e db5c 193f
000001c0: 8e1b 31bf 5259 56be bf7f 703e 2bda 0ebf
000001d0: 44a1 36be 5cf7 593e bae9 1fbf 7e48 c93e
000001e0: b32f 7f3e 85bf 0bbf ebcf d43e 56d5 fe3e
000001f0: 5a8c 6ebe 3832 163e f344 bc3e ca4c 98be

fc1.bias f4 [64]
0.05743916 0.64896303 0.62975055 0.52345806 -0.287886 0.61312836 0.2096982 -0.08165393
-0.187361 0.26313195 -0.31443065 -0.60581446 0.52193815 0.46489772 -0.69324374 0.5465129
0.22973841 0.40908486 -0.24219424 -0.5549769 0.17456175 0.1438294 -0.38510576 0.2631611
-0.6655868 0.046060264 0.57536143 -0.031997025 0.3562644 -0.0022140741 -0.27130195 0.69344836
0.66842073 -0.12728998 0.27828217 -0.31493735 0.43410677 -0.6839603 -0.5163963 -0.3341634
0.25098193 -0.22373277 -0.49872473 0.38274425 -0.2987405 0.03612846 0.09420097 -0.3859175
-0.68356967 -0.41374192 -0.46095914 -0.18149543 -0.045160525 0.51426023 0.6554598 -0.03717422
0.69277376 -0.45436788 -0.21158022 0.111533344 0.70491105 -0.52560216 -0.19670987 0.6008753
00000000: 5345 6b3d 7122 263f 5537 213f 5901 063f
00000010: cb65 93be fbf5 1c3f 20bb 563e 2d3a a7bd
00000020: 90db 3fbe 3bb9 863e 0efd a0be a816 1bbf
00000030: bd9d 053f 1307 ee3e 6c78 31bf 45e8 0b3f
00000040: 8c40 6b3e 9273 d13e c401 78be f712 0ebf
00000050: 51c0 323e 0448 133e 952c c5be 0dbd 863e
00000060: e663 2abf b0a9 3c3d e34a 133f 500f 03bd
00000070: 4a68 b63e 001a 11bb 17e8 8abe d585 313f
00000080: 9f1d 2b3f 4e58 02be 007b 8e3e 783f a1be
00000090: 3e43 de3e 0618 2fbf 8c32 04bf 7717 abbe
000000a0: b480 803e 341a 65be d958 ffbe 0ef7 c33e
000000b0: 84f4 98be 70fb 133d 70ec c03d fb96 c5be
000000c0: 6cfe 2ebf fbd5 d3be d602 ecbe f0d9 39be
000000d0: 3efa 38bd 8fa6 033f 37cc 273f ff43 18bd
000000e0: 9f59 313f e8a2 e8be 7ca8 58be 986b e43d
000000f0: 0d75 343f dd8d 06bf 506e 49be f7d2 193f

fc2.weight f4 [64, 64]
-0.08401403 -0.009003654 0.09178026 -0.016692474 0.10040587 -0.027494982 0.07218753 0.06966062
-0.07994777 0.018308163 -0.08272736 0.04726766 0.100099266 0.10302903 0.09967622 0.011352956
0.10696022 -0.045324534 -0.06641942 0.0022899806 0.09542182 -0.07005066 -0.0012490004 0.060886398
0.106951535 0.11183241 -0.03156902 -0.068402395 0.07239662 0.0032749474 -0.11908859 0.07796949
0.10113023 -0.11293174 -0.055605993 0.10229918 0.047080174 -0.05494328 -0.09846108 -0.055155233
0.0383763 0.02028869 -0.10506727 -0.08415568 0.029306442 0.12087025 -0.10370812 -0.08267243
0.071909204 -0.045147046 0.10919325 0.08721556 0.06436768 0.11879009 0.050411254 -0.040284917
-0.040422365 -0.04055485 0.051434994 0.107715845 -0.010565817 -0.11593181 -0.10536882 0.016738415
0.030435815 0.004771054 0.034280404 0.014624804 -0.11285649 0.06399792 0.00983201 -0.12155577
-0.0013300627 -0.094052695 -0.09841432 0.0327248 -0.06299396 -0.08974575 -0.09646034 -0.0058722817
0.053083986 0.0015328974 -0.11523086 -0.01922673 0.05957048 -0.038011402 -0.0589558 -0.048550125
0.05280499 -0.07166168 -0.109711796 0.0075610876 0.09221935 0.09352848 0.022488877 0.062490225
0.07089406 0.097648256 0.07722259 -0.027260471 0.004934758 0.01529592 -0.1166826 -0.09196291
-0.089686155 -0.09876964 0.071452774 -0.025417835 -0.024536703 0.03332047 0.100525245 -0.03112413
0.11562331 0.11477061 0.092035264 0.06289027 -0.080653824 -0.051841736 -0.049580198 0.06971318
-0.004661903 0.09260496 0.017980188 0.061779782 0.08000869 -0.06474366 0.11226328 0.031005787
-0.049081385 0.05799775 0.05887793 0.115218714 0.09215601 0.013437837 -0.039901257 0.053095102
0.021179691 -0.030691668 0.005779743 0.030995145 0.0034613013 -0.032000735 -0.03215258 -0.0016758591
0.024862275 -0.009223819 -0.076709405 0.09462617 0.117808014 -0.06774232 -0.07424459 0.041270375
-0.08237925 -0.07582472 -0.0047782212 0.060136423 -0.02796869 0.10025951 0.11768675 -0.026814356
-0.061883718 0.098791316 -0.03989348 -0.030455247 0.058973342 -0.022896111 0.06763296 -0.011649579
-0.07013981 0.024153352 0.015706211 0.051380128 0.040842935 -0.009247035 -0.11753851 -0.104392916
0.030461416 -0.0054887235 0.098388806 0.007546261 -0.101200685 -0.005800277 0.11104943 0.006933093
0.05912952 -0.09995046 0.1112158 -0.085533276 0.015381306 -0.044643655 -0.08070113 -0.05916272
0.022482755 -0.021787465 0.124895334 -0.067938626 -0.001923427 0.05247826 0.12200743 0.07283269
-0.12006375 -0.0667389 -0.030781835 0.06864326 0.12670289 0.029299267 -0.076394126 0.10576415
0.0389985 -0.112441406 -0.09980519 0.10932183 0.08019233 0.042041108 -0.040946625 -0.12128173
0.016477153 -0.07814965 -0.09095758 0.113500625 -0.065527454 -0.061988056 0.0316232 -0.10555802
-0.08734119 0.008623197 -0.08634748 0.11765639 -0.06224881 0.066315 -0.06083933 -0.007240707
-0.081945375 0.10270356 -0.018934 -0.053429723 0.0011468802 0.08501111 -0.011939481 -0.085180864
0.030419663 -0.019677842 0.013069749 0.02408534 0.026584571 -0.022326276 -0.04822362 -0.08549429
-0.10731746 0.09203006 -0.08416928 0.060356677 0.06659026 0.022174302 0.08126885 -0.08370489
00000000: 8c0f acbd 1084 13bc 4af7 bb3d a8be 88bc
00000010: 98a1 cd3d 283d e1bc 0ed7 933d 3aaa 8e3d
00000020: a8bb a3bd 00fb 953c f66c a9bd bc9b 413d
00000030: d800 cd3d e200 d33d 0c23 cc3d c001 3a3c
00000040: f60d db3d 38a6 39bd e806 88bd 8013 163b
00000050: 846c c33d b876 8fbd 80b5 a3ba 0464 793d
00000060: 6809 db3d 6408 e53d 844e 01bd 8e16 8cbd
00000070: ae44 943d 80a0 563b b8e4 f3bd 78ae 9f3d
00000080: 5e1d cf3d c248 e7bd 1cc3 63bd 3c82 d13d
00000090: 24d7 403d 340c 61bd f6a5 c9bd 74ea 61bd
000000a0: 7830 1d3d 7834 a63c 822d d7bd d059 acbd
000000b0: 1014 f03c d28a f73d ec64 d4bd 2a50 a9bd
000000c0: 2245 933d 1cec 38bd b6a0 df3d 129e b23d
000000d0: 34d3 833d 3848 f33d 087c 4e3d cc01 25bd
000000e0: ec91 25bd d81c 26bd 80ad 523d 209a dc3d
000000f0: 401c 2dbc a86d edbd 9ccb d7bd 001f 893c
00000100: 8854 f93c 8056 9c3b 9c69 0c3d e09c 6f3c
00000110: 4e21 e7bd 5711 833d 7016 213c 3bf2 f8bd
00000120: 8055 aeba b39e c0bd 728d c9bd 710a 063d
00000130: fa02 81bd 9fcc b7bd 008d c5bd 456c c0bb
00000140: 986e 593d 80eb c83a 28fe ebbd 6081 9dbc
00000150: 2d00 743d d8b1 1bbd a37b 71bd 7fdc 46bd
00000160: 0c4a 583d 5cc3 92bd 94b0 e0bd 00c3 f73b
00000170: 80dd bc3d dc8b bf3d 983a b83c c0f5 7f3d
00000180: e830 913d cffb c73d e126 9e3d 5a51 dfbc
00000190: c0b3 a13b bd9b 7a3c 49f7 eebd 0d57 bcbd
000001a0: 60ad b7bd bd47 cabd d555 923d 1039 d0bc
000001b0: 3201 c9bc 0c7b 083d 2ee0 cd3d 08f8 febc
000001c0: eacb ec3d db0c eb3d fc7c bc3d 9dcc 803d
000001d0: d52d a5bd 0058 54bd 9b14 4bbd c9c5 8e3d
000001e0: e0c2 98bb aba7 bd3d 304b 933c cc0c 7d3d
000001f0: 99db a33d 5398 84bd 4aea e53d d9ff fd3c
00000200: 9009 49bd 0c8f 6d3d fc29 713d caf7 eb3d
00000210: 4abc bc3d 602a 5c3c 806f 23bd 407a 593d
00000220: 0881 ad3c 186d fbbc 0064 bd3b 88e9 fd3c
00000230: 00d7 623b 3413 03bd 6cb2 03bd 80a8 dbba
00000240: f8ab cb3c 801f 17bc d219 9dbd 5ecb c13d
00000250: 5445 f13d 7cbc 8abd 8c0d 98bd 200b 293d
00000260: 74b6 a8bd fe49 9bbd a092 9cbb 9c51 763d
00000270: 981e e5bc dc54 cd3d c005 f13d c8a9 dbbc
00000280: c879 7dbd 1a53 ca3d 5867 23bd 487d f9bc
00000290: 088e 713d a090 bbbc 2683 8a3d e0dd 3ebc
000002a0: 76a5 8fbd 40dd c53c 50aa 803c f873 523d
000002b0: ec4a 273d e080 17bc 08b8 f0bd f4cb d5bd
000002c0: 388a f93c c0da b3bb 1280 c93d a046 f73b
000002d0: 4e42 cfbd 4010 bebb e26d e33d 002f e33b
000002e0: cc31 723d d4b2 ccbd 1cc5 e33d 122c afbd
000002f0: e001 7c3c 44dc 36bd a246 a5bd 9c54 72bd
00000300: c12d b83c a07b b2bc 20c9 ff3d 6823 8bbd
00000310: 801b fcba 72f3 563d 08df f93d 4e29 953d
00000320: fce3 f5bd 68ae 88bd 302a fcbc d694 8c3d
00000330: 67be 013e 0405 f03c 8674 9cbd e09a d83d
00000340: e4bc 1f3d ae47 e6bd aa66 ccbd 20e4 df3d
00000350: e03b a43d 4c33 2c3d a6b7 27bd 8e62 f8bd
00000360: 18fb 863c ec0c a0bd f847 babd 0473 e83d
00000370: 4233 86bd 30e7 7dbd 5487 013d ce2e d8bd
00000380: f0df b2bd 4f48 0d3c f3d6 b0bd d5f5 f03d
00000390: 9cf8 7ebd 29d0 873d a932 79bd 7443 edbb
000003a0: fad2 a7bd 3e56 d23d 7a1b 9bbc 20d9 5abd
000003b0: ea52 963a 4e1a ae3d d09d 43bc 4e73 aebd
000003c0: a832 f93c 6d33 a1bc 8022 563c 9e4e c53c
000003d0: e3c7 d93c 98e5 b6bc 2186 45bd a117 afbd
000003e0: 42c9 dbbd 427a bc3d f260 acbd 9038 773d
000003f0: 7960 883d e2a6 b53c 4870 a63d 786d abbd

fc2.bias f4 [64]
-0.10373615 -0.00045608229 0.037469417 0.04678881 -0.12683353 -0.08243783 -0.08812256 0.0530452
-0.09038572 -0.032544795 -0.063198216 0.003243491 -0.11645513 -0.06449646 0.10774857 0.005067989
0.12065317 -0.04739806 -0.026812574 -0.11852095 -0.013741302 0.10464238 0.021536365 -0.014995962
0.09237367 -0.09684733 -0.07606421 -0.054020256 -0.087675825 -0.112649634 0.032083467 -0.019893704
-0.11536987 0.033231705 -0.059569612 -0.004553631 0.050482135 -0.06705462 0.035195038 0.066637546
0.06633809 -0.052354533 0.1051009 -0.043482125 0.0166111 -0.058929175 -0.025818884 0.08037861
0.0710035 -0.0396861 -0.01913227 -0.09478279 0.01531066 -0.01998234 0.018778693 -0.065013915
0.030136019 0.021100253 -0.023569763 -0.03535585 0.047080044 0.112927556 0.07675457 0.090966746
00000000: 9e73 d4bd 541e efb9 8879 193d a0a5 3f3d
00000010: a6e0 01be 2ad5 a8bd 9a79 b4bd ec45 593d
00000020: 261c b9bd b14d 05bd 116e 81bd c090 543b
00000030: 0780 eebd b816 84bd 48ab dc3d 6011 a63b
00000040: 0219 f73d 7824 42bd 0ba6 dbbc 1dbb f2bd
00000050: 3323 61bc be4e d63d 086d b03c a0b1 75bc
00000060: 682e bd3d e557 c6bd 8dc7 9bbd 5844 5dbd
00000070: 628f b3bd dab4 e6bd f469 033d 1ff8 a2bc
00000080: 0a47 ecbd f81d 083d 44ff 73bd a036 95bb
00000090: 5bc6 4e3d ef53 89bd ac28 103d 4479 883d
000000a0: 44dc 873d b571 56bd 243f d73d 501a 32bd
000000b0: 0014 883c b85f 71bd 2082 d3bc 8a9d a43d
000000c0: 486a 913d e48d 22bd 47bb 9cbc 7b1d c2bd
000000d0: 90d9 7a3c 01b2 a3bc c6d5 993c 0426 85bd
000000e0: d0df f63c 70da ac3c 6015 c1bc 4cd1 10bd
000000f0: 01d7 403d 9046 e73d 8031 9d3d c64c ba3d

fc3.weight f4 [1, 64]
-0.0010067075 -0.08377474 -0.033849806 0.095986426 -0.050191738 -0.08134269 -0.047390312 -0.065538555
-0.122619 -0.017265996 -0.04358597 -0.04183337 -0.08666491 -0.009843886 -0.0575614 0.05954112
0.054003324 -0.12105891 0.06545098 0.035143144 -0.120583095 0.019747242 -0.04007849 -0.0345916
-0.055734277 0.01877931 -0.091894455 -0.071441896 0.041764796 0.08772034 -0.04363835 -0.11056979
-0.03702791 0.04338458 0.023758993 0.08622663 0.07514693 -0.11825907 0.07237902 0.04145278
-0.033295587 0.07182715 0.043914616 0.071669534 0.10018696 0.07168715 -0.0515185 0.034904286
0.076432735 -0.045797825 0.01856958 0.12745787 -0.00202699 -0.12050376 -0.03906456 0.055893257
-0.04737787 0.057441562 -0.096726425 0.015057281 0.06037642 0.10528865 -0.0058071464 0.03742394
00000000: 80f3 83ba 1792 abbd 18a6 0abd 8894 c43d
00000010: da95 4dbd ff96 a6bd 581c 42bd 1439 86bd
00000020: ac1f fbbd 6b71 8dbc 3487 32bd 7859 2bbd
00000030: 5f7d b1bd 4048 21bc 81c5 6bbd 64e1 733d
00000040: 9732 5d3d bced f7bd 2a0b 863d 42f2 0f3d
00000050: 45f4 f6bd f8c4 a13c 5829 24bd ecaf 0dbd
00000060: a049 64bd 11d7 993c 2933 bcbd 2150 92bd
00000070: 9011 2b3d b9a6 b33d 20be 32bd 6a72 e2bd
00000080: 94aa 17bd 08b4 313d 38a2 c23c 9697 b03d
00000090: a2e6 993d d031 f2bd 743b 943d 64ca 293d
000000a0: f460 08bd 1d1a 933d d0df 333d 7ac7 923d
000000b0: d22e cd3d b6d0 923d 1005 53bd ccf7 0e3d
000000c0: c488 9c3d 8096 3bbd 3b1f 983c 5184 023e
000000d0: 40d7 04bb adca f6bd 2902 20bd 54f0 643d
000000e0: 4c0f 42bd d847 6b3d 8118 c6bd d0b2 763c
000000f0: 444d 773d 93a1 d73d e049 bebb d849 193d
