public/api/Data_Sources/mumps_model.pth (torch, 20592 bytes, 5 tensors)

fc1.weight f4 [64, 3]
000000 ab 14 fe 3e c9 6d 8f be 54 e3 dc 3e 60 9c 9c bd
       0.49625143 -0.28013447 0.43142188 -0.07647014
000010 8a 54 a7 3e 17 fd 87 3e f0 d1 2b be 1b 47 b0 be
       0.32681686 0.2656028 -0.16779304 -0.3442925
000020 a5 bc b1 be ab 03 ff be 71 21 d3 3e 8d 98 c4 be
       -0.34714237 -0.49807486 0.4123645 -0.38397637
000030 10 47 fc be 95 27 0d 3d f0 f3 7c 3e 94 fb 0d 3e
       -0.49272966 0.034461576 0.2470243 0.138655
000040 6e f6 a4 be 50 55 d3 3e 9a 3f 65 be 54 69 d5 be
       -0.3221926 0.41276026 -0.22387543 -0.4168192
000050 9c 01 1b 3e 70 2f 1c 3e 00 3f fa 3b 32 f1 6b be
       0.15137333 0.15252471 0.0076369047 -0.23041227
000060 ca ca d9 bd 0f cc 07 3e ba fc 2c 3e ee 95 54 3e
       -0.10634382 0.13261436 0.16893283 0.20760319
000070 cb 39 bb be ce d5 9a be 2e a8 7c be 71 0e 85 3e
       -0.3656753 -0.30241245 -0.2467353 0.2598758
000080 9d ae 08 3f 9d 88 8e 3e bc d1 78 3e ec 28 ac be
       0.5339144 0.27838603 0.24298757 -0.3362497
000090 3e c5 f0 3e 4b 7a f3 be 80 32 00 bf 93 58 5a 3e
       0.47025484 -0.4755424 -0.50077057 0.21322851
0000a0 9b a2 7c be fb 84 f9 3e 77 9a bb 3e 92 7e 81 3e
       -0.24671404 0.4873427 0.36641285 0.25291878
0000b0 96 76 11 bf b7 1d be bd de 4b 05 bf 40 cd 38 bd
       -0.5682157 -0.092830114 -0.5206889 -0.045117617
0000c0 c0 38 3f 3e 60 51 a8 3d 06 c7 02 bf 2e 30 ec be
       0.18673992 0.08218646 -0.51084936 -0.46130508
0000d0 86 23 14 3f 2f 60 10 be 96 d6 be be 47 6a f8 3d
       0.57866704 -0.14099191 -0.3727309 0.12129646
0000e0 cc f8 cd 3e ef e5 c3 bc b7 5a eb 3e 52 11 9e be
       0.4022888 -0.023913352 0.45967647 -0.3087259
0000f0 ab db 08 3f 25 a9 e4 3d d1 1b 99 be c1 dd 2c 3e
       0.53460187 0.11165074 -0.29904035 0.16881467
000100 fc 8d d1 3d 60 61 29 3d fc 1b 61 be e0 5f de bc
       0.102321595 0.04135263 -0.21983331 -0.027145326
000110 72 bb d3 3e e1 c0 f6 3e 34 a1 b9 3e 50 73 bb 3e
       0.41353947 0.4819403 0.362558 0.36611414
000120 dc 7e bc 3e 30 7c 39 3e 98 3f 88 3d f9 49 03 bf
       0.36815536 0.1811378 0.066527545 -0.5128475
000130 e7 1a d6 3e 23 49 11 3f 26 5c 0d 3e fd 0c 2e be
       0.418174 0.5675222 0.13804683 -0.16997142
000140 52 b2 cd 3e 95 b8 dc 3d 0d 6e 2c be ce 25 a0 3e
       0.4017511 0.10777394 -0.16838856 0.31278843
000150 93 5b 7c 3e 8d 21 06 be 82 6b 50 be a0 6f f1 3e
       0.24644308 -0.13098736 -0.20353511 0.47155476
000160 79 e9 13 bf 05 f7 e5 3e e0 b9 e2 3c 46 cf 91 3e
       -0.57778126 0.44915023 0.027676523 0.2847845
000170 50 aa e9 be 99 52 c6 be 60 35 20 be d8 d1 8d be
       -0.4563775 -0.38734892 -0.15645361 -0.2769916
000180 1d e0 20 3e a7 f5 b5 be d0 16 d5 be d0 5c d4 3e
       0.15710492 -0.3553898 -0.41618967 0.4147706
000190 3d 99 69 3e af 9f d6 be f6 31 1a 3e 15 d7 ff be
       0.22812362 -0.41918704 0.15058121 -0.49968782
0001a0 d3 c4 dc be 84 fe d5 3e 98 f3 b9 3e 2f 7a 76 bd
       -0.43118915 0.41795743 0.3631866 -0.060175117
0001b0 8e 44 03 bd 9c 9a 2e 3e 0b a6 6d 3e 02 ca 12 3f
       -0.0320478 0.17051166 0.23207872 0.5733949
0001c0 ff ea ce be 2c 03 1e be 44 72 5b be fe af 08 3d
       -0.40413663 -0.15430897 -0.21430308 0.033370964
0001d0 46 59 88 3e 34 e5 44 be d2 b5 b3 3e 18 28 19 be
       0.2663061 -0.19228059 0.35099655 -0.14956701
0001e0 68 9a 01 be ad 52 08 3e b1 7f f4 3e 32 fb 6f 3e
       -0.12656558 0.13312788 0.4775367 0.23435667
0001f0 3d d0 c6 bc c4 bf 0a 3f a4 d3 20 3e 56 94 fe bc
       -0.024269218 0.5419886 0.15705734 -0.031076591
000200 05 ed e2 3e 79 0d d1 be d7 48 f2 3d 48 cc 8d 3e
       0.44321457 -0.4083059 0.11830299 0.27694917
000210 4f 46 b1 3c ab 81 47 3e 57 ad 8d be 35 aa 72 3e
       0.021639971 0.19483058 -0.2767131 0.23697741
000220 f5 92 ab bd eb 55 6f 3d 75 c5 2a 3e 22 05 eb bd
       -0.08377639 0.058431547 0.16676886 -0.114755884
000230 52 34 a8 3d d4 1d ef be 16 04 92 be f9 46 8a 3c
       0.08213104 -0.46702445 -0.28518742 0.016879546
000240 a8 30 9a bd 70 d0 46 3e 67 b2 0d bf ea db 2f be
       -0.07528812 0.1941545 -0.55350345 -0.17173734
000250 1d ef 80 be 34 ee b2 be a9 94 0b bf 7a 77 7c be
       -0.2518243 -0.3494736 -0.5452371 -0.24654952
000260 c0 db 7f 3d b0 7b 4d be 66 7e b9 be 93 6d 14 be
       0.06246543 -0.20066714 -0.36229247 -0.14494924
000270 c4 a3 dd 3e 48 7d 85 be 2f d0 11 bf 76 7d 0d be
       0.43289006 -0.26072145 -0.5695829 -0.13817391
000280 1c ed ad be 4c 93 a7 be c0 b5 05 3f 0e 58 e9 be
       -0.33969963 -0.32729566 0.52230453 -0.45574993
000290 fa ba 68 3e a9 1a f6 bc 4d 34 04 3f fe 54 e1 3e
       0.22727576 -0.03004201 0.51642305 0.44010156
0002a0 5a b1 10 3e 12 56 f2 3e 9d 63 af 3e 82 6c 0e 3e
       0.14130154 0.4733129 0.34255686 0.1390858
0002b0 f7 4a 0b bf 24 ac 9e be e0 ab f3 3e 86 50 d4 be
       -0.5441126 -0.30990708 0.47592068 -0.41467685
0002c0 21 86 0b 3f fc c0 4e 3e b7 de af be 78 9a 6d 3e
       0.5450154 0.20190805 -0.34349605 0.23203456
0002d0 88 5c 9f be 79 5b 0d 3e 7b 60 08 3e 78 1b 9e be
       -0.31125283 0.13804425 0.13318054 -0.30880332
0002e0 7d 3c 0d bf 3a 07 cb be 2f ba 02 bf fd 21 00 bf
       -0.5517042 -0.3965395 -0.51065344 -0.5005186
0002f0 60 89 b8 3c d6 b7 47 be 7c 60 d8 3e 39 36 ac be
       0.022526443 -0.19503722 0.42261112 -0.3363512

fc1.bias f4 [64]
000000 f3 d6 53 be a4 5c 02 bf 20 4b dd 3e 66 55 a0 3e
       -0.20687465 -0.5092261 0.43221378 0.31315154
000010 e2 d9 f0 3e 45 65 fc be b5 90 96 be 26 73 de be
       0.4704123 -0.49296013 -0.29407278 -0.43447226
000020 ea 14 70 be 7a d8 08 3d 96 a4 0b bd 56 e4 bb 3c
       -0.23445478 0.033409573 -0.03409251 0.022936027
000030 fb b4 c1 be 13 34 ff 3e e1 15 a1 bd f6 27 ce 3e
       -0.3783339 0.49844417 -0.07865501 0.40264863
000040 8f 6c d5 be 11 9b e0 3e fa c5 95 be 5d 63 9c be
       -0.41684386 0.43868306 -0.29252607 -0.30544558
000050 08 2a dd bd 4d e3 f5 bd 60 73 03 bf 44 fb 0e 3f
       -0.107990324 -0.12006245 -0.51347923 0.5585215
000060 28 2b 10 bf bd b5 ad be 03 92 c5 3e 3e 6b 8c 3e
       -0.5631585 -0.33927718 0.3858796 0.2742557
000070 9c 28 0e 3f be 0c e4 3d 2e da c8 be 8d e6 2b 3e
       0.55530715 0.11135243 -0.39228958 0.16787167
000080 56 c2 65 3e dc c9 c9 3d a2 8b 70 3e cd e0 f6 3e
       0.22437415 0.09852955 0.23490766 0.48218384
000090 34 fd 12 be 01 b2 0b 3d a0 72 91 3e 1d dc ad 3c
       -0.14354402 0.034105305 0.28407764 0.021223122
0000a0 95 8b ef 3e 75 77 b6 be fe 54 d3 be 51 ba 86 3e
       0.4678618 -0.35638013 -0.4127578 0.26314023
0000b0 93 2e b3 3d 4d dd 3d be 55 96 a2 bd 38 f7 a7 3e
       0.08749118 -0.18541451 -0.0793883 0.328058
0000c0 ce a0 a8 be 58 39 09 be cb 53 a0 be 40 39 b7 3e
       -0.32935184 -0.13400781 -0.3131393 0.35785866
0000d0 ec 72 e7 be 20 f9 8e bd 82 fc fe 3e 28 74 cd be
       -0.45204866 -0.069811106 0.49802023 -0.40127683
0000e0 4e 63 dc be 22 34 ae 3d 81 65 95 3d 9a 4d f1 3e
       -0.43044513 0.08506037 0.07294751 0.47129518
0000f0 6e 1a 4c 3e c7 5a 0a 3d b8 f6 87 3e 32 b6 75 3e
       0.19931957 0.03377798 0.2655542 0.23995283

fc2.weight f4 [64, 64]
000000 84 e8 97 bd a0 74 a1 3b 24 17 ce bd ae 07 90 bd
       -0.07417396 0.004927233 -0.100630075 -0.07032715
000010 d4 42 3c bd a4 12 2e bd 00 53 33 bb da c4 e5 bd
       -0.04596217 -0.042498246 -0.0027362704 -0.11219187
000020 bc fe 1d 3d 54 56 ce 3d 80 34 41 bd 10 cf 8a bd
       0.03857301 0.100750595 -0.04716921 -0.06777775
000030 ee f5 b5 3d ba c8 c9 bd 40 cb c0 bb ec 4a 6e 3d
       0.08884798 -0.09852739 -0.0058836043 0.05817692
000040 60 88 0e 3c e4 9c 99 3d a0 9f e5 bb f8 35 5d bd
       0.0086995065 0.07500628 -0.007007554 -0.054006547
000050 50 de d3 3c a0 76 ab bd b4 d0 a9 3d e8 69 1b 3d
       0.025862843 -0.08372235 0.0829176 0.037942797
000060 b0 4e a1 bd b8 27 06 bd 2c 23 d8 bd 6c c0 bb bd
       -0.078763366 -0.032752723 -0.105535835 -0.09167561
000070 ba 6d df bd 96 38 ff 3d c0 2f 96 3b 50 3a eb 3d
       -0.109096006 0.12461965 0.004583329 0.114857316
000080 70 ca 25 3c 70 4a 59 bd 68 2d 87 bc 3c 38 df bd
       0.010119066 -0.053049505 -0.016501144 -0.10899398
000090 68 4e fb bd 08 66 66 3d ce fe cb 3d 34 6f a5 bd
       -0.12270814 0.05624965 0.099607095 -0.08077851
0000a0 b0 0d d2 bc 08 1e 42 bd 38 47 ea 3c c4 c9 e2 3d
       -0.025641292 -0.04739192 0.028598413 0.1107364
0000b0 00 b2 a1 b9 42 56 c3 bd 08 7b ce 3d fc 61 51 bd
       -0.00030840933 -0.09537937 0.1008206 -0.051118836
0000c0 08 39 cb bc a2 a7 b7 3d 00 43 91 ba 60 a7 5f 3d
       -0.024807468 0.0896752 -0.001108259 0.05460298
0000d0 b0 6d e8 3d e0 5b 2b bc 2e 2d cb 3d 1c b7 06 3d
       0.11349046 -0.010458916 0.09920727 0.03288947
0000e0 3c 51 2b 3d a0 83 89 bc 6c fe 42 3d f0 c1 d9 3c
       0.041825518 -0.016786397 0.047605917 0.026581734
0000f0 f8 fc b4 bd da de d8 bd 10 c2 75 bd f8 05 d6 bc
       -0.088373125 -0.105893806 -0.059999526 -0.026125893
000100 c8 f0 d6 3b ff 63 c5 3d c4 c3 91 3d 54 2a 9a bd
       0.006559465 0.09638213 0.071174175 -0.07527605
000110 a7 55 41 3c ec 67 94 3d 46 f8 bc 3d ca 94 9f bd
       0.011800206 0.07246384 0.09227042 -0.07792051
000120 a3 2a 26 3d 28 cc 24 bd e3 02 96 bb 8a ea a5 3d
       0.040568005 -0.04023376 -0.004577981 0.081013754
000130 18 d7 44 3d f0 58 81 3d 39 69 e8 3d aa 45 a0 3d
       0.048056692 0.063157916 0.11348195 0.07825787
000140 a4 46 f9 bd 3a 53 d9 3d 0c 27 bb bd d8 f3 af 3d
       -0.12171677 0.10611577 -0.09138307 0.085914314
000150 2c 3f 9b bd 6f 6a ca bd 24 2d 71 bd c1 5f c2 bd
       -0.075804085 -0.09883582 -0.05888094 -0.0949092
000160 20 29 a3 3d 0b 63 1a 3c f7 eb 38 3d 83 d0 b1 bd
       0.07966828 0.009423028 0.04514691 -0.086823486
000170 0a 2d a6 3d 58 dd 72 bd f0 36 ea 3d 7a 9c c4 bd
       0.08114059 -0.05929312 0.1143626 -0.09600158
000180 a7 52 d4 3d 75 97 ed bd 4f 6c fa 3d 71 1c de bd
       0.10367327 -0.11601154 0.122276895 -0.108452685
000190 7a b7 53 3d 37 f0 3f 3d f2 6a 1c 3d 7e 25 fe 3c
       0.05168865 0.046859946 0.03818793 0.031023737
0001a0 20 72 81 3b 53 bf e0 3d d5 64 4a 3d 6d ac 9a 3d
       0.0039503723 0.10973992 0.049412567 0.07552419
0001b0 ef 37 c8 3c fa d6 b1 3d e0 58 3f bb 87 3b 80 3d
       0.024440734 0.08683582 -0.002919726 0.06261354
0001c0 ea 70 91 3d 78 0f ba bc cc ec 9c 3d df d3 fd 3d
       0.07101615 -0.022712454 0.07662353 0.12393927
0001d0 3e aa f9 bd 46 76 87 bd 72 26 b7 bd d1 1b 2f 3d
       -0.12190674 -0.06614356 -0.0894288 0.042751137
0001e0 56 c6 05 3d 6a e5 6d bd b9 e8 a4 3d 68 50 20 3d
       0.03265985 -0.058080114 0.08052201 0.03913918
0001f0 39 19 61 bd 4a 6c c6 bd 49 39 10 bd e8 17 c6 3d
       -0.054955695 -0.09688623 -0.03521088 0.096725285
000200 b8 24 67 3d 7f 83 fd 3c 41 26 d1 3d b3 55 2e bd
       0.056431502 0.030946491 0.102123745 -0.042562198
000210 53 bb ef 3d 20 94 cd bb c0 90 cb 3d bc 8c 22 bd
       0.11705651 -0.0062737614 0.09939718 -0.039684996
000220 f0 e0 cf bd 58 ff d0 3c a0 1e ca bd d5 9e a2 bd
       -0.10150325 0.025512382 -0.098691225 -0.07940451
000230 7c c8 71 3d 3c 43 f7 bd 01 a5 7d 3d 4a 15 b4 bd
       0.059029087 -0.12073371 0.061924938 -0.08793123
000240 40 46 56 bc 4f 97 f2 3d 0a e1 e5 3d ac 97 b6 bc
       -0.013078272 0.11845266 0.112245634 -0.02228912
000250 90 8d f4 bc 75 38 98 bd 76 c2 ac bd fa 0c 52 bc
       -0.029852659 -0.07432643 -0.08435528 -0.012820477
000260 f4 38 99 bd 7c ae 3e bb b3 61 80 3d bd 79 e9 3c
       -0.07481566 -0.00290957 0.06268635 0.028500432
000270 5f 6b 3d bd b8 79 0a 3d 52 5b fb 3d b0 73 24 3d
       -0.046244975 0.033807486 0.12273277 0.04014939
000280 8d ee d0 3d 4d db a6 bd 63 15 ea bd 21 9d db bd
       0.1020175 -0.08147297 -0.114298604 -0.10723329
000290 e3 04 90 3d 1c 1c 88 bd e6 e0 fa 3d 8b 60 69 3d
       0.07032182 -0.066459864 0.12249927 0.056976836
0002a0 13 2d a4 3d a3 f3 53 3d 65 60 ee bd 2c 99 72 bd
       0.0801641 0.051746022 -0.116394795 -0.059228107
0002b0 8a c0 e9 3d 3c 95 40 3d 66 7e e7 3d 4c 1b a6 bd
       0.11413677 0.04701732 0.113034055 -0.08110675
0002c0 b4 63 3e bd 78 7f 08 bd 60 b1 02 3c da fa 67 bd
       -0.046481803 -0.03332469 0.00797686 -0.056635715
0002d0 b4 6e 3a bd cc 8e b7 bd 24 ab a9 bd 42 63 b9 3d
       -0.04551573 -0.08962783 -0.082845956 0.09052135
0002e0 a5 04 cd 3d c0 75 11 3b 53 a5 0a bd a5 a0 5c bd
       0.100106515 0.0022195429 -0.03384907 -0.05386414
0002f0 b6 46 d9 3c d8 28 0d 3d 86 cd 27 3d 44 27 61 bd
       0.026522975 0.03446278 0.040967487 -0.054969087
000300 70 ce a1 3d 38 e0 a1 3d d2 05 98 3d a8 91 a0 bd
       0.07900703 0.079040945 0.07422985 -0.07840282
000310 36 5f ac bd 84 1b 46 3d 34 26 4f bd f6 ae a9 3d
       -0.084165975 0.048366085 -0.050573543 0.08285324
000320 c4 c2 a6 bd 40 1f b3 3c 30 73 f4 3d 4c 06 44 3d
       -0.08142617 0.021865487 0.11936033 0.047857568
000330 12 ad 86 bd 50 6e 97 3c 08 92 5b 3d 14 fc 01 3d
       -0.06575979 0.018485218 0.053606063 0.03173454
000340 34 3d 63 3d d0 76 fc 3d 80 ca ef 3d 34 14 d9 bd
       0.05547829 0.12327349 0.11708546 -0.105995566
000350 20 e0 7e 3d b4 42 bb bd 3c d0 17 3d 0c 82 d8 bd
       0.06222546 -0.09143582 0.037063822 -0.105716795
000360 88 67 dc 3d 52 e0 9d 3d 90 b6 6c 3d 14 65 79 bd
       0.107619345 0.07708801 0.057791293 -0.06088741
000370 82 8c d5 3d 24 f2 08 bd 40 49 bc 3c d2 32 dc bd
       0.1042719 -0.03343405 0.022984147 -0.10751881
000380 9c f0 46 bd 18 53 f1 3c 30 cc c9 3c e0 c5 9b bc
       -0.048569307 0.029458568 0.024633497 -0.019015253
000390 10 8c 1c bd 88 4c 80 bd a2 66 cf bd dc 2e ef bd
       -0.03821951 -0.06264597 -0.101269975 -0.116788596
0003a0 c4 2e b9 bd f0 dd a1 3d e4 69 57 3d e0 73 ec bc
       -0.09042123 0.07903659 0.05259122 -0.028863847
0003b0 e6 e9 c7 bd 76 95 cb bd d8 be e7 bc 68 e0 f9 bc
       -0.097614095 -0.09940617 -0.028289244 -0.030502513
0003c0 80 c1 a5 bd c0 73 a3 bb d8 50 f1 bc 88 53 a7 3d
       -0.08093548 -0.0049881637 -0.029457495 0.08170229
0003d0 84 a2 57 3d 58 90 ee 3c a8 7f fb 3c 5a b2 e4 bd
       0.05264522 0.029121563 0.03070052 -0.1116683
0003e0 a0 eb c1 3c e6 86 99 3d 20 8f 38 bd d0 49 2d 3c
       0.023671925 0.07496433 -0.04505837 0.01057668
0003f0 50 1f 6f bc f8 36 a3 3d d2 5a ba bd 30 38 da 3c
       -0.014594868 0.07969469 -0.09099354 0.02663812

fc2.bias f4 [64]
000000 a0 b0 2c bc 9d ee 74 bc c6 a8 a7 3c a0 cd 07 bd
       -0.010540158 -0.014949468 0.02046622 -0.033155084
000010 a8 5f 20 3d e3 64 fa bd 66 96 d3 bd e7 1d db bd
       0.039153725 -0.12226274 -0.103314206 -0.10699063
000020 a1 68 a1 bd 8e 86 44 3d 2c 8b 1e 3c c2 f3 29 bd
       -0.078812845 0.047979884 0.009676736 -0.04149223
000030 de 70 e2 bd 84 dc 7c bd 6d c0 8d 3d 35 9a 46 bd
       -0.11056684 -0.061733738 0.06921468 -0.048486907
000040 02 f9 b6 3d 8f ce a2 3c 3f da dc 3d 66 63 fc bb
       0.08934213 0.019873885 0.10783815 -0.007702279
000050 c9 6e cc 3d 8b 04 bd 3d 28 8c e3 3c e8 f2 f7 bd
       0.09982068 0.09229382 0.027776793 -0.121068776
000060 c7 ae 7d 3d 49 65 8d bd 80 7b 7e bc c0 55 dd bd
       0.06193426 -0.06904084 -0.015532374 -0.10807371
000070 21 89 a7 bd 65 3e e6 3d ea b8 cd bd 18 7f 8f 3d
       -0.08180452 0.112423696 -0.10045035 0.07006663
000080 10 c9 b6 bd cc 39 69 3d 6c 8f de 3d 4c 8b 19 bd
       -0.089250684 0.056939885 0.10867199 -0.03748636
000090 01 a6 f0 ba 3d 22 95 bd d0 19 6b bc f4 bd 96 3d
       -0.001836002 -0.07281921 -0.014349416 0.073604494
0000a0 08 15 ff bd 51 3d f2 3d 8b fb 28 bd 60 a9 9f bc
       -0.12455183 0.118281014 -0.041255515 -0.019489944
0000b0 f6 93 6e 3d cd 99 04 3a ec 63 b7 3c 19 61 c1 3d
       0.058246575 0.00050583185 0.022386514 0.09442348
0000c0 b3 a7 ac bd 80 f9 fb bc 45 ea 5b bc a1 0a 5b bb
       -0.084304236 -0.03075862 -0.013422553 -0.0033423083
0000d0 36 2d b3 3d a0 56 df bb d8 9c c9 bd 54 95 00 3d
       0.08748858 -0.0068157464 -0.09844369 0.03139241
0000e0 8e 0d 88 bd b8 89 7b bd 22 f1 ea 3d 9a 27 e6 bd
       -0.0664321 -0.061410636 0.11471774 -0.11238022
0000f0 64 d9 29 3d 3c 47 31 bd d8 b2 a9 bd a4 2b ce 3c
       0.041467085 -0.043280825 -0.08286065 0.025167294

fc3.weight f4 [1, 64]
000000 20 77 47 3c bd d1 23 bd 45 ae a5 3d 38 cb d3 3c
       0.012174398 -0.039994944 0.0808988 0.025853738
000010 6c ea 96 3d 70 c5 69 bd a2 46 b0 bd 1b 35 c7 bd
       0.07368931 -0.057073057 -0.08607222 -0.09726926
000020 2b 1b 09 3d 00 d3 27 bd c7 f3 09 3d 12 b3 09 bd
       0.033473175 -0.04097271 0.03367975 -0.03361804
000030 28 fe f7 bd 9c 73 e0 3d af 5b fe bd 51 c6 82 3c
       -0.12109023 0.10959551 -0.12419831 0.015963705
000040 09 17 80 3c db 3a 9c 3d 2e 66 b9 3d 7c b5 0f 3d
       0.015635984 0.07628413 0.09052692 0.035085186
000050 c0 ae cc bb c5 09 d1 bd 54 7e 0b 3d 60 5c 18 bd
       -0.0062464178 -0.102069415 0.034056023 -0.03719747
000060 f0 a7 ba 3d 76 3b 90 3d b8 75 06 bd 52 da 6c 3d
       0.09114063 0.07042591 -0.03282711 0.057825394
000070 9c b9 a8 3d e8 a8 e1 bd 6a ef f9 bd d0 24 df bc
       0.08238527 -0.110185444 -0.12203868 -0.027239233
000080 30 60 3c bc 77 1f f6 3c 80 be 4d 3d 85 a7 d1 bc
       -0.011497542 0.0300443 0.050230503 -0.025592575
000090 88 15 a0 3c 7e d9 a1 bd 5a ff a5 bd 66 04 b2 3d
       0.019541517 -0.079028115 -0.08105345 0.08692245
0000a0 d8 67 83 bd de 19 a0 3d 8e ac fe 3c 28 e0 74 bd
       -0.06416291 0.07817434 0.03108814 -0.059784085
0000b0 e3 cc fc 3c 15 4e 5f bd 9b a7 e1 bc 0c 02 00 be
       0.030859416 -0.054517824 -0.02754574 -0.12500781
0000c0 85 cf fa bd be ce c2 bd 33 55 30 bc b7 7f c6 bd
       -0.122466125 -0.09512089 -0.010762501 -0.096923284
0000d0 a9 ea a0 3d f0 07 28 bc 3e 60 c7 3d f0 5d 0a bd
       0.07857258 -0.010255799 0.097351536 -0.033780992
0000e0 b4 7f dd bd 62 cc b1 bd 96 fc e5 bd a0 f6 e0 3c
       -0.10815373 -0.08681561 -0.112298176 0.02746135
0000f0 09 ef 88 3d 9a 37 42 bd e3 27 d9 3c e9 42 98 3c
       0.06686217 -0.047416307 0.026508277 0.018586593
