public/api/Data_Sources/pertussis_model.pth (torch, 20632 bytes, 5 tensors)

fc1.weight f4 [64, 3]
000000 7a 5d 71 3e 12 30 ec be 15 34 df 3e 5d 5a 0d be
       0.23570815 -0.46130425 0.43594423 -0.13804002
000010 c2 9b a1 3d 1f 42 bf be 65 66 0a bf e6 a9 08 bf
       0.078910366 -0.37355134 -0.5406249 -0.53384244
000020 6a f9 17 be 9d 06 a7 3d b4 4d 6d 3e 43 ec 5e 3e
       -0.14841238 0.08155558 0.23174173 0.21769814
000030 7b 30 ed bd 0b f4 41 be 37 28 a8 3e 52 1c db bd
       -0.115815125 -0.18940751 0.32843181 -0.10698761
000040 51 ac 33 3e 36 a2 e2 3e 09 4d 99 3e 50 ce 14 3e
       0.17546202 0.44264382 0.29941586 0.14531827
000050 18 6a a7 be 77 1c e7 be 80 2f 26 3d 02 1c bb be
       -0.3269813 -0.45138904 0.040572643 -0.36544806
000060 cf c7 8b bd 04 d8 b2 3d ac cc b3 be fc d2 3a be
       -0.0682522 0.08732608 -0.3511709 -0.18244547
000070 85 f9 2b bd 20 1b 2b 3e ec 5f 35 3e c0 7c 74 bc
       -0.041986007 0.16709566 0.17712373 -0.014922321
000080 de 3b c0 be 2d 03 0a 3f 61 53 10 be 4c 5a df be
       -0.37545675 0.53911096 -0.14094307 -0.4362358
000090 ff 44 08 bf 8e b7 73 3e bc 1e 89 be 04 0c a1 3e
       -0.5323028 0.2380049 -0.2678126 0.3145448
0000a0 68 21 9c be 30 49 ed be 5c 20 0d bf 8b c0 08 bf
       -0.30494237 -0.463449 -0.551275 -0.534188
0000b0 d5 b8 89 be d0 3f 55 3d 40 1e 75 bc e5 62 08 bf
       -0.26898828 0.05206281 -0.014960825 -0.532759
0000c0 0f 0d 49 3e 00 fc b4 3e 02 4a dd bd 1e 41 2e be
       0.19633888 0.3534851 -0.108051315 -0.17017028
0000d0 37 da eb 3e 41 f8 ef be 5c 13 0e bf 72 9d 63 be
       0.46064922 -0.4686909 -0.5549829 -0.2222803
0000e0 36 37 f5 3e 8e 05 c3 bd a1 8b 91 be d5 4d 01 3f
       0.47893685 -0.09522544 -0.2842684 0.5050939
0000f0 57 d5 04 3f e5 77 b2 be aa 40 c0 3c 66 fa 88 3e
       0.5188803 -0.34857097 0.023468334 0.2675354
000100 80 77 51 bd a8 4e 9a 3e c7 2f cb be f1 a8 a1 3e
       -0.051139355 0.30138135 -0.3968489 0.31574205
000110 f1 73 86 bd 39 4e 08 bf 3d dd d0 be 6b 22 0d bf
       -0.06565083 -0.5324436 -0.4079379 -0.5513064
000120 57 44 74 3e 05 0f 80 be 9c a1 ac be 6e 75 16 3e
       0.23854195 -0.2501146 -0.33717048 0.14693233
000130 48 d2 de bd fa 47 69 3d 2c 28 a2 bd 52 0a 0e bf
       -0.10879952 0.056953408 -0.079178184 -0.554845
000140 65 0a f3 be 63 c7 98 3e a3 f9 1e be cf df 8f 3e
       -0.47468868 0.2983962 -0.15524916 0.2810044
000150 26 fb 41 3e 6d fd 2b bd 62 4f dc 3e 1b 6c 02 3e
       0.18943462 -0.041989733 0.43029314 0.12736551
000160 ca 80 76 3e ff 16 1d be a2 6c 43 be d3 db 96 3e
       0.24072567 -0.15340804 -0.19084409 0.29464588
000170 75 0d a6 3e a1 46 fb 3e 2c 22 08 3f bb 35 2a be
       0.32432142 0.49077323 0.5317714 -0.16622059
000180 20 bc 1b bd 0c cc ef be 80 1c 0e be 10 cb 24 3e
       -0.038021207 -0.46835363 -0.1387806 0.16093087
000190 78 8f 17 be b7 e5 bf be f6 72 19 3e b2 1a bf 3e
       -0.14800823 -0.37479946 0.1498526 0.37325054
0001a0 e6 f3 e1 3d cf 46 10 bf 78 04 0e be cc 0d 72 be
       0.11032848 -0.56358045 -0.13868892 -0.23638076
0001b0 a6 e2 b2 3e 21 13 be be 60 48 00 bf e9 53 05 bf
       0.34938544 -0.3712397 -0.50110435 -0.5208116
0001c0 b8 be 78 3e 98 95 31 3e f2 d6 ef be d2 23 52 3e
       0.24291503 0.17342222 -0.46843678 0.20521477
0001d0 9c 62 ac 3e 8b f9 9f 3e 67 93 52 3b 2c de e8 3e
       0.33668983 0.31245074 0.0032131316 0.45482004
0001e0 a9 52 d2 3e d8 ae 99 be a4 5c be 3e 16 36 1a bc
       0.4107869 -0.30016208 0.37180054 -0.009412309
0001f0 f2 29 3f 3e f8 fc da 3e a0 bb 0c 3e b0 a0 22 be
       0.18668345 0.42771125 0.13743448 -0.1588161
000200 78 89 97 bd dd f1 1c be 10 34 c8 3e 14 c3 83 be
       -0.07399267 -0.15326639 0.3910222 -0.2573477
000210 cc 9e b2 3e 03 50 bd 3d 04 e1 17 bd 94 e2 85 3e
       0.34886777 0.09243777 -0.037079826 0.26149428
000220 0e b5 84 be 12 2a 08 bf c1 0b 9a 3e 52 7b e7 bd
       -0.25919384 -0.53189194 0.30087093 -0.11302818
000230 b4 37 46 3e ff 5d 93 3c f6 75 63 3e 8b f3 8d 3e
       0.19357187 0.017989157 0.22212967 0.2772487
000240 c4 c6 db 3e 1a 41 ff 3d da f8 0d bf 6f 00 c3 3e
       0.42925084 0.12463589 -0.5545784 0.38086268
000250 ae 2b a6 3d f1 a2 55 bb 37 ba d9 3e 24 2f 14 bf
       0.081138 -0.0032598341 0.42524883 -0.5788443
000260 02 a8 b3 3e f0 c0 19 3e 26 b8 4c 3d 52 8c 0b 3f
       0.35089117 0.15015006 0.049980305 0.54510987
000270 39 d5 46 be 96 2e 02 3f 49 6e 27 3d 50 d4 f7 bd
       -0.19417275 0.50852334 0.04087666 -0.12101042
000280 9e bf c0 be 86 bc a6 be 74 59 b5 be 72 9a 6d bc
       -0.37646192 -0.32565707 -0.3541981 -0.014502155
000290 5a c7 03 bf d8 5c 66 be 50 85 2b bd 72 51 6a be
       -0.5147606 -0.22496355 -0.041875184 -0.22882631
0002a0 7e 90 0d 3f 67 bc 67 be e9 8d 86 be 6e 5a 75 be
       0.552986 -0.22630464 -0.26280144 -0.23960277
0002b0 79 c2 83 be ec c9 1d be 10 02 01 3f 6f 50 85 3e
       -0.25734308 -0.15409058 0.5039377 0.26037928
0002c0 1e a7 de 3e 74 99 08 bf 73 18 ac be 99 4d 02 3f
       0.43486875 -0.5335915 -0.33612403 0.50899655
0002d0 62 44 03 be 9b 31 d5 3e 81 5a dc be 62 37 3c be
       -0.12819055 0.41639408 -0.430378 -0.18380502
0002e0 6e e3 1e be 4e 4c c6 be fc 21 ad 3e 84 dd 01 bf
       -0.15516445 -0.3873009 0.3381499 -0.5072863
0002f0 ee ed 41 3c ca 4d 17 be dd ea f3 3e 5f 19 03 3d
       0.011836512 -0.14775768 0.47640124 0.032006618

fc1.bias f4 [64]
000000 e4 b2 f4 be 37 80 09 3d cc a0 4d be 87 27 e1 3e
       -0.47792733 0.03356954 -0.2008087 0.4397547
000010 27 31 0c bd 53 ee 08 3f c4 99 01 3f 90 fe 0b bf
       -0.034226563 0.53488654 0.5062525 -0.54685307
000020 cb d0 09 3f e7 06 e3 3e 49 41 fd be 1f 0b 06 bf
       0.5383422 0.44341204 -0.4946387 -0.5236072
000030 91 7b b7 3d 3e ad fb be 23 f2 e5 3e 66 59 97 be
       0.08959115 -0.4915561 0.44911298 -0.29560393
000040 c1 ac ff bd d0 f3 c5 bb 85 99 d2 3e ce 89 3e be
       -0.12484122 -0.0060410276 0.4113275 -0.18607256
000050 24 c1 0c be 85 3d 01 3f 8b 63 9a 3e d0 1e 04 bd
       -0.13745552 0.50484496 0.3015407 -0.032255948
000060 6b 0f 00 3f 05 5e f0 bc b2 6b bd be 87 42 5c be
       0.50023526 -0.029341707 -0.36996228 -0.21509753
000070 bc e9 4e be 7a 95 a1 bd 5a 5c c2 3e c5 78 bd bd
       -0.2020635 -0.078898385 0.37961084 -0.092515506
000080 b6 70 db be fc 69 e7 be 81 9f 88 be cf 02 81 be
       -0.4285943 -0.45198047 -0.26684192 -0.25197455
000090 ea a5 5b be e1 5d de be d1 56 0d 3f 12 b6 5a bd
       -0.2145001 -0.43431 0.55210596 -0.053396292
0000a0 f9 cf 67 3e 42 0f e6 3e 7b 74 0a bf 66 5d 11 be
       0.22637929 0.44933516 -0.54083985 -0.14195785
0000b0 e3 b6 de 3e f9 eb 75 3d 11 cc 32 be e4 e0 42 be
       0.43498906 0.060039494 -0.17460658 -0.19031101
0000c0 7b 8c 78 3d 70 98 55 3e 26 67 74 be 31 fd e8 3e
       0.060680848 0.20858932 -0.23867473 0.4550567
0000d0 6d fd c5 3d 96 07 88 3e ce 83 5f 3e 00 f5 41 bc
       0.09667478 0.26568288 0.21827623 -0.011838198
0000e0 1e 36 5a be 51 54 10 3f 7b 1c f9 be 5a bb c0 bc
       -0.21309707 0.56378657 -0.4865454 -0.023526836
0000f0 5e 70 30 3e 7f 37 95 be 2a b3 34 be 43 65 99 bd
       0.17230365 -0.29143903 -0.1764647 -0.07490017

fc2.weight f4 [64, 64]
000000 59 ec 87 bd f3 1f 51 bd ac 25 1f bd 32 96 eb 3c
       -0.066368766 -0.05105586 -0.038854286 0.028758142
000010 61 91 80 bd fc 03 95 3d bd b4 99 3c e8 a5 9e 3c
       -0.06277729 0.072761506 0.01876294 0.01936622
000020 45 93 4d 3d b9 27 d8 bd 7a f0 a4 bd d2 aa a2 3d
       0.050189275 -0.105544515 -0.0805368 0.07942738
000030 79 22 af bd 28 cb cc bd d6 31 47 bd f0 f2 80 3d
       -0.08551497 -0.099996865 -0.04863151 0.06296337
000040 95 c9 7d bd 5f 6e da bd 43 ba cc bd 21 0a e4 bd
       -0.06195982 -0.10665583 -0.09996464 -0.111347444
000050 d3 e2 75 3d 9a f2 9f bd e9 ac b8 bd f2 ee b8 3d
       0.06003077 -0.078099445 -0.09017355 0.0902995
000060 ea d7 f0 3b 8c 40 bd 3b 7e 51 ca bd df 80 0f bd
       0.0073499577 0.005775517 -0.09878825 -0.03503501
000070 04 20 aa 3d 16 4a 00 3d 0d f7 90 bd 61 25 8b 3d
       0.08306888 0.031320654 -0.07078371 0.06794239
000080 22 06 a6 3d 44 f4 de 3d bb 62 06 bc 30 32 81 3d
       0.081066385 0.10886434 -0.00820225 0.06308401
000090 e0 6d b1 bd a6 76 e5 bd 95 37 4a 3d ae 87 2e 3d
       -0.08663535 -0.11204271 0.049369413 0.042609863
0000a0 bf 65 85 3d a1 d6 59 3d 44 0b 8f 3d b2 5f de bd
       0.06513547 0.0531832 0.069845706 -0.10858096
0000b0 43 b0 93 3d 37 ae 8d 3d 95 53 98 3d 76 a0 16 3d
       0.07211354 0.069179945 0.07437817 0.03677412
0000c0 48 1c 00 bb 6b 15 56 bc e4 72 ef bd 9a b9 0d 3d
       -0.0019548107 -0.01306663 -0.116918355 0.03460083
0000d0 98 ed bc bd 9c a3 bc bd 10 95 fb 3d 74 f0 7a bd
       -0.09225005 -0.092108935 0.12284291 -0.06126447
0000e0 20 76 5c bd 3f 26 04 3e de fc 90 bc 22 9d 86 3c
       -0.05382359 0.12905215 -0.017698701 0.016432349
0000f0 7d 5a 85 bd f0 bc b2 3d 4e e1 b1 bd 1a 82 2f 3d
       -0.065114 0.08727443 -0.086855516 0.042848684
000100 57 ef ec 3d 55 f3 ef bd 62 95 b0 3d 60 46 77 bc
       0.11569088 -0.11716334 0.086222425 -0.015092462
000110 be 46 37 bd 43 56 94 3c b8 e4 a3 3d ec 79 e0 3d
       -0.0447452 0.018107539 0.08002609 0.10960755
000120 39 86 1d bc 62 dd b4 bd 00 50 d6 38 ac a7 8a 3d
       -0.009614521 -0.08831288 0.00010219216 0.06770262
000130 5c b4 8c 3d e2 1b a0 3d a0 93 8b 3d e6 95 cf bd
       0.06870338 0.07817818 0.068152666 -0.10136013
000140 ec ec 04 bd 72 30 e0 3d 4a 4f b4 3d 0f ed ac bd
       -0.03245251 0.1094674 0.08804186 -0.08443653
000150 d0 5a 9c bb ff 24 ab 3d 0a cb 00 3e 80 14 12 bb
       -0.004771568 0.08356666 0.12577453 -0.002229005
000160 04 15 45 3d a7 12 8e bc 92 50 8a 3d 5e 8a 30 3d
       0.048115745 -0.017342879 0.06753649 0.043100707
000170 e0 bf 93 3d a5 c9 54 bd 51 4b c1 3c ab 88 8f 3d
       0.072143316 -0.051950116 0.023595484 0.07008489
000180 30 b0 3f 3d d2 52 8d bd 70 01 e0 3c 76 d3 c3 3d
       0.046798885 -0.06900562 0.027344435 0.09561817
000190 5f 19 de 3b cc bc ca 3d 58 ef d8 bd 4e ce 7e 3d
       0.006777927 0.098992914 -0.10592526 0.062208466
0001a0 50 52 be 3d 92 d5 70 bd 5a 93 a0 3d fc 79 c0 bd
       0.092930436 -0.058797427 0.07840605 -0.09398267
0001b0 6f 9b ff bc f8 70 f1 3c 1c 52 ba 3d af e7 9d bd
       -0.031202046 0.029472813 0.09097692 -0.07710206
0001c0 2f 9f 91 3d af 21 c0 3d 3e 4c 38 bd f0 10 ce bd
       0.0711044 0.09381425 -0.044994585 -0.10061824
0001d0 07 11 42 3d 53 53 1b bd 0b f8 d8 3d 1c 92 b1 bd
       0.04737952 -0.03792126 0.105941854 -0.08670446
0001e0 0e ab d3 3d af e8 2d 3c 42 2f 02 3d 4b 73 e6 3d
       0.103353605 0.010614558 0.03178335 0.11252459
0001f0 6a 7e f7 3c 6e 5a e8 3d 45 e6 a4 bb be 63 3a bd
       0.030211646 0.11345373 -0.005032333 -0.045505278
000200 f4 5d 57 bd a6 95 bb bd 40 ab 70 bb 5e 1c eb bd
       -0.052579835 -0.091594025 -0.0036723167 -0.1148002
000210 0a 68 b3 bd 0c c2 d5 bd 24 26 7e bd 98 ff 35 bd
       -0.08760078 -0.10437402 -0.062048092 -0.044433206
000220 d8 20 4d 3d fe 1e fe bd 10 de 3a 3c 24 d7 ea bd
       0.05008015 -0.12408255 0.011405483 -0.11466816
000230 28 94 25 bd 70 1d bb 3d 76 3e 89 3d c0 fb 88 3d
       -0.040424496 0.09136474 0.067013666 0.066886425
000240 5a ab da 3d 66 26 8d bd e8 1f ed 3c 94 af fd bd
       0.10677214 -0.068920895 0.028945878 -0.123870045
000250 10 a0 20 3c d8 da 1b 3d 40 ee 29 bd 8c b4 c1 3d
       0.009803787 0.038050503 -0.04148698 0.09458265
000260 78 33 38 3d 14 f4 7e bd 40 b1 18 3b 30 2a ff 3c
       0.04497096 -0.06224449 0.0023299009 0.031148046
000270 28 b4 fb bc 80 87 e5 3b d8 22 8c 3c 10 56 89 3d
       -0.030725554 0.0070046782 0.017106459 0.06705868
000280 f0 43 df 3c 6e 62 e5 3d c4 b1 c4 3d 90 73 b8 bd
       0.027254075 0.112004146 0.096042186 -0.09006417
000290 78 58 b5 3d d8 a2 85 3c 0e d0 91 3d ee e1 b9 3d
       0.08854765 0.016313002 0.071197614 0.09076296
0002a0 10 d8 ec bc 52 99 93 3d 00 ea b1 bb 08 19 d5 bc
       -0.02891162 0.07206978 -0.0054295063 -0.026012912
0002b0 46 e0 cd bd c4 4f 58 3d 10 0e 0a 3c 28 b0 f6 3c
       -0.100525424 0.052810445 0.008426204 0.030113295
0002c0 5a 99 c1 3d ac 1a 05 bd f8 01 0b 3d f0 53 83 bd
       0.094530776 -0.03249614 0.033937424 -0.06412494
0002d0 80 74 bb bb 66 0d d9 3d d4 6c fb 3d c6 f9 fd 3d
       -0.005720675 0.10598259 0.12276617 0.12401156
0002e0 6e cd 9f 3d c8 91 4f 3d 84 73 33 3d 54 79 d0 bd
       0.078028545 0.050676137 0.043811336 -0.101793915
0002f0 f8 79 0f bd b2 51 d5 3d be 45 fe bd 38 1f 05 3d
       -0.035028428 0.10415973 -0.12415646 0.032500476
000300 f8 a2 fb bd 20 61 9a bd 90 b5 33 3c 7e 90 90 bd
       -0.12286943 -0.075380564 0.010968581 -0.0705881
000310 28 8e 5d 3d 7c 4b fd bd c0 84 1f bc 88 bd f6 bd
       0.05409065 -0.12367913 -0.00973624 -0.12047869
000320 c2 81 97 3d d0 18 cd bc 88 ea ef 3c 56 a8 d7 3d
       0.07397796 -0.025036246 0.029286638 0.105301544
000330 f0 c1 83 bc 66 c3 f8 bd 9c a6 65 3d 50 a8 fe bd
       -0.016083688 -0.12146644 0.056067094 -0.12434447
000340 a2 a9 aa 3d 68 44 d6 bd 48 0a f3 3c 40 d3 b7 3b
       0.08333136 -0.10462266 0.029667988 0.0056098998
000350 b8 8e 98 bc b4 d3 39 bd de e9 b5 bd e0 20 c3 3d
       -0.018622741 -0.04536791 -0.08882497 0.09527755
000360 a0 35 33 bc 58 d6 a9 bd 44 69 68 bd 28 ff aa bd
       -0.010938078 -0.08292836 -0.056741014 -0.083494484
000370 82 e6 8f bd f0 e7 37 bd 80 8c 81 3b ae da cf bd
       -0.07026388 -0.044898927 0.0039535165 -0.10149132
000380 38 ef 59 3d 52 69 c9 bd 5c 47 35 3d c4 f0 2a 3d
       0.053206652 -0.098345414 0.044257507 0.04173352
000390 00 a9 c5 3a 56 19 dc bd b6 95 8f bd 20 df dc bb
       0.0015080273 -0.1074702 -0.07010977 -0.0067404658
0003a0 ea 57 d8 bd 1a 57 8b 3d 64 0b 04 bd 9a 21 92 3d
       -0.10563643 0.06803723 -0.032237425 0.07135315
0003b0 7c 30 37 bd 0a 93 ab bd ca 79 91 bd 40 5d f4 bb
       -0.044723973 -0.08377655 -0.071033075 -0.0074574053
0003c0 b6 69 fb 3d 48 ce 2a 3d b4 3d 4e 3d f0 a5 47 3d
       0.12276022 0.04170063 0.050351813 0.048742235
0003d0 60 fe d5 3b 10 b3 0f bd c6 ab ec 3d 50 62 8c 3d
       0.006530568 -0.035082877 0.11556201 0.06854689
0003e0 00 b2 32 bc de 4b 92 bd 10 98 a8 3c 44 0c 6a bd
       -0.010906696 -0.07143377 0.020580322 -0.057140604
0003f0 b0 0f 75 bd a4 e3 59 bd 0a d9 e8 bd 42 0c f7 3d
       -0.059829414 -0.05319561 -0.11369522 0.12062885

fc2.bias f4 [64]
000000 22 87 f9 3c 5c 86 f2 3d 02 c1 f1 bd c8 28 2c 3d
       0.030459944 0.11842033 -0.118043914 0.04203108
000010 99 31 2b 3d 17 f3 01 3e df 83 11 bc 62 b2 ac 3b
       0.041795347 0.12690388 -0.008881538 0.0052702883
000020 c7 2b df bc 32 c3 83 bd 98 02 e3 3d 2c 20 c8 bd
       -0.027242554 -0.06433715 0.11084479 -0.09771761
000030 04 a0 f1 bd c6 36 c7 3d f6 f7 07 bc 98 5c b1 bc
       -0.11798099 0.09727244 -0.008298865 -0.021650597
000040 6a b9 41 3d 7f 04 d4 3d ba 61 e4 bd 70 74 f5 3c
       0.047295965 0.1035242 -0.11151452 0.029962748
000050 00 ec c5 bd ec 57 05 bc 80 e1 51 bc 60 e8 e6 bd
       -0.09664154 -0.008138638 -0.012810111 -0.11274791
000060 f4 23 f1 3d 4c 85 53 bd 48 66 4a 3c d3 e3 a3 3d
       0.11774436 -0.051640794 0.012353487 0.080024384
000070 2e d4 d7 bd 90 ec da 3d fc b1 b6 bb c7 bc 12 bc
       -0.10538517 0.10689652 -0.0055754166 -0.008956141
000080 96 13 99 bd f8 0a c4 bd ac 64 f1 3d c4 23 13 bd
       -0.07474439 -0.095724046 0.1178678 -0.03592278
000090 21 d2 97 3d 57 d3 ee bc de 33 85 bd 40 52 63 bc
       0.07413126 -0.029153509 -0.065040335 -0.01387459
0000a0 70 25 a9 3d 88 74 05 3d dc ac 2e bd c8 b3 56 bd
       0.08259094 0.032581836 -0.04264532 -0.052417547
0000b0 9b a9 65 bc 08 68 ae bc a3 09 a6 3d 79 db 41 bb
       -0.014017488 -0.02128984 0.08107307 -0.0029580279
0000c0 bc ea ea bd 8b 53 f1 bd 06 bd 91 3d 61 91 00 bd
       -0.11470553 -0.11783513 0.071161315 -0.031388644
0000d0 8c 7f 86 bd 4c db 12 3d 06 85 af bd a2 03 7b 3d
       -0.065672964 0.03585367 -0.08570294 0.06128276
0000e0 30 91 4b 3c 4a 64 b4 bd 07 60 9e 3c 21 53 3e 3d
       0.012424752 -0.08808191 0.019332899 0.046465997
0000f0 94 02 45 bd fa f5 a3 3d 76 a9 b9 bd bc fe 38 bd
       -0.04809816 0.08005901 -0.09065525 -0.04516481

fc3.weight f4 [1, 64]
000000 eb 88 b2 3c 91 99 88 3d e8 33 70 bd 1c 24 1a 3d
       0.021793803 0.066699155 -0.05864325 0.037632093
000010 1b 80 2f bd 02 fd 81 3d d9 4c f8 bd aa f0 84 bd
       -0.04284678 0.063470855 -0.121240325 -0.064912155
000020 82 f9 88 3d c0 62 1b 3c b8 c2 75 3d 88 32 fa 3c
       0.06688215 0.009483993 0.06000015 0.030541673
000030 94 27 79 3d 69 59 fa 3c 5a da 28 3b 58 79 d9 bd
       0.06082876 0.030560212 0.0025764913 -0.106188476
000040 df 11 13 bc 48 dc 2d 3d ac 14 2b bd b6 c8 24 ba
       -0.008976429 0.042446405 -0.04176776 -0.0006286012
000050 aa 9d a9 bd 99 7a 8f bd 14 07 be 3d 90 87 e1 3c
       -0.08282025 -0.070058055 0.09278694 0.027530462
000060 ab db a0 bc 00 d6 48 3a 5e 07 ce bd 8e a0 48 3c
       -0.019635996 0.0007661283 -0.10059999 0.0122453105
000070 44 25 43 3d 2d c4 c1 3d 0f ba f4 bd 90 c5 e3 3d
       0.04764296 0.09461246 -0.1194955 0.111216664
000080 08 99 8f bd 20 c6 6c 3c a8 e6 3f bc 84 00 6e bd
       -0.0701161 0.014451534 -0.011712708 -0.05810596
000090 c7 5a 96 3d b0 84 aa bd cc 82 67 bd 60 48 9a 3c
       0.07341533 -0.083260894 -0.056521222 0.01883334
0000a0 30 4c 0f 3c 77 a1 a1 bd cc 22 3f 3d 51 5a bc bc
       0.008746192 -0.07892125 0.046664044 -0.022992285
0000b0 a2 9b e7 3d 20 7e a3 3d ec 10 dd bd 88 66 72 3c
       0.113089815 0.07983041 -0.10794243 0.014794953
0000c0 6c 48 ce 3d 11 e1 4a bd 52 41 a7 3d 82 ae 8f bd
       0.10072407 -0.049531046 0.08166756 -0.070157066
0000d0 7d de 90 3d 30 23 dc bd d8 e4 49 bb 8c f3 82 bb
       0.07073686 -0.10748899 -0.0030806568 -0.003996318
0000e0 00 34 b9 bc 20 a3 d0 bc bb 5a d9 3d 90 0e 0c 3d
       -0.022607803 -0.025468409 0.106130086 0.034193575
0000f0 7c fd 1d bd 70 28 47 3d d8 9d 4f 3d 66 5b fa bd
       -0.03857182 0.04862255 0.05068764 -0.12224464
