public/Data Sources/hepatitis_model.pth (torch, 20376 bytes, 5 tensors)

fc1.weight f4 [64, 2]
000000 78 05 de 3e 33 35 c9 bd a7 a0 f2 3e bd d1 2d bf
       0.43363547 -0.098246 0.47388193 -0.6789816
000010 f3 34 c0 3e 28 9f c5 3e d0 cb 14 bf 30 78 66 3e
       0.37540397 0.3859799 -0.58123493 0.22506785
000020 4b cc e0 be e2 ff e5 3e f8 a7 b8 3e 4e e0 a2 3e
       -0.43905863 0.44921786 0.3606565 0.31811756
000030 9f dc cd 3d fd af d2 be 21 a5 1b bf ef 04 a3 be
       0.10051846 -0.41149893 -0.6079884 -0.31839702
000040 0e b8 30 bf 90 d4 6f bd e0 7c 49 be 19 11 cd be
       -0.69030845 -0.058552325 -0.19676542 -0.40052107
000050 85 6a 52 3e f7 9c 27 bd 7d 51 97 3e 6f 1a f4 3e
       0.20548446 -0.040921178 0.29554358 0.47676417
000060 46 18 0a bf 27 61 1d bf dc 3b 00 3f 49 24 c0 be
       -0.5394329 -0.6147637 0.5009134 -0.37527683
000070 75 bc 5b 3e 91 f5 17 3f c2 f2 85 3e a5 b4 e3 bd
       0.2145861 0.5935908 0.26161772 -0.111184396
000080 eb 60 20 3f f1 77 e0 be 3c 15 a1 3c 9c 39 9b bd
       0.62647885 -0.43841508 0.019663446 -0.075793475
000090 9f d8 01 bf e4 34 27 3e c0 5d bb 3e da 65 91 3a
       -0.5072116 0.1632877 0.36594963 0.0011092976
0000a0 e8 0c b5 3e 5f d8 ab 3e dc 40 49 be 4e d7 c0 3e
       0.3536141 0.33563516 -0.19653648 0.37664264
0000b0 eb 70 2a 3f 98 f3 af 3e 40 f4 61 bc 52 4f ca 3e
       0.6657855 0.34365535 -0.013791144 0.39513642
0000c0 5a 91 16 bf f0 bc 2a bd 1e a2 f3 3e c2 28 85 3c
       -0.5881554 -0.04168409 0.47584623 0.016254786
0000d0 ff 4b 8c be ec 17 05 be ee d0 fa be ec c7 10 be
       -0.2740173 -0.12997407 -0.48987526 -0.14138764
0000e0 47 b3 9f 3d 26 78 2f bf d8 64 8f bd 6b 10 1f bf
       0.07797866 -0.68542707 -0.07001656 -0.62134427
0000f0 ed a8 9b 3e 9e e7 20 3e e8 7a 44 3e c3 e5 19 bd
       0.30402318 0.15713355 0.1918751 -0.037572633
000100 91 4e cc be 00 5e 80 3b 62 c2 c7 be 74 1f 30 bf
       -0.3990369 0.0039174557 -0.3901549 -0.68797994
000110 23 49 ad be 1c 7a 13 3e ae 13 2a 3e 50 0b f0 be
       -0.3384486 0.1440205 0.1660907 -0.4688363
000120 6a 7e d5 3e 3d d6 60 be 99 5c f6 3d 3c 46 09 3e
       0.4169801 -0.21956725 0.1202938 0.13405699
000130 a8 11 f6 be 4e 6d c8 3e 61 3f 2b 3f 64 53 ce 3e
       -0.48060346 0.39145893 0.66893584 0.40297997
000140 06 31 6a 3e 5e 37 23 3f c6 4b 74 3c 43 ae 1e 3f
       0.22870263 0.6375636 0.014910644 0.6198465
000150 1e 6b 29 bf 1b 04 0f 3f 29 9b bf 3d d6 83 c9 bc
       -0.6617907 0.5586564 0.09355766 -0.024598997
000160 fd cf 0c bf 94 17 75 3e 0f c8 40 3e 41 ce 20 3e
       -0.55004865 0.23934776 0.18826316 0.1570368
000170 a3 07 16 bf 81 68 08 3f 31 62 0e 3d 43 eb 32 bf
       -0.586054 0.5328446 0.03476161 -0.6989023
000180 d6 08 2d bf 68 89 8c be b0 c1 c5 3d 2c a3 44 3e
       -0.6759161 -0.27448583 0.096560836 0.1920287
000190 10 a5 00 3e b2 3a c9 be 53 0b de 3e c8 e4 12 bf
       0.12562966 -0.39302593 0.43368015 -0.5738034
0001a0 dd 23 b7 be 48 3c 3e 3e b2 a3 88 3e 43 64 d9 3c
       -0.3576955 0.18577683 0.2668739 0.026537066
0001b0 8b 13 db be 79 fd d5 be 11 39 ed 3e d4 00 05 3f
       -0.42788348 -0.41794947 0.463326 0.5195439
0001c0 51 b9 02 3f 67 0c 29 bf a5 49 13 3f ca 17 12 bf
       0.5106402 -0.6603455 0.5753425 -0.5706755
0001d0 05 94 80 3e 62 81 03 bf 8c 04 32 bf 82 91 b2 3e
       0.2511293 -0.513693 -0.6953819 0.3487664
0001e0 a0 0a 20 3f a0 97 a6 3e f1 be 82 be 40 1b 81 3e
       0.6251621 0.32537556 -0.25536302 0.25216103
0001f0 9b 5c 2b 3f 06 80 b0 3d 17 d6 65 3e ae 08 b0 be
       0.6693818 0.086181685 0.2244495 -0.34381622

fc1.bias f4 [64]
000000 08 3a 28 bf bd 06 7d be e0 97 11 bf 66 3f bc 3e
       -0.6571355 -0.24709602 -0.5687237 0.3676712
000010 96 6e 01 bf 1a 12 01 3e 18 56 22 bf c7 5c e5 be
       -0.50559366 0.12604561 -0.6341262 -0.44797346
000020 a6 8e f9 3e b0 7a 0a 3d 99 f4 ea be b1 d9 5d be
       0.48741645 0.03380841 -0.45889738 -0.21665074
000030 f6 b5 a8 be 34 50 b0 3e 3f f5 0d be 74 11 a1 3e
       -0.32951325 0.3443619 -0.13863085 0.31458628
000040 1c f6 f4 3d 74 22 74 be bd c1 32 3f 5d 5a 16 3f
       0.11961004 -0.23841268 0.6982687 0.58731633
000050 0f 12 09 bf e0 84 9c 3d 8d 82 2d 3f c7 7f 06 3f
       -0.5354318 0.076425314 0.6777733 0.5253872
000060 b1 7f 14 3f 2e 2a 28 bf a0 59 14 bf a9 a0 b0 be
       0.5800734 -0.6568936 -0.57949257 -0.34497574
000070 ed 46 89 3e 02 34 b6 3e 69 64 16 3d 80 23 bd 3d
       0.26811925 0.35586554 0.036716852 0.09235287
000080 aa 47 5f be 8f c0 2e 3f b7 80 0a bf 88 29 d1 be
       -0.21804681 0.6826257 -0.54102653 -0.40851998
000090 f2 77 5b bd fa 49 0b 3f a9 6a 04 bf bf 4e 1a 3f
       -0.053581186 0.54409754 -0.5172525 0.60276407
0000a0 bf 96 91 be 59 19 a1 3e d3 a7 2c 3f d6 e6 1e bf
       -0.28435323 0.3146465 0.6744358 -0.6207098
0000b0 6e 60 be be d7 22 37 3e 52 26 d2 3e 48 f3 4e be
       -0.37182945 0.17884384 0.4104486 -0.20209992
0000c0 f6 aa a8 3e 48 8d e1 be 2c 6c d2 be fa 92 09 be
       0.32942933 -0.44053102 -0.41098154 -0.13434973
0000d0 10 8c 7e 3e bb 65 21 3e 40 cc 85 3e 79 5a 87 be
       0.24858117 0.15761463 0.26132393 -0.26436213
0000e0 6e 6f ab 3e cd 61 19 3f 3a 07 8a 3d 70 bc 5c bd
       0.33483452 0.5991486 0.067396596 -0.053890646
0000f0 36 3b be bd a6 4a 12 bf fd cf 49 3e c9 ad 93 be
       -0.09288637 -0.57145154 0.19708247 -0.28843525

fc2.weight f4 [64, 64]
000000 68 5a a4 bd bd 0c f5 bd 44 02 40 bd d0 70 27 bd
       -0.08025056 -0.1196532 -0.04687716 -0.04087907
000010 ce 96 ba 3d fb bb c6 3b 18 73 58 bd 1a 93 d4 bd
       0.09110795 0.0060648895 -0.052844137 -0.1037962
000020 80 6d ea 3b 32 97 9c 3d e2 80 2b bd 9b e6 f0 bd
       0.0071541667 0.07646026 -0.04187096 -0.117627345
000030 40 7c 38 bb ed d9 a2 3d 4b 56 c3 3d 8d 5c 75 bd
       -0.002815023 0.07951722 0.095379435 -0.059902716
000040 38 a5 cb 3d 4f 59 c6 3d d4 04 f4 bd 55 36 20 3d
       0.09943622 0.09685003 -0.119149834 0.039114315
000050 ae 2a 55 bd 00 cd 66 bc 2e b7 b0 3d e8 62 d0 bc
       -0.052042656 -0.014086962 0.08628689 -0.025437787
000060 50 d2 d5 3d 5d 01 9d bd 44 9c 1c 3d 48 f6 d6 bd
       0.104405046 -0.07666276 0.038234964 -0.10496193
000070 e8 23 6a 3d 3a e2 f2 3d 2f 5b d6 3d 00 d9 18 bd
       0.05716315 0.118595555 0.10466611 -0.037316322
000080 00 e4 af b9 5e 66 86 3d b6 bc a1 bd d2 6e 06 3d
       -0.00033548474 0.06562494 -0.07897322 0.03282053
000090 78 8d ce 3d b0 c4 9a 3d 3c f1 07 3d a0 45 f1 3d
       0.10085577 0.075570464 0.033189043 0.11780858
0000a0 b0 aa fa 3d db ac 49 bd c6 05 f0 bd 7e b0 0e bd
       0.12239587 -0.049237113 -0.11719851 -0.034836285
0000b0 80 60 3f 3b 59 ce 74 3d ca 6c f1 3d b5 cc d9 bc
       0.0029201806 0.0597671 0.11788328 -0.02658687
0000c0 aa 89 a4 3d e3 73 a1 bc d2 dd c8 bb a8 31 e4 3d
       0.0803407 -0.01970858 -0.0061299587 0.11142284
0000d0 8c 2d 6b bd 03 49 86 3d 28 62 bc bd 2c b9 4d 3c
       -0.057416484 0.06556895 -0.09198409 0.012556355
0000e0 00 16 f3 3d 4b 48 c0 bc 00 1b b7 bc a6 12 a4 bd
       0.118694305 -0.023471972 -0.022351742 -0.080113694
0000f0 2f 49 4c 3d 04 a7 30 bd ff b7 26 bd b0 fa d7 3d
       0.04987448 -0.04312803 -0.040702816 0.10545862
000100 4d ee 2f bd b6 5f d8 3c 91 5f df 3d c0 de c6 3d
       -0.04295187 0.026412826 0.109069 0.09710455
000110 b4 e5 7f bd ec 25 ae bd a1 63 36 3d 0e 9d de 3d
       -0.06247492 -0.08503327 0.044528607 0.108697996
000120 3c 51 f5 3d 88 32 f8 3d ec 59 ad 3d 41 78 d1 3d
       0.11978385 0.12119013 0.08464417 0.10228015
000130 d0 dc 8b bd 25 75 f7 3d 26 18 91 bc 6b fd ab 3d
       -0.06829226 0.120828904 -0.01771171 0.08397945
000140 f2 87 a8 bc 33 b1 93 3d 48 da 84 bc 37 af 37 3d
       -0.020572636 0.072115324 -0.016217366 0.044844832
000150 bb 35 cd 3d 3a ed b3 3d f4 77 37 bd 46 fa 83 bd
       0.10020014 0.08785482 -0.04479213 -0.0644422
000160 be 14 bf bd 93 95 fe bb c4 5d d7 3d d0 dc fd bc
       -0.09330128 -0.0077692955 0.10515931 -0.03098908
000170 e3 0f 02 3d 3c cf 0a 3d 63 2e e2 bd 0b 15 c5 3d
       0.031753432 0.03388904 -0.11044004 0.09623154
000180 1c 18 2d 3d a0 91 c8 bb 50 4b 1d 3d b4 93 b6 3d
       0.04225932 -0.0061208755 0.0384019 0.08914891
000190 be 3e 8c bd fd 84 a5 bd c8 3d 38 bd a9 44 e0 bd
       -0.068479046 -0.08082006 -0.044980794 -0.10950596
0001a0 d4 9b 6e 3d 81 b9 89 bd a0 64 64 bd 76 93 b4 bb
       0.058254078 -0.06724835 -0.055760026 -0.005510743
0001b0 6e dc f2 bd fe 66 2c 3c 78 a3 dd bd e6 26 43 bd
       -0.1185845 0.010522602 -0.10822195 -0.04764452
0001c0 18 25 5e bd ed 45 4f 3d a7 04 f8 bd 5a 22 88 3d
       -0.054234594 0.050603796 -0.12110262 0.06647177
0001d0 72 c2 c9 3d 4d 8e 9d bd a8 2d 34 3d f3 95 09 3c
       0.098515406 -0.07693157 0.043988854 0.008397567
0001e0 7e 9e b2 3d d2 96 03 3d 03 3b 13 3d 10 62 c2 bd
       0.08721636 0.032126255 0.03594495 -0.0949136
0001f0 eb 93 bf bd b0 b7 d4 bd 50 db e0 3d 7d d8 57 3d
       -0.09354385 -0.10386598 0.109793305 0.052696694
000200 f8 78 a5 bd 00 27 0a bb e0 4b f9 3c 00 6a 8e 3a
       -0.080797136 -0.0021080375 0.030431688 0.0010865331
000210 d0 ec 69 bc 4e d1 c1 3d ba ed 8a 3d 0c e0 b1 3d
       -0.014277652 0.0946375 0.06783624 0.08685312
000220 52 d4 90 3d e0 fd a2 bd 40 89 9a bb 34 c5 9c bd
       0.07071747 -0.07958579 -0.0047160685 -0.07654801
000230 f0 39 9a bc a0 27 ee 3b e0 1e 6f 3c c4 99 83 3d
       -0.018826455 0.0072679073 0.0145947635 0.06425813
000240 bc b4 ae 3d 20 16 0b bc 8c 95 22 bd b0 54 15 bc
       0.08530566 -0.008489162 -0.0396934 -0.009114429
000250 94 68 c4 bd 04 fc 6a 3d 96 02 eb bd dc 2f b8 bd
       -0.09590259 0.057369247 -0.114751026 -0.089935035
000260 28 27 ac bd 28 3e 36 bd 72 80 ae 3d de fa 9c bd
       -0.08405906 -0.04449287 0.08520593 -0.076650366
000270 08 48 bc bd 48 a6 c1 3d c4 99 cc bd be 8e d4 bd
       -0.09193426 0.09455544 -0.09990266 -0.103787884
000280 3e bd 81 bd 84 24 64 3d 74 ea ae bd 80 a3 cd 3c
       -0.06334923 0.055698887 -0.08540812 0.025102377
000290 80 38 76 3b 20 5a 26 bc 14 4a 92 bd ba 8d ff 3d
       0.0037570298 -0.010153323 -0.071430355 0.12478204
0002a0 06 1e d2 bd 00 12 98 bb 4c 13 55 bd 4c e8 1f 3d
       -0.10259633 -0.0046408176 -0.052020356 0.039039895
0002b0 60 cb 9d bb 30 d6 a4 bd d0 7d 90 bc 80 af 19 bd
       -0.004815504 -0.080486655 -0.017638117 -0.037520885
0002c0 5c 82 b7 3d de 33 b3 bd 34 43 bd bd 64 f6 3c bd
       0.08960411 -0.08750127 -0.092413336 -0.046133414
0002d0 c4 e7 21 bd 90 ae cb 3c 98 3e fb bc 04 ee 72 bd
       -0.03952767 0.024863511 -0.030669495 -0.05930902
0002e0 a8 60 21 bd 7a 9b d6 3d b2 f8 ae bd 62 dc 8a bd
       -0.03939882 0.104788736 -0.085435286 -0.06780316
0002f0 bc d2 7a 3d 76 da d6 bd be e0 82 3d 70 a5 29 bd
       0.06123613 -0.10490887 0.063905224 -0.04141754
000300 d2 4c b6 3d bb 5f 5c bd ef 7b 89 3d 20 8a 27 3d
       0.08901371 -0.053802233 0.067130916 0.04090321
000310 f8 9e ee 3c be 87 1c 3d b4 ef 99 bd fa 26 b4 bd
       0.029128537 0.03821539 -0.07516423 -0.08796497
000320 80 62 0b 3d f0 31 7d bd 8a 13 ee 3d 4d 35 d0 3d
       0.034029484 -0.061815202 0.116248205 0.10166416
000330 c0 51 3f 3d 10 e1 8e bd f9 61 30 3d 47 a8 31 bc
       0.046708822 -0.06976521 0.043062184 -0.010843343
000340 8f fa 42 3d 1b cb 9e 3c 00 ef 13 3d 7a e5 ac bd
       0.047602233 0.019383958 0.0361166 -0.08442207
000350 55 78 9e 3d e8 11 f8 bc b4 c2 8d 3d f4 30 08 3d
       0.07737795 -0.030281976 0.06921902 0.03324981
000360 f0 f1 58 bd b5 a5 81 3d a2 5b d3 3d 88 19 90 bc
       -0.052965105 0.06330434 0.10320212 -0.0175903
000370 86 e6 54 bd 90 fc 56 bc 1f a5 10 bc d2 6f 49 3d
       -0.051977657 -0.013121739 -0.00882843 0.049178906
000380 8e e7 e4 3d 4c 2f 05 bd 58 b6 60 bd 0a 30 44 bc
       0.11176978 -0.03251581 -0.054861397 -0.011974344
000390 80 da cc 3d 29 58 60 bc 30 c2 ad 3d ad b1 83 3d
       0.10002613 -0.013692894 0.08484304 0.06430373
0003a0 5d 88 ba 3c 6d 5f b4 3d 62 d8 bf bd e7 fc 31 3d
       0.022770101 0.088072635 -0.093674436 0.043454077
0003b0 68 df cf 3d 0b d2 99 bc 68 3c 49 bd ae 5e cc 3d
       0.10150033 -0.018776914 -0.049129874 0.09978996
0003c0 20 c6 42 bd 9c be fa 3d 21 4a e3 3c 04 4c 81 bd
       -0.047552228 0.12243387 0.027745308 -0.06313327
0003d0 a8 ac 94 bc 09 3f 8c bc 3e b1 cb 3d 08 47 31 bd
       -0.018148735 -0.017119901 0.09945916 -0.04328063
0003e0 f5 84 ee bd 10 77 c8 bd b1 77 f8 bd ac 4c 16 bd
       -0.11646453 -0.09788334 -0.12132204 -0.036694214
0003f0 aa 16 1a 3d 6c ee 8f bd da 08 ce bc 5a 16 89 bd
       0.03761927 -0.07027897 -0.025150705 -0.06693716

fc2.bias f4 [64]
000000 60 60 38 3c 10 dd e1 b7 68 94 ed bd 98 38 b1 bd
       0.011253446 -2.692503e-05 -0.11600572 -0.086533725
000010 47 78 cc bd a0 0b b4 bb 50 46 6e 3d b0 c6 15 bd
       -0.099838786 -0.00549455 0.058172524 -0.036566436
000020 35 63 2f 3d a4 3e 53 3d 82 40 99 bd 78 2c af 3d
       0.04281922 0.05157341 -0.07483007 0.085534036
000030 d4 fd 71 3d dc 7d ed bd b4 6b 46 3c b2 3f f7 bd
       0.05907996 -0.115962714 0.012110639 -0.12072696
000040 ef ab 15 3b 48 3f 69 bd 35 30 66 bd a8 1b 61 3d
       0.0022838076 -0.056945115 -0.056198318 0.054958016
000050 06 6c e8 bd ac 1d be bd 23 12 b7 bc aa 4b a5 bd
       -0.11348729 -0.09283003 -0.022347515 -0.080710724
000060 f2 5d ad bd a8 e3 87 3d 60 9e 1f bd 7a fc 98 3d
       -0.08465184 0.06635219 -0.038969398 0.07470031
000070 3a 9b c3 bd 4c 3f e0 3d 80 fa e8 3b 54 84 25 3d
       -0.095510915 0.10949573 0.00710994 0.0404094
000080 38 d0 aa 3d 00 43 7e 3c b6 71 99 bd 2c 39 5d 3d
       0.08340496 0.015518904 -0.07492392 0.0540096
000090 54 4b 9b bd 00 f0 10 b9 9e b5 55 bd c0 ae 38 bd
       -0.07582727 -0.00013822317 -0.052175157 -0.04508853
0000a0 25 39 1d 3d 50 97 3a bc 5e 75 9f bd 38 26 a1 bc
       0.038384575 -0.011388615 -0.07786058 -0.019671544
0000b0 d4 cb 84 bd 82 10 d7 bd 40 8c a4 bd 58 3c 23 bd
       -0.0648419 -0.105011955 -0.08034563 -0.03985247
0000c0 60 4d 4c 3d f1 41 bc 3d 4f f3 27 bc 37 7d aa 3b
       0.049878478 0.09192265 -0.01025088 0.005202915
0000d0 da 9e e7 3d 0d e4 c8 bd 20 e5 8d 3c 96 12 9d 3d
       0.113095954 -0.09809122 0.01732117 0.076695606
0000e0 a4 29 aa 3d 3c a8 71 bd 76 21 ef bd 70 6b 3b bd
       0.083087236 -0.05899833 -0.11676304 -0.045756757
0000f0 04 2d 45 bd b5 92 a9 bc eb 94 d3 3d 8d c3 d5 bc
       -0.048138633 -0.020699838 0.10331138 -0.026094222

fc3.weight f4 [1, 64]
000000 5b c5 ed 3d de 51 b0 bd 6e a1 fb 3d b0 bb 2a 3d
       0.11609908 -0.08609365 0.1228665 0.0416829
000010 81 8d ed bc 84 f9 cb bd 0e 64 bf 3d 58 cd fd bd
       -0.028998138 -0.09959701 0.09345256 -0.12392682
000020 6b 9c 85 3b e0 5e c0 bc 28 3a 9d 3d 5e 06 74 bd
       0.0040774844 -0.02348274 0.07677108 -0.059576385
000030 10 9c b0 bd 38 7c 65 bd e5 43 1c 3d 08 88 3f 3d
       -0.086235166 -0.056026667 0.038150687 0.04676059
000040 56 0a 21 bc 90 8c 2e 3c bb c3 04 bd ec f0 e8 bd
       -0.009829124 0.01065363 -0.032413226 -0.11374077
000050 5e c1 e3 bd 24 97 59 bd 99 f6 3f bd a8 a1 91 bd
       -0.11120866 -0.053122655 -0.046866033 -0.071109116
000060 56 12 dd bd 24 e4 72 3d cc 03 71 bd de 59 e0 3d
       -0.10794513 0.059299603 -0.05884151 0.10954641
000070 dd ed b9 bd 8f 74 f5 3d 32 28 c6 bd fb 13 ba bd
       -0.09078572 0.119851224 -0.096756354 -0.09085842
000080 0b 51 f8 3d a0 64 09 bd 5c 01 f3 3d 6e 7b fd 3d
       0.12124833 -0.03354323 0.11865494 0.12377058
000090 cc d0 32 bd 00 62 79 3a 98 63 a9 bd 6f ff 9f 3d
       -0.043656155 0.00095131993 -0.08270949 0.07812392
0000a0 5d ce e6 bd 40 d6 56 3b 40 a3 d2 3b e0 63 f2 3d
       -0.112698294 0.0032781512 0.0064281523 0.11835456
0000b0 79 1a 8a 3d 90 d1 29 bc dc 57 e6 3c e5 fb 47 bb
       0.067433305 -0.010364905 0.028118066 -0.003051513
0000c0 8e b4 c0 bd 88 60 6a 3d 44 0d 18 bd a4 d3 88 3c
       -0.09409438 0.057220966 -0.037122026 0.01670248
0000d0 e4 19 f2 3d 2a 16 2e 3d 4c ab a7 bd 24 f2 9e bd
       0.118213445 0.042501606 -0.08186969 -0.077610284
0000e0 66 05 db bd fc d9 30 bd 50 43 16 bd 83 95 8d bd
       -0.10694389 -0.043176636 -0.036685288 -0.06913283
0000f0 fa 1e e4 bd 12 00 1d 3d 12 2a d1 bd 4f 22 54 bd
       -0.11138721 0.038330145 -0.102131024 -0.05179053
