public/Data Sources/measles_model.pth (torch, 20612 bytes, 5 tensors)

fc1.weight f4 [64, 3]
0	0x3da4d318	0.080480754
1	0xbeaafeb7	-0.33397457
2	0xbea62d58	-0.3245647
3	0x3eb21c72	0.34787327
4	0xbeae0613	-0.3398901
5	0xbea2a490	-0.31766176
6	0x3e9c646f	0.30545375
7	0xbeba8dff	-0.3643646
8	0x3c48b65e	0.012250511
9	0xbdb07cf7	-0.08617585
10	0xbd5c8713	-0.053839754
11	0x3f072d25	0.5280326
12	0x3f0d173f	0.55113596
13	0xbf0ffb4c	-0.56242824
14	0xbec19bc3	-0.3781415
15	0x3f12d0d6	0.5734991
16	0x3e824fa2	0.2545138
17	0xbef9cb5e	-0.4878797
18	0xbe85b800	-0.26116943
19	0x3cc72d40	0.02431357
20	0xbf0743fd	-0.52838117
21	0x3ede2774	0.43389475
22	0x3eef454c	0.46732557
23	0xbe20332c	-0.1564452
24	0x3e3f2cfe	0.18669507
25	0xbe1450d5	-0.1448396
26	0x3dfa291a	0.12214871
27	0x3d81f855	0.06346194
28	0xbc203efd	-0.009780643
29	0xbe98c2fd	-0.29836264
30	0x3de85049	0.11343438
31	0xbdae5994	-0.085131794
32	0x3edcd3f5	0.4313046
33	0x3efcf1ee	0.49403328
34	0x3edc064c	0.42973554
35	0xbe1d2862	-0.15347436
36	0xbeed3aa0	-0.4633379
37	0xbee38f7a	-0.444454
38	0xbd6b463e	-0.057440035
39	0xbe5cfe25	-0.21581323
40	0xbdb19f4f	-0.08672964
41	0xbe7f9a9c	-0.24961323
42	0x3f091f12	0.53563035
43	0xbecce7f6	-0.40020722
44	0x3e3b9fe1	0.18322708
45	0xbeebe7b8	-0.46075225
46	0x3e27f458	0.16401803
47	0xbeb72766	-0.35772246
48	0x3eaed373	0.34145698
49	0x3ed93953	0.42426547
50	0x3eff82bc	0.4990443
51	0x3e4fdb86	0.20298585
52	0xbe8d51f8	-0.276016
53	0xbee06a90	-0.438313
54	0x3e5bf6bc	0.2148084
55	0x3eb7180e	0.3576054
56	0xbef1b7a0	-0.47210407
57	0x3f01697a	0.5055157
58	0x3d31d063	0.043411624
59	0xbed2d727	-0.41179773
60	0x3eb8770d	0.3602833
61	0xbee8d9ca	-0.4547866
62	0x3e75caf3	0.240032
63	0x3efd319e	0.49451917
64	0x3ec0e616	0.37675542
65	0xbe4c8f81	-0.19976617
66	0x3d898a86	0.067158744
67	0x3dc315ac	0.09525618
68	0xbf04d466	-0.51886594
69	0x3c0aae80	0.008464456
70	0xbeb553d6	-0.35415524
71	0x3e83f530	0.25773
72	0x3de4819e	0.11157535
73	0x3cf89043	0.030342227
74	0x3ed3cff4	0.41369593
75	0xbc9c57d3	-0.019084847
76	0x3e64eddf	0.22356366
77	0x3f023d7b	0.5087506
78	0xbeb91794	-0.361508
79	0xbe8aea55	-0.27131906
80	0xbd75de20	-0.060026288
81	0xbe52540d	-0.20539875
82	0xbf070512	-0.5274211
83	0xbe264f37	-0.16241156
84	0x3ec6e2d9	0.38844946
85	0x3e3fcd4d	0.1873066
86	0x3f04e79b	0.519159
87	0x3ef994ad	0.48746243
88	0x3e1e2f02	0.1544762
89	0xbea66a77	-0.325031
90	0xbe928388	-0.28615975
91	0x3d4e9580	0.050435543
92	0xbedd4edc	-0.43224227
93	0x3e8168d4	0.2527529
94	0xbeb8247c	-0.35965335
95	0xbeaf5884	-0.3424722
96	0x3e807599	0.2508972
97	0xbd6c0459	-0.057621334
98	0x3eecd731	0.46257928
99	0x3eaae496	0.33377522
100	0x3e217768	0.15768206
101	0x3cdd4520	0.0270105
102	0x3d3ae147	0.045624997
103	0x3eca9c0f	0.39572188
104	0xbef6ea35	-0.4822556
105	0x3dc5ba08	0.09654623
106	0x3d4568f0	0.04819578
107	0xbe0b12c6	-0.1358138
108	0xbdbfa297	-0.093571834
109	0x3e0c798e	0.13718244
110	0x3decec9c	0.11568567
111	0x3e9469df	0.28987023
112	0xbebe3347	-0.37148497
113	0xbf06c05d	-0.52637273
114	0x3e2ed6f5	0.17074187
115	0x3da96530	0.08271253
116	0x3ecdbab0	0.40181494
117	0xbec835f7	-0.39103672
118	0xbdd208a3	-0.102555536
119	0x3c926d6b	0.01787444
120	0xbe110382	-0.14161494
121	0x3e890f1c	0.2676934
122	0xbe50fad6	-0.20408186
123	0xbe3255da	-0.17415562
124	0x3e8fee27	0.28111383
125	0xbdd6f7f0	-0.10496509
126	0xbec96927	-0.39338037
127	0xbdb436f3	-0.08799543
128	0xbec93eb6	-0.39305657
129	0x3ddf0722	0.10890032
130	0x3f0cad1b	0.5495164
131	0xbf10a0cd	-0.5649536
132	0xbe0a13ac	-0.13484067
133	0xbf028f68	-0.5100007
134	0x3ec2fd28	0.38083768
135	0xbedd3895	-0.4320723
136	0xbe05cdca	-0.13066784
137	0xbe53c0aa	-0.20678964
138	0xbeccd72f	-0.40007922
139	0xbe3152e3	-0.17316775
140	0xbed5cb08	-0.41756463
141	0x3ecf749e	0.4051866
142	0xbe0b950a	-0.13631073
143	0x3e1fca18	0.15604436
144	0x3e9667e7	0.29376146
145	0x3f0977e5	0.5369857
146	0x3ddbbaa6	0.1072896
147	0x3e6e85e0	0.23293257
148	0xbf0e6700	-0.55625916
149	0xbc81aa96	-0.015828412
150	0xbeb1c604	-0.34721386
151	0x3ee69344	0.4503423
152	0xbed7d974	-0.4215809
153	0x3f0cb61f	0.54965395
154	0xbe8d4fd0	-0.27599955
155	0x3e446ae2	0.19181398
156	0xbe0023d6	-0.1251367
157	0xbe190320	-0.14942598
158	0x3f125f85	0.57177
159	0x3e8becf6	0.27329224
160	0xbdcf8c16	-0.10134141
161	0xbe329286	-0.17438707
162	0xbf00666e	-0.50156295
163	0xbdc12b97	-0.09432142
164	0x3d082498	0.033238024
165	0x3d5eef83	0.054427635
166	0x3ee32f74	0.4437214
167	0xbd133549	-0.03593949
168	0x3e1c304f	0.15252803
169	0xbefedb09	-0.49776486
170	0xbeeb1072	-0.45910984
171	0xbef08d41	-0.46982768
172	0xbe37294b	-0.17886846
173	0x3e6cfbd2	0.23142937
174	0x3ebaa6da	0.36455423
175	0x3eb513b9	0.3536661
176	0x3ec6fc15	0.38864198
177	0xbcff3db8	-0.03115736
178	0xbda6fd85	-0.08153824
179	0xbcbf9bab	-0.023389658
180	0x3d3546eb	0.044257086
181	0xbd8fe43f	-0.07025956
182	0x3ef02e77	0.4691045
183	0xbf00b62a	-0.5027796
184	0x3f016ba6	0.50554883
185	0x3eac271a	0.33623582
186	0xbe2ffebc	-0.17187017
187	0xbf095521	-0.5364552
188	0xbda6b1e8	-0.08139402
189	0x3ed210fd	0.41028586
190	0x3ee276c8	0.44231248
191	0x3e14b8a1	0.14523555

fc1.bias f4 [64]
0	0x3d3ef048	0.04661587
1	0xbe788c76	-0.24272332
2	0x3e06e5aa	0.13173547
3	0xbe84b420	-0.25918674
4	0x3ea48415	0.3213202
5	0xbe6535ca	-0.223838
6	0xbdd2690c	-0.10273942
7	0xbee5170a	-0.4474414
8	0xbc8a4f9e	-0.016883668
9	0x3f0f95c6	0.5608791
10	0x3f0e6ff5	0.5563958
11	0xbe53a0ff	-0.20666884
12	0x3f0aaa33	0.54165953
13	0x3e9462b1	0.28981546
14	0xbeac1d1d	-0.33615962
15	0xbe98b2a5	-0.29823795
16	0x3efbfe31	0.4921737
17	0xbd49aa73	-0.04923482
18	0xbe65b832	-0.22433546
19	0xbe7cd444	-0.24690348
20	0x3cbfca6c	0.023411952
21	0x3e515e85	0.20446213
22	0x3e99bde1	0.3002768
23	0xbef2f1e4	-0.47450173
24	0x3e6ed11a	0.23321953
25	0x3e9b2571	0.30302003
26	0xbed0aca4	-0.40756714
27	0x3ec4f66a	0.3846925
28	0xbeebd929	-0.46064118
29	0x3f026ebf	0.50950235
30	0xbd76fa30	-0.06029719
31	0xbedab108	-0.4271319
32	0xbefe0e72	-0.49620396
33	0xbee28336	-0.4424073
34	0x3e980d5e	0.29697698
35	0xbed3658e	-0.41288418
36	0x3e867d85	0.2626764
37	0x3eba4afa	0.36385328
38	0x3e1433b5	0.1447285
39	0x3edd0672	0.4316898
40	0x3e89278d	0.26787987
41	0x3e4e116a	0.2012383
42	0x3e5fed1c	0.21867794
43	0x3ed267ff	0.41094968
44	0xbf138383	-0.57622546
45	0x3f0dfc19	0.55462795
46	0x3eaa5708	0.33269525
47	0xbee9adda	-0.4564045
48	0xbef012b7	-0.46889278
49	0x3f0da600	0.5533142
50	0xbed8375d	-0.4222974
51	0x3d8587fe	0.06520079
52	0x3e846dd8	0.25865054
53	0xbe4e8a52	-0.20169953
54	0x3ea633c9	0.32461384
55	0x3c47f998	0.012205504
56	0x3ea7b159	0.32752493
57	0x3e9ed7d4	0.3102404
58	0x3e4e9d3d	0.20177169
59	0x3ecbca9b	0.39803013
60	0x3eeb2bb9	0.45931795
61	0xbeba2664	-0.36357415
62	0xbd254b20	-0.040354848
63	0x3e7f0934	0.24905854

fc2.weight f4 [64, 64]
0	0xbce530f8	-0.027977452
1	0xbd7acb1c	-0.061228856
2	0x3dc91fb2	0.098204985
3	0xbcbad3eb	-0.022806128
4	0x3df5dadc	0.12004635
5	0x3e04742e	0.12934944
6	0x3df14808	0.11781317
7	0x3dc686c8	0.09693676
8	0x3d9afdda	0.075679496
9	0x3d5a816a	0.053346075
10	0x3cf297bc	0.029613368
11	0x3d0f27d4	0.034950092
12	0xbda388b7	-0.07985061
13	0xbdda2c75	-0.10653011
14	0x3dcaf202	0.099094406
15	0xbdd24058	-0.10266179
16	0xbc08e52f	-0.008355423
17	0xbd8ce0e4	-0.06878832
18	0x3cf2c2e0	0.02963394
19	0xbd614549	-0.054997716
20	0xbdee82af	-0.1164602
21	0x3d950399	0.07276077
22	0xbaaca6e5	-0.0013172297
23	0xbc5d1630	-0.013494059
24	0x3dba51d2	0.09097637
25	0xbc144fa4	-0.009052191
26	0x3d87908c	0.06619367
27	0x3d505890	0.05086571
28	0xbceb17cb	-0.028697869
29	0x3d4ab946	0.049493097
30	0x3de00edc	0.10940334
31	0xbdd9872e	-0.106214866
32	0xbdf8d3b7	-0.121497564
33	0xbdc33140	-0.09530878
34	0xbdb43f40	-0.088011265
35	0xbdceac52	-0.10091461
36	0x3de57abb	0.112050496
37	0x3d811a77	0.06303876
38	0x3d1e6709	0.03867248
39	0xbdcfd7d4	-0.10148588
40	0xbd114488	-0.035465747
41	0xbd701317	-0.058611955
42	0x3cfe847c	0.031069033
43	0xbd5993cd	-0.05311947
44	0x3de57e1c	0.11205694
45	0x3db20110	0.08691609
46	0x3bbbb3cf	0.005728222
47	0xbd939d96	-0.072077915
48	0xbdab25f9	-0.08356852
49	0x3d9ff743	0.07810833
50	0xbd377e0c	-0.044797942
51	0xbd4868e7	-0.048928168
52	0xbdb98819	-0.09059162
53	0x3d2172b3	0.039416026
54	0xbd68e924	-0.056862965
55	0xbd47ee73	-0.048811387
56	0x3cce0708	0.025149837
57	0x3cbc355b	0.02297466
58	0xbddcd6b8	-0.10783142
59	0x3de72e96	0.112881824
60	0xbcfecf1b	-0.031104615
61	0x3de4bf53	0.11169305
62	0x3d4f8270	0.050661504
63	0x3d788b46	0.060679697
64	0xbb3e8700	-0.0029072165
65	0x3daa9c2a	0.08330567
66	0x3d6f6502	0.058445938
67	0x3dbba49e	0.091622576
68	0xbdf23e37	-0.11828273
69	0x3d84a7e8	0.06477338
70	0xbcd871e0	-0.026421487
71	0x3bb09da0	0.005389884
72	0x3d9268f2	0.07148923
73	0xbddf69d7	-0.10908859
74	0x3b9a398a	0.004706566
75	0xbd354e81	-0.04426432
76	0x3d3b7472	0.045765348
77	0xbd6f2314	-0.058383062
78	0xbda90f4c	-0.08254871
79	0xbde4ffda	-0.11181612
80	0xbdad0d29	-0.08449776
81	0xbd8a2c7c	-0.06746766
82	0x3dc01464	0.09378889
83	0xbd460008	-0.048339874
84	0xbd764d79	-0.060132477
85	0x3d396442	0.04526163
86	0x3df8b5cd	0.12144051
87	0xbdfaaee8	-0.12240392
88	0xbcea55b1	-0.028605314
89	0x3d3e8b1b	0.04651938
90	0x3d813efa	0.0631084
91	0xbd790da7	-0.060804036
92	0x3de0cabf	0.10976171
93	0xbd81c6f7	-0.06336778
94	0x3df72108	0.12066847
95	0x3db9a314	0.09064308
96	0x3cede38e	0.02903917
97	0x3cdce1a8	0.02696307
98	0x3d1a4008	0.03765872
99	0x3df314c8	0.11869198
100	0x3bd73ee1	0.006568775
101	0xbdf69d5b	-0.12041732
102	0x3c0525f2	0.008126723
103	0x399bf63c	0.00029747363
104	0xbd45e79f	-0.048316594
105	0xbc7bd4d6	-0.015370568
106	0xbdfce6bb	-0.12348696
107	0x3d7f81fb	0.06237982
108	0x3d63e72c	0.055640385
109	0xbd5603c3	-0.05224968
110	0x3dd6eb87	0.10494142
111	0x3a542800	0.00080931187
112	0xbdce8d27	-0.100855164
113	0xbd3dbb79	-0.046321366
114	0x3dad5110	0.08462727
115	0x3dffa311	0.12482274
116	0xbd214b93	-0.039378714
117	0x3d94d6d2	0.07267536
118	0x3dc262ea	0.094915226
119	0x3d9af7d3	0.075668
120	0x3d5554d8	0.052082866
121	0x3a7a003d	0.00095367787
122	0xbb66a0d2	-0.0035191071
123	0x3db5b284	0.0887194
124	0xbc4759af	-0.012167378
125	0x3cd95105	0.026527891
126	0xbd6b5470	-0.057453573
127	0x3e0264a0	0.12733698
128	0x3dd8cfc2	0.10586502
129	0x3da26d14	0.07930961
130	0xbd1c4589	-0.03815225
131	0xbd28a340	-0.041171312
132	0xbdc468cb	-0.095903
133	0x3c7615f0	0.015019879
134	0x3dfcd56e	0.12345396
135	0xbd8c537c	-0.06851861
136	0xbdac4346	-0.08411269
137	0xbd6b11dc	-0.05739008
138	0x3d9292cc	0.071569055
139	0xbdb9507b	-0.090485536
140	0xbd02a8e4	-0.031899348
141	0xbd94d5ed	-0.072673656
142	0xbce88133	-0.02838192
143	0x3db4825e	0.08813928
144	0xbcf625f2	-0.03004739
145	0xbd062268	-0.032747656
146	0x3deea86c	0.11653218
147	0x3d759820	0.05995953
148	0xbd15f9fd	-0.03661536
149	0x3bebf30f	0.0072006057
150	0xbc770c2f	-0.015078588
151	0xbc9260f0	-0.017868489
152	0xbdc31a29	-0.09526474
153	0x3d0173c9	0.031604562
154	0x3db49412	0.08817305
155	0xbc843d1e	-0.016142424
156	0xbe029c9d	-0.12755056
157	0xbd1df3cb	-0.038562577
158	0x3d2a3a08	0.04155925
159	0xbde22fa8	-0.11044246
160	0x3c7d1031	0.015445755
161	0x3deec602	0.11658861
162	0x3dd71360	0.10501742
163	0x3d857f8c	0.06518468
164	0x3b97b373	0.0046295463
165	0xbd85d61c	-0.06534979
166	0x3c00f0e9	0.007869937
167	0x3ddad019	0.10684223
168	0xbd7f9de1	-0.062406424
169	0xbd8cc544	-0.06873563
170	0xbdac668c	-0.08417997
171	0xbd22f5be	-0.03978514
172	0xbd15a4c0	-0.03653407
173	0x3dd9c747	0.10633712
174	0xbc66865c	-0.01407012
175	0xbde7ec62	-0.11324383
176	0x3dd2375b	0.102644645
177	0xbdc5ba46	-0.096546695
178	0xbc1537a0	-0.0091075
179	0x3dbed50d	0.0931798
180	0x3d6db013	0.058029246
181	0x3d186eb0	0.037214935
182	0x3dba490c	0.09095964
183	0xbdbc9897	-0.09208792
184	0x3d8db079	0.06918425
185	0xbde4d344	-0.11173108
186	0x3ddb3d32	0.107050315
187	0xbc9d270e	-0.019183662
188	0x3c40fb85	0.011778717
189	0x3d64eeec	0.055891916
190	0xbd4b46c4	-0.049628034
191	0xbc0b5b3e	-0.008505641
192	0xbdaa0b00	-0.08302879
193	0xbc04e612	-0.008111494
194	0x3df74481	0.12073613
195	0x3b6a035a	0.0035707564
196	0xbc3de414	-0.011590023
197	0xbdcfbad9	-0.1014306
198	0xbd7e9b38	-0.062159747
199	0x3d78c7d0	0.06073743
200	0xbc2a24cb	-0.010384749
201	0xbd9ab8b0	-0.075547576
202	0xbc70b644	-0.014691893
203	0x3d9a4b59	0.07533903
204	0x3c334230	0.010941073
205	0x3d974b2a	0.07387383
206	0x3c966e6a	0.018363196
207	0x3cab0828	0.020877913
208	0x3ccbec49	0.024892943
209	0xbd4b8f6c	-0.049697325
210	0xbd17dfb8	-0.03707859
211	0xbdf0344c	-0.11728725
212	0xbd9618e8	-0.07328969
213	0x3d9749dc	0.073871344
214	0x3d24097e	0.040048115
215	0x3dbdab68	0.09261209
216	0xbc9952aa	-0.018716175
217	0x3d00721c	0.031358823
218	0xbdfc363a	-0.123150304
219	0x3d9e6426	0.077339455
220	0x3cac84ef	0.021059481
221	0x3d4f89bb	0.05066846
222	0x3db254be	0.087075695
223	0xbb2bd6c0	-0.002622053
224	0x3d80d8fc	0.062913865
225	0x3d3ff43c	0.04686378
226	0x3d90d4c3	0.07071831
227	0xbdd09756	-0.10185115
228	0x3d3d20d8	0.0461739
229	0xbda28ede	-0.07937406
230	0x3dce4990	0.10072625
231	0xbded4c7e	-0.11586855
232	0x3d28a79f	0.04117548
233	0x3dcf9ce2	0.10137345
234	0x3dd73c36	0.10509531
235	0x3dba220b	0.090885244
236	0x3deab950	0.11461127
237	0xbdedc29a	-0.11609383
238	0xbdc13c58	-0.09435338
239	0x3dd0b6a8	0.10191089
240	0x3df5fdbc	0.120112866
241	0x3d657599	0.056020353
242	0x3d957fd8	0.07299775
243	0xbd1012f9	-0.035174344
244	0x3dbb2d87	0.09139543
245	0x3dffe652	0.12495102
246	0xbcb3552d	-0.0218912
247	0xbdaa24fd	-0.08307836
248	0xbd551362	-0.052020438
249	0x3c6f4b73	0.014605391
250	0x3d28dde1	0.041227225
251	0xbd41470f	-0.047186907
252	0xbcf78d53	-0.030218756
253	0x3db4a3a7	0.08820277
254	0x3ddd12c6	0.107945964
255	0xbde62715	-0.11237923

fc2.bias f4 [64]
0	0xbcae2842	-0.02125943
1	0x3c443454	0.011975367
2	0xbca05d6c	-0.019575797
3	0x3dfe33cc	0.12412223
4	0xbd3f9029	-0.04676834
5	0xbca8065c	-0.020510845
6	0x3db304c2	0.08741142
7	0xbdbd490c	-0.09242448
8	0xbd714fc4	-0.05891396
9	0x3d551f29	0.05203167
10	0xbd3b2784	-0.045691982
11	0xbddf40e4	-0.10901049
12	0x3d9efec8	0.077634394
13	0xbd9ba138	-0.075991094
14	0x3c62bf70	0.013839588
15	0x3dae5046	0.08511405
16	0x3c141c1b	0.009039904
17	0x3d7be5a4	0.0614983
18	0x3d7e8666	0.06213989
19	0x3d185288	0.037188083
20	0xbdad176a	-0.084517315
21	0x3db82ef1	0.08993328
22	0x3dfd8da9	0.12380535
23	0xbd4f5d70	-0.05062622
24	0xbddfac20	-0.10921502
25	0xbdd46f58	-0.103728
26	0xbccb0a09	-0.024785059
27	0x3d7cb99f	0.06170046
28	0xbda92478	-0.08258909
29	0xbd969430	-0.07352483
30	0xbc83a8fa	-0.016071785
31	0xbd6ed4d0	-0.058308423
32	0xbd929030	-0.07156408
33	0xbdff84e4	-0.12476519
34	0xbcdafbe0	-0.026731431
35	0x3d00e670	0.031469762
36	0x3d9bf17f	0.07614421
37	0x3d61817d	0.05505513
38	0x3babd451	0.005243816
39	0x3df7f1be	0.121066555
40	0xbc7b0c21	-0.015322716
41	0x3c6e7dd0	0.014556363
42	0xbd990b28	-0.07472831
43	0x3db1ae50	0.086758256
44	0xbd32b690	-0.043631136
45	0x3c60fa1a	0.013731504
46	0x3d6a7f7d	0.05725049
47	0xbcb28968	-0.021794036
48	0x3c33a93b	0.010965641
49	0x3d97baea	0.07408698
50	0xbde9ad3c	-0.11409995
51	0x3d847dca	0.06469305
52	0xbdf8a848	-0.12141472
53	0x3d94cc1a	0.07265492
54	0x3d509102	0.05091954
55	0xbbd2ab40	-0.006429106
56	0x3d415439	0.04719946
57	0xbcd5af70	-0.026084632
58	0x3c144776	0.009050241
59	0xbc964485	-0.01834322
60	0x3dad065c	0.084484786
61	0xbd60a6e8	-0.054846674
62	0xbca53de4	-0.020171113
63	0x3d189b80	0.03725767

fc3.weight f4 [1, 64]
0	0xbd2c347f	-0.04204225
1	0x3de7caa8	0.113179505
2	0xbd86057d	-0.065440156
3	0xbdb7e90a	-0.089799955
4	0x3dc912d3	0.098180436
5	0x3d0c6b6d	0.034282137
6	0xbd1b94d8	-0.037983745
7	0xbb9d1f80	-0.004795015
8	0xbc1fb980	-0.0097488165
9	0x3dccc6f5	0.099988855
10	0xbdca17ac	-0.09867796
11	0xbde496ce	-0.11161576
12	0x3d9ae2d6	0.07562797
13	0xbd866328	-0.06561881
14	0xbc1f7e30	-0.009734675
15	0xbc8dcf43	-0.017310744
16	0x3a789d5a	0.00094838964
17	0xbcd14438	-0.025545225
18	0x3cd1bf7f	0.025604008
19	0x3d8cffb8	0.06884712
20	0xbdd3bdbc	-0.10338923
21	0x3d3c5850	0.04598266
22	0x3d1211c5	0.035661478
23	0xba1a22be	-0.0005879811
24	0xbd0d0154	-0.034425095
25	0xbcd8bb58	-0.02645652
26	0xbba3635b	-0.0049862093
27	0xbdb56160	-0.088564634
28	0xbbecdea0	-0.0072286874
29	0x3d6bc424	0.0575601
30	0x3c446c86	0.011988765
31	0x3dee1092	0.11624254
32	0xbdadc15e	-0.084841475
33	0xbdec05c0	-0.11524534
34	0xbb20f680	-0.0024560988
35	0x3cc8b918	0.024502322
36	0x3d7b755a	0.061391212
37	0xbd1be978	-0.03806445
38	0x3a8035d3	0.0009781666
39	0xbce89bdc	-0.028394632
40	0xbc8a31ca	-0.016869444
41	0x3df165e6	0.11787014
42	0x3cf01be0	0.029310167
43	0x3dee3ce6	0.11632709
44	0xbd844e76	-0.06460278
45	0x3d8299f3	0.0637702
46	0xbc865b25	-0.016400883
47	0x3dea0f82	0.11428739
48	0x3ddc1a25	0.10747174
49	0xbdc1ac14	-0.094566494
50	0x3de9096e	0.11378752
51	0x3de27508	0.11057478
52	0x3da04828	0.07826263
53	0x3d5d1ab8	0.05398056
54	0xbde6f433	-0.11277046
55	0x3d88ad7a	0.06673713
56	0x3d5df970	0.05419296
57	0x3da56172	0.08075227
58	0x3dac5734	0.0841507
59	0x3ddc5c7c	0.107598275
60	0x3dda749b	0.10666772
61	0xbcb698e0	-0.022289693
62	0xbd49d2bd	-0.04927324
63	0x3dbc7dc0	0.092036724
