public/Data Sources/measles_model.pth (torch, 20356 bytes, 5 tensors)

fc1.weight f4 [64, 2]
0	0xbe68c022	-0.22729543
1	0x3e84ec10	0.2596135
2	0xbf1838fe	-0.59461963
3	0xbefb7d16	-0.4911887
4	0xbf0169b4	-0.50551915
5	0xbee5561a	-0.44792253
6	0xbdbd4500	-0.09241676
7	0x3e6d0a54	0.23148471
8	0xbf1dbaee	-0.6161336
9	0x3e51e018	0.20495641
10	0xbeec05ee	-0.46098274
11	0xbe7980d2	-0.24365547
12	0xbe0ab2cc	-0.13544768
13	0xbcc9e080	-0.024643183
14	0x3eaccc93	0.33749828
15	0x3f231538	0.6370425
16	0xbe92ae46	-0.28648585
17	0xbf333dc5	-0.7001613
18	0xbe3449ec	-0.17606324
19	0x3ed6492a	0.41852695
20	0xbea39877	-0.3195226
21	0x3e8c33e6	0.27383345
22	0xbf0e371c	-0.5555284
23	0xbd61d5e0	-0.055135608
24	0xbeaedb92	-0.34151894
25	0xbc7cd900	-0.015432596
26	0xbee843ae	-0.45364136
27	0x3f247a0f	0.64248747
28	0xbe4342d4	-0.19068462
29	0x3f2e99bd	0.68203336
30	0xbf1c2e1c	-0.6100786
31	0x3ee1604e	0.44018787
32	0xbf034347	-0.5127453
33	0x3d8d4e58	0.068997085
34	0x3d8ccef7	0.06875413
35	0x3eb0f1ba	0.34559423
36	0xbe278da0	-0.1636262
37	0xbe01a90c	-0.12662143
38	0x3f017530	0.5056944
39	0xbe2f73ac	-0.17133969
40	0xbe9d7ca7	-0.30759165
41	0x3ea19b72	0.31563908
42	0xbe8ac33e	-0.27102083
43	0xbda83350	-0.08212912
44	0x3e00da5d	0.12583299
45	0xbdf2ebd4	-0.11861387
46	0xbedaed43	-0.4275914
47	0xbe9c2b5d	-0.30501834
48	0x3ebc69c2	0.36799437
49	0x3e862f5a	0.26208
50	0x3da38383	0.07984068
51	0xbef2a32c	-0.47390115
52	0x3e5a9211	0.21344782
53	0x3dccfd50	0.10009253
54	0x3e95d9f0	0.29267836
55	0xbef64352	-0.48098236
56	0x3d8f55b4	0.069987684
57	0x3f15a743	0.58458346
58	0x3d534b8b	0.051585715
59	0xbf185e23	-0.5951864
60	0xbf21d8c3	-0.6322138
61	0x3f343803	0.7039797
62	0xbe727114	-0.23675948
63	0x3ee935ce	0.45548862
64	0xbe1b7650	-0.15181851
65	0x3da34f40	0.079741
66	0x3f0937b9	0.5360065
67	0xbf19ac1c	-0.60028243
68	0xbdfc6280	-0.12323475
69	0x3f2be9f7	0.6715388
70	0xbe8660c4	-0.262457
71	0xbf16f6e7	-0.58970493
72	0xbf1cc0f9	-0.6123195
73	0x3f1b9b47	0.6078381
74	0xbeeceade	-0.4627294
75	0x3f14b5bb	0.580898
76	0x3f0b5957	0.54433197
77	0x3f199b48	0.60002565
78	0x3ebe08ff	0.37116238
79	0xbf16ebc5	-0.58953506
80	0xbf281d72	-0.6566993
81	0x3e5ac1f4	0.2136305
82	0xbe59a4d0	-0.21254277
83	0xbe98e503	-0.29862222
84	0xbd13ec40	-0.036113977
85	0x3eff2346	0.498316
86	0x3d9b0226	0.07568769
87	0xbf2a5c02	-0.6654664
88	0xbe4d49f8	-0.20047748
89	0x3f0728d3	0.5279667
90	0xbf1933e2	-0.5984479
91	0xbee9c5a6	-0.45658606
92	0x3eea7d48	0.45798707
93	0x3f1262d4	0.5718205
94	0xbef0bd40	-0.47019386
95	0xbf31a9f0	-0.6939993
96	0xbf256793	-0.64611167
97	0x3ea27d0a	0.31736022
98	0xbed39e58	-0.41331744
99	0x3f30777b	0.6893231
100	0x3ebcb26a	0.3685487
101	0x3e79ed2d	0.24406882
102	0xbf0848a4	-0.5323584
103	0x3d619ad0	0.05507928
104	0x3edcc217	0.4311683
105	0xbf12f1cf	-0.5740022
106	0xbe69b678	-0.22823513
107	0xbe57f85e	-0.21090838
108	0xbee2514a	-0.44202644
109	0xbe9e3bc3	-0.3090497
110	0xbf11419a	-0.56740725
111	0xbf3392b9	-0.70145756
112	0xbe8dd78f	-0.2770352
113	0x3eebebaa	0.46078235
114	0x3ea520d5	0.3225161
115	0xbead6b20	-0.33870792
116	0x3e31bbf7	0.17356859
117	0x3f28986d	0.65857583
118	0x3e9c24f4	0.30496943
119	0x3ee85ffe	0.45385736
120	0xbea5fe7a	-0.32420713
121	0xbf055154	-0.5207722
122	0x3ed9a950	0.42511988
123	0x3ee7aa74	0.45247233
124	0xbef2994c	-0.4738258
125	0xbdfbbd80	-0.12292004
126	0xbe4c1954	-0.19931537
127	0xbf09063c	-0.5352514

fc1.bias f4 [64]
0	0x3ef68c06	0.48153704
1	0xbf0eae53	-0.5573475
2	0xbebf2dfa	-0.37339765
3	0xbe7abde4	-0.244865
4	0x3e501064	0.20318753
5	0xbe29f300	-0.16596603
6	0xbe16e49c	-0.14735645
7	0x3f1f3daf	0.62203497
8	0x3ec4d95a	0.38447076
9	0xbe34db08	-0.17661679
10	0x3ecfe9b6	0.40607995
11	0xbf100915	-0.5626386
12	0x3eba5f76	0.36400956
13	0x3e1132f8	0.141796
14	0x3e177240	0.14789677
15	0xbf2ce158	-0.6753135
16	0x3e895ca6	0.26828498
17	0x3e8742a6	0.26418036
18	0xbe8f2f14	-0.27965605
19	0x3ef901b5	0.48634115
20	0xbf2d8796	-0.6778501
21	0xbdc32a30	-0.09529531
22	0xbf223d75	-0.63375026
23	0xbe9e379b	-0.309018
24	0x3f324166	0.6963104
25	0xbed81045	-0.42199913
26	0xbef82f53	-0.48473606
27	0xbf33a19a	-0.7016846
28	0x3c37223d	0.011177597
29	0x3ee8e094	0.4548384
30	0xbf34ca75	-0.70621425
31	0x3eec468e	0.4614758
32	0xbe440210	-0.19141412
33	0x3f1c83cb	0.611386
34	0x3eaeb05e	0.34118932
35	0xbed93615	-0.42424074
36	0x3e9894b6	0.29800957
37	0xbdb88460	-0.090096235
38	0x3ea0953c	0.31363857
39	0xbe5ad8e9	-0.21371807
40	0x3ebd6e12	0.3699804
41	0x3e9ad21a	0.3023842
42	0xbf2924b2	-0.6607162
43	0x3eed2ae6	0.4632179
44	0x3cf6ec20	0.03014189
45	0x3ecfd75e	0.40594
46	0xbca79374	-0.020456053
47	0xbd1815d0	-0.037130177
48	0x3dc389d8	0.09547776
49	0xbd02a230	-0.031892955
50	0x3eb555a3	0.35416898
51	0xbe57c280	-0.2107029
52	0x3f15fd9f	0.5859012
53	0x3ec3d08a	0.3824504
54	0xbf2d71fc	-0.6775205
55	0xbf1dfe9a	-0.61716616
56	0xbe7772bc	-0.24164861
57	0xbf2f2e0f	-0.68429655
58	0xbedb45b3	-0.42826614
59	0xbf10ddc0	-0.56588364
60	0x3ed05e0e	0.40696758
61	0x3ceeddb3	0.029158449
62	0xbef4243a	-0.4768389
63	0x3ea70e82	0.32628256

fc2.weight f4 [64, 64]
0	0xbc967b58	-0.018369362
1	0x3aa54c80	0.00126113
2	0x3c175c50	0.009238318
3	0x3d646d18	0.055768102
4	0x3df3f640	0.11912203
5	0xbdd99d6e	-0.106257305
6	0xbd336128	-0.043793827
7	0x3cba7228	0.022759512
8	0x3deb63b8	0.11493629
9	0x3cac2bb8	0.02101694
10	0x3c4f49b0	0.012651846
11	0xbddc3496	-0.107522175
12	0x3d22b5f0	0.03972429
13	0xbdb89140	-0.09012079
14	0xbdfe75f4	-0.124248415
15	0x3dd6fab4	0.104970366
16	0x3cd29290	0.025704652
17	0x3d623fd0	0.055236638
18	0xbdc6545a	-0.096840575
19	0xbde8d140	-0.11368036
20	0x3dedb502	0.1160679
21	0x3db381bc	0.08764979
22	0x3df2b282	0.11850454
23	0x3df7aec6	0.12093882
24	0x3d51cafc	0.05121897
25	0xbdcc4bf0	-0.099754214
26	0x3d82a39a	0.06378861
27	0x3d8b95ae	0.068156585
28	0x3b3f77c0	0.0029215664
29	0x3cdb51d8	0.026772425
30	0xbd724150	-0.059144318
31	0x3c938d80	0.018011808
32	0xbd889c3e	-0.06670426
33	0x3c2967b0	0.010339662
34	0x3d61ec4c	0.05515699
35	0x3cd71030	0.026252836
36	0xbde92436	-0.1138386
37	0x3da35012	0.079742566
38	0xbd4b1a7c	-0.049585804
39	0xbddb0292	-0.106938496
40	0x3dddca5c	0.108296126
41	0xbcdc2ef0	-0.02687785
42	0xbdd190de	-0.10232709
43	0x3cc8f618	0.02453141
44	0xbdcb1eee	-0.09918009
45	0xbde23fbc	-0.110473126
46	0xbdd4e392	-0.10394968
47	0x3daf9a36	0.08574335
48	0x3d480dd4	0.048841313
49	0x3d4fa568	0.050694853
50	0xbc3ccfa0	-0.011524111
51	0xbdc1ee58	-0.094692886
52	0xbd8baafe	-0.068197235
53	0xbdf397f2	-0.11894216
54	0x3df3b60e	0.118999586
55	0xbd6372f4	-0.05552955
56	0xbd439058	-0.04774508
57	0x3bda5dc0	0.006664008
58	0x3dd2241e	0.10260795
59	0x3de775ec	0.11301789
60	0xbcfc9948	-0.030834809
61	0xbd3058e8	-0.043053538
62	0xbd34329c	-0.043993577
63	0x3d07e3a8	0.033176094
64	0x3dc392a8	0.09549457
65	0x3aa63900	0.0012681782
66	0xbac57880	-0.0015065819
67	0xbdf1c3ac	-0.118048996
68	0xbdec3422	-0.11533381
69	0x3b6ca7c0	0.003611073
70	0x3ddb9cae	0.10723244
71	0xbd3d4830	-0.04621142
72	0xbb9d4a40	-0.004800111
73	0xbdda3ed2	-0.10656513
74	0xbdbaad5e	-0.091150984
75	0xbdacb54e	-0.084330186
76	0x3d986bc8	0.07442433
77	0xbdb2ba6a	-0.08726962
78	0x3d4790c4	0.048722044
79	0xbd7dc1cc	-0.061952397
80	0x3dfafb56	0.1225497
81	0xbd134f3c	-0.035964236
82	0xbdd0dc6e	-0.101982936
83	0xbd865336	-0.0655884
84	0x3cb1fed0	0.02172795
85	0xbd782548	-0.06058243
86	0x3d1dbfa4	0.03851284
87	0xbd8fd966	-0.07023887
88	0x3b5d9680	0.0033811629
89	0x3d901d20	0.07036805
90	0xbd87bf88	-0.066283286
91	0xbdb34be6	-0.08754711
92	0xbdbdbb9a	-0.09264298
93	0x3dda57ac	0.10661253
94	0xbddbe3cc	-0.10736808
95	0xbdf3b03e	-0.1189885
96	0x3dbcfeb6	0.0922827
97	0xbd989dca	-0.07451971
98	0x3d97c38c	0.074103445
99	0x3de4cd4e	0.11171971
100	0xbca78e18	-0.020453498
101	0x3de38238	0.11108822
102	0xbdc8081c	-0.09767172
103	0x3d760c20	0.060070157
104	0x3cf0eb60	0.02940911
105	0x3d1213cc	0.03566341
106	0xbdc5285e	-0.0962684
107	0xbd3e4e90	-0.04646164
108	0xbcde1b98	-0.027112767
109	0xbda37d82	-0.07982923
110	0x3c9ce168	0.01915045
111	0xbacc1000	-0.0015568733
112	0xbcfa9a88	-0.030591264
113	0x3d99f760	0.07517886
114	0x3d7bb618	0.061452955
115	0xbd1a6b78	-0.037700146
116	0x3defadde	0.117030844
117	0xbd5f7778	-0.054557294
118	0xbba2d8e0	-0.004969701
119	0x3bbf3300	0.005834937
120	0x3d9d20f2	0.076722994
121	0xbd5408fc	-0.05176638
122	0x3dcaa0ac	0.09893927
123	0x3d18fad0	0.03734857
124	0x3da29ef4	0.07940474
125	0xbbcbb4e0	-0.0062166303
126	0xbda9a370	-0.08283126
127	0xbdecd9f4	-0.11565009
128	0x3bd5d100	0.006525159
129	0x3bd84220	0.0065996796
130	0x3c5dd720	0.013540059
131	0x3c839a18	0.016064689
132	0xbd0daa70	-0.03458637
133	0xbd17ec90	-0.037090838
134	0x3d0c016c	0.034181044
135	0x3d848eac	0.06472525
136	0x3dcfc1ce	0.10144387
137	0x3d823ad2	0.06358875
138	0x3d3a7fe4	0.045532122
139	0xbdf500aa	-0.11963017
140	0xbd24fedc	-0.040282115
141	0x3dbc80ec	0.092042774
142	0x3d47d6ac	0.04878871
143	0x3cd6cd40	0.026220918
144	0xbddd05e2	-0.10792138
145	0xbd1d4d54	-0.038403824
146	0x3cbf11e8	0.023323968
147	0xbdfdd050	-0.12393248
148	0xbd9c4c84	-0.07631782
149	0xbde2256c	-0.11042294
150	0x3d825418	0.06363696
151	0xbd80e746	-0.06294112
152	0xbd93e5a6	-0.07221536
153	0xbc99b7d8	-0.018764421
154	0xbde2713c	-0.11056754
155	0x3df1e004	0.11810306
156	0xbdc25d3e	-0.09490441
157	0x3c84b218	0.016198203
158	0xbdf1dd58	-0.11809796
159	0x3df2c384	0.11853698
160	0x3de4e18e	0.11175834
161	0x3d28ca58	0.041208595
162	0xbd85a45e	-0.06525491
163	0x3cbea710	0.023273021
164	0x3d99486a	0.07484515
165	0xbdc15e94	-0.094418675
166	0x3c7dd810	0.015493408
167	0xbdf33400	-0.118751526
168	0xbc1b0b70	-0.009463176
169	0x3b9ce480	0.0047879815
170	0xbcda39c8	-0.02663888
171	0xbcf77650	-0.030207783
172	0x3da88ed4	0.08230367
173	0x3dc124d4	0.094308525
174	0x3d7c7f84	0.061645046
175	0xbd84b2cc	-0.06479415
176	0x3d46b11c	0.04850875
177	0x3d91994a	0.07109316
178	0xbdcfdcde	-0.10149549
179	0xbd95ba8e	-0.07310973
180	0xbdfa9c56	-0.1223685
181	0x3dafa47e	0.08576296
182	0x3dcc0d88	0.099635184
183	0xbdf2c37e	-0.118536934
184	0xbc8b74d0	-0.017023474
185	0xbd145780	-0.03621626
186	0xbd01c260	-0.03167951
187	0x3d60e2c8	0.054903775
188	0xbdae533a	-0.08511968
189	0x3da8662e	0.08222614
190	0xbd93da08	-0.072193205
191	0xbc4dda40	-0.012564242
192	0x3ae06f00	0.0017122924
193	0x3c260110	0.010132089
194	0xbdbcb828	-0.092148125
195	0xbd8cc326	-0.06873159
196	0x3dfe4288	0.124150336
197	0x3df73a3e	0.12071656
198	0x3dc00f86	0.09377961
199	0xbd082185	-0.03323509
200	0xbd0261cc	-0.031831548
201	0xbd74fc90	-0.059811175
202	0xbdc7068a	-0.09718044
203	0x3d2b79e8	0.041864306
204	0x3de1ac74	0.11019221
205	0xbce7db90	-0.028302938
206	0xbc095e70	-0.008384332
207	0x3c80d770	0.015727729
208	0x3d425a34	0.047449306
209	0x3d8c242e	0.06842838
210	0x3c8cfbe8	0.017209962
211	0x3d54966d	0.05190127
212	0x3d1b1e10	0.037870467
213	0xbd6c607c	-0.057709202
214	0x3d302aa9	0.043009434
215	0x3d61c170	0.055116117
216	0x3db6be47	0.08923011
217	0x3d497538	0.049184054
218	0x3cb8beba	0.022551883
219	0x3dbc89c7	0.092059664
220	0xbd3849b1	-0.044992153
221	0x3dd14c05	0.10219578
222	0x3def07f8	0.11671442
223	0xbd4bd248	-0.049761087
224	0xbddfbec8	-0.109250605
225	0x3d7cb45f	0.061695453
226	0xbd3633e0	-0.044483066
227	0xbddabeba	-0.106809095
228	0xbc92dd20	-0.017927706
229	0xbd82ed88	-0.06392962
230	0x3d845f9a	0.06463547
231	0xbdf23f84	-0.11828521
232	0xbd56f650	-0.052480996
233	0xbde02752	-0.10945
234	0xbd325cf0	-0.043545663
235	0xbdb0663f	-0.08613252
236	0xbc29a9d0	-0.010355428
237	0x3cc87a40	0.024472356
238	0xbd896669	-0.06708986
239	0xbc0be840	-0.008539259
240	0xbda61266	-0.08108978
241	0x3cdca520	0.026934206
242	0x3ca86002	0.020553593
243	0x3da066ea	0.07832129
244	0xbdbdf7c2	-0.09275772
245	0xbd9a66de	-0.075391516
246	0x3d97f0da	0.07418986
247	0x3da4e542	0.0805154
248	0x3df28770	0.11842239
249	0xbd40fcce	-0.047116093
250	0xbda297cb	-0.079391085
251	0x3c8c6d69	0.017142015
252	0xbde12714	-0.10993782
253	0x3dd6e0fc	0.10492131
254	0xbd090228	-0.033449322
255	0x3d1a7608	0.03771022

fc2.bias f4 [64]
0	0xbdd30060	-0.10302806
1	0x3cacc4b8	0.021089897
2	0xbd2bbbb0	-0.04192704
3	0xbc2dabb9	-0.010600024
4	0x3dbd1426	0.09232359
5	0xbb15bc40	-0.0022847801
6	0x3dc2d11a	0.09512539
7	0x3c6a6950	0.014307335
8	0x3c3d0c5d	0.011538592
9	0xbe024ca1	-0.12724544
10	0xbda8cd9e	-0.08242343
11	0xbdde9be0	-0.108695745
12	0x3e0249ae	0.12723419
13	0x3d2b1e56	0.041776977
14	0xbd15f894	-0.036614016
15	0xbd8372a2	-0.06418349
16	0xbdcadc6a	-0.09905322
17	0x3db036dc	0.086042136
18	0xbd2620a6	-0.04055848
19	0x3d5e0500	0.054203987
20	0xbcfcd8f8	-0.030865178
21	0x3d9b90bc	0.07595965
22	0xbe030c0d	-0.12797566
23	0xbd8e9487	-0.06961923
24	0x3dfa4e9e	0.12222026
25	0x3d94eef4	0.07272139
26	0xbd80c490	-0.06287491
27	0x3dc88ec4	0.097928554
28	0xbdf1b330	-0.118017554
29	0xbd0a79de	-0.033807628
30	0x3b495640	0.0030721575
31	0xbdd38ef4	-0.103300005
32	0x3d0796c4	0.033102766
33	0x3cb88e04	0.022528656
34	0xbd6e0999	-0.05811462
35	0x3dd83043	0.1055608
36	0xbd2a3bbb	-0.04156087
37	0xbd77e18c	-0.060517833
38	0xbd9caa2e	-0.07649647
39	0xbce9b828	-0.028530195
40	0xbd5daa95	-0.054117758
41	0xbdc055ba	-0.09391351
42	0xbcf41e25	-0.02979953
43	0x3c88fb1d	0.016721303
44	0xbdf74cae	-0.12075172
45	0xbcef5248	-0.02921404
46	0xbd41d499	-0.04732189
47	0x3de5f9ef	0.11229312
48	0x3d9b29d2	0.07576336
49	0x3de744b8	0.11292404
50	0xbb994cc0	-0.0046783388
51	0x3dd4012c	0.10351786
52	0x3cf1b42e	0.029504862
53	0xbd93c774	-0.07215777
54	0x3c736311	0.014855162
55	0x3d594fb4	0.053054526
56	0x3dfb764c	0.12278423
57	0xbd6f35f4	-0.058401063
58	0x3de1c232	0.11023368
59	0xbd939ade	-0.07207273
60	0x3dfc4d8f	0.12319481
61	0x3db72908	0.08943373
62	0x3d83d526	0.06437139
63	0x3c864e85	0.016394863

fc3.weight f4 [1, 64]
0	0x3aa06580	0.0012237281
1	0x3c89af50	0.016807228
2	0x3c631600	0.013860226
3	0xbc3fd9ca	-0.01170964
4	0x3d091883	0.03347064
5	0x3da22d90	0.079188466
6	0xbdf34466	-0.1187828
7	0x3d3039c4	0.04302384
8	0x3d09deb1	0.03365964
9	0x3d3835f7	0.04497334
10	0xbb7e49c0	-0.0038801283
11	0xbd91feae	-0.071286544
12	0xbe00d8c2	-0.12582687
13	0xbd983814	-0.07432571
14	0x3dc28256	0.09497516
15	0x3d71dd46	0.059048913
16	0x3d86dc4a	0.065849856
17	0x3db57da0	0.08861852
18	0x3dd88cf5	0.105737604
19	0xbdb0feb0	-0.08642328
20	0xbdd312d4	-0.103063256
21	0xbdebf1e0	-0.11520743
22	0x3d9028b8	0.070390165
23	0x3d14c27a	0.03631828
24	0xbb09ce80	-0.0021027625
25	0x3dea3d86	0.11437516
26	0xbd1c2f88	-0.038131267
27	0xbd64a6ae	-0.05582302
28	0xbd1e6408	-0.038669616
29	0xbd8ce696	-0.06879918
30	0xbc7330a0	-0.014843136
31	0xbdce6f1e	-0.10079788
32	0x3d071734	0.032981113
33	0x3dd3923e	0.10330628
34	0xbdd13d19	-0.102167316
35	0x3dd4e7ca	0.10395773
36	0x3c9eca79	0.019383656
37	0x3cc98227	0.024598194
38	0xbdca9ff6	-0.098937914
39	0xbd897ae2	-0.06712891
40	0x3c88b903	0.016689783
41	0xbc66f980	-0.014097571
42	0x3d8a721f	0.06760048
43	0x3d60471f	0.054755326
44	0x3d1c3e16	0.038145147
45	0x3dc90a20	0.09816384
46	0xbbbb13d2	-0.00570915
47	0xbd440640	-0.047857523
48	0x3ddc5c97	0.107598476
49	0xbbf065a0	-0.0073363334
50	0xbd27ea14	-0.04099472
51	0x3df33898	0.11876029
52	0x3df036f7	0.11729234
53	0xbdb5c660	-0.08875728
54	0x3d90fd3b	0.0707955
55	0xbdc4bf3a	-0.09606786
56	0x3d610de8	0.054944903
57	0xbd8b4819	-0.06800861
58	0xbd019f0c	-0.03164582
59	0x3db2cdee	0.08730684
60	0xbd18cbbb	-0.037303668
61	0xbddb51c6	-0.107089564
62	0xbd370fb7	-0.04469272
63	0x3d669979	0.056298707
