public/Data Sources/mumps_model.pth (torch, 20592 bytes, 5 tensors)

fc1.weight f4 [64, 3]
000000 83 87 ef bc 57 0a da be 37 03 84 3e a3 ea 2b 3e
       -0.029239422 -0.42586014 0.25783703 0.16788726
000010 83 3e f4 bd 4b 6c b2 3e 98 8e ff bd 86 d4 ea 3e
       -0.11925986 0.34848246 -0.124783695 0.45865268
000020 02 41 a4 3e ba e7 06 3e 52 fc 08 bf 8a 40 c4 3e
       0.32080847 0.13174334 -0.5351001 0.3833049
000030 4c 96 20 3e 00 70 6e bc 30 e2 91 bc 14 22 fa 3e
       0.15682334 -0.01455307 -0.01780805 0.48854125
000040 a9 22 36 be 0a 59 f6 be 2a da 85 3e ea c0 f8 be
       -0.1778666 -0.48114806 0.26143008 -0.48584682
000050 d6 21 87 3e 1d c7 03 bf 66 3f b8 3d bf 0e 70 3e
       0.26393002 -0.514757 0.08996467 0.23443125
000060 3d d6 95 bc 16 de 07 bf 48 75 c7 3e d7 63 d9 3e
       -0.018290633 -0.5307325 0.38956666 0.42458984
000070 f9 23 8f 3d 95 90 ad be e0 40 a3 be cd 29 37 be
       0.06989283 -0.3389937 -0.31885433 -0.1788704
000080 1b c7 04 bd 06 24 2f be 8d 78 d6 3e 4f 16 21 be
       -0.032416444 -0.17103586 0.41888848 -0.15731166
000090 d4 07 5d be 5e 81 3c be 68 f5 e4 3d ab f5 e3 3e
       -0.21585017 -0.18408725 0.1117962 0.44523367
0000a0 e1 50 6f 3e 21 21 14 3f 9c e9 07 bf 73 25 f5 3e
       0.23370697 0.5786305 -0.53090835 0.47880134
0000b0 f8 4b 49 3e 93 e2 bd 3e 02 87 11 be 7b 44 70 3e
       0.19657886 0.37086925 -0.14211658 0.23463623
0000c0 e2 df b0 3e cd bb 9c be a7 1e 25 be 1f f3 a5 3e
       0.3454581 -0.3061203 -0.16124974 0.3241205
0000d0 b6 90 c5 3e 0d 9d 5a be 77 cd a0 3e 84 15 92 be
       0.38586968 -0.21348973 0.31406757 -0.2853204
0000e0 50 68 08 3f 8e 39 7d 3e d7 e6 b4 3e 8a 10 b2 3e
       0.5328417 0.24728987 0.35332367 0.34778243
0000f0 40 97 c2 3c a8 40 8c be 50 69 3c 3d 2e b4 dd be
       0.023753762 -0.2739308 0.04599887 -0.4330153
000100 73 9e ed 3e 2d 1f fa 3e 08 b6 f6 3e 0b 1e dc be
       0.4640995 0.4885191 0.48185754 -0.4299167
000110 00 c6 dc be 09 2a 15 be 74 22 e7 be 46 5f bc 3e
       -0.43119812 -0.14566816 -0.45143473 0.36791438
000120 a0 7d 1b be e9 b5 e4 3e fa 01 83 3e 3d 61 03 bf
       -0.15184641 0.44670036 0.25587445 -0.5132025
000130 a4 37 8b be 9e d5 e3 be 70 9d 4c be 0d f1 a1 be
       -0.27190888 -0.44498914 -0.19981933 -0.3162922
000140 b2 09 aa 3e a7 d1 59 3e 06 2c b5 be 09 a9 c8 3e
       0.33210522 0.21271382 -0.3538515 0.39191464
000150 d6 85 ed 3e 0a 8d 13 3f f6 97 59 3e 19 1e 03 bf
       0.4639117 0.57637084 0.21249375 -0.512178
000160 79 0b b8 3d 49 48 dd 3e 2e 45 f7 3e 1e 06 88 3e
       0.08986563 0.43219212 0.48294967 0.26567167
000170 f8 96 9b be fc 0d 8d 3d 3d c7 00 3f 77 ae 37 bd
       -0.30388618 0.06887433 0.50304013 -0.044844117
000180 20 b6 6b be 82 61 72 be fd be 59 be 91 b3 33 3e
       -0.23018694 -0.23670009 -0.21264262 0.17548968
000190 bf c6 91 3e 90 60 af 3e 18 b1 0b be 20 11 f7 bd
       0.28471944 0.3425336 -0.13641775 -0.12063813
0001a0 0c 72 10 bf da 93 af 3e 34 d9 5a be 2a 75 02 3f
       -0.5642402 0.3429249 -0.21371919 0.5096003
0001b0 28 2a a7 3e f5 57 8b 3d 76 69 12 be 10 0d 1b bd
       0.3264935 0.06803886 -0.14298043 -0.037854254
0001c0 a0 ba 30 3d 12 58 0d bf a5 dd 16 3e 86 2a 97 bd
       0.04314673 -0.5521251 0.14732988 -0.073811576
0001d0 a7 42 07 3f ed da 2f 3e ce 5b 74 be 44 01 be 3e
       0.5283608 0.17173357 -0.23863146 0.3711034
0001e0 20 70 cb 3c 90 70 9b 3d f4 7d d3 3e 80 81 7e 3e
       0.024833739 0.07589829 0.41307032 0.24854088
0001f0 0c 95 14 3e b2 73 10 be ef a8 17 be 14 fc f7 3e
       0.14509982 -0.14106634 -0.14810537 0.48434508
000200 fe a7 af be 4f 09 bd 3e 05 14 d7 3d 7d 45 ef 3e
       -0.34307855 0.36921164 0.10501865 0.46732703
000210 eb b5 af 3e e3 9d 02 bf 28 54 d8 3e 9c 12 5c 3e
       0.3431848 -0.51022166 0.42251706 0.21491474
000220 c4 c1 a1 be 7d 12 f9 3e 24 ca c0 bd 80 33 a0 bb
       -0.31593144 0.48646918 -0.09413555 -0.004888952
000230 d4 b7 81 3e eb ef 85 3c fb f0 e2 be 7b 38 00 3f
       0.25335562 0.016349753 -0.44324479 0.5008618
000240 c5 d6 05 3f 24 b2 ce bd 0a 00 92 3e b4 9e c1 3d
       0.5228084 -0.100925714 0.28515655 0.09454098
000250 18 df b9 be cd 8d ba 3e 38 0b ba be 1c c4 cb be
       -0.3630302 0.3643631 -0.36336684 -0.39798057
000260 51 e9 9c be 15 5d c8 3e f2 fd 8c 3e b9 21 63 be
       -0.30646756 0.39133516 0.27537495 -0.22180833
000270 8c 72 9b 3e f8 67 fb be 80 83 c4 3d f7 88 fa 3e
       0.3036083 -0.4910276 0.09595394 0.4893262
000280 8d 5b 02 3f 6f c4 6f be e6 16 89 3e 4a 8d f2 be
       0.50920945 -0.23414777 0.26775283 -0.4737342
000290 f7 9d 66 be 26 ab e4 3e 34 5d 11 3d f9 68 84 be
       -0.22521196 0.44661826 0.035489276 -0.25861338
0002a0 40 d9 b7 3e f0 63 8c 3d 30 48 75 3e be fe bf 3d
       0.35907936 0.06854999 0.23953319 0.0937476
0002b0 b6 dd ed be e2 8d c7 be 00 75 a1 3d f5 1a e8 be
       -0.46458215 -0.38975435 0.07883644 -0.45333067
0002c0 f8 aa e8 3e c0 1d 04 bf bd 4b 48 be 7e e9 2f 3d
       0.4544294 -0.51607895 -0.19560142 0.042947285
0002d0 67 7c f1 be 60 62 84 bc 40 c8 98 be f2 79 06 bf
       -0.47165224 -0.01616019 -0.2984028 -0.52529824
0002e0 1b 6b e9 3e 82 d6 e2 3e cc 33 00 be 45 a1 57 be
       0.45589527 0.4430428 -0.12519759 -0.21057613
0002f0 e9 39 d7 3d 4f 1f d2 be 80 9a ab 3e 34 f8 0c 3f
       0.10509092 -0.41039512 0.33516312 0.5506623

fc1.bias f4 [64]
000000 6e c6 0d 3d c7 f2 04 bd 42 d0 a8 bd 48 d6 4c 3e
       0.034613065 -0.032458093 -0.08242847 0.20003617
000010 b2 9b dd bc 8f 56 df be 1d 74 0d bf b9 7d a1 3e
       -0.02705178 -0.43620726 -0.552553 0.3154123
000020 d3 4c 94 3e 9b 3a 67 bd 25 13 13 3f 7f 94 15 bd
       0.28964862 -0.056452375 0.5745109 -0.03651857
000030 9a e0 d8 be ab b8 af be 52 d1 c9 be 13 b7 eb 3e
       -0.42358857 -0.34320578 -0.3941751 0.46038112
000040 d3 36 ec 3c c7 1d b9 bd 0b 67 ec 3e 69 48 42 be
       0.028834736 -0.09038883 0.46172366 -0.18972935
000050 90 b4 12 bd 5f f0 0e bf 51 c6 00 bf 1b 1b fd 3b
       -0.03581673 -0.5583553 -0.50302607 0.0077241785
000060 c7 7d c9 bd b5 66 9c be 1e ef 4b be fb f0 99 3e
       -0.09838443 -0.3054711 -0.19915435 0.30066666
000070 46 6c 84 be d3 d8 d4 be 6d 18 0c 3f ff fc 06 3f
       -0.25863856 -0.41571674 0.5472477 0.5272979
000080 82 64 12 3e ab c0 80 bd 64 93 c7 bd a9 cc fc be
       0.14296153 -0.062867485 -0.097449094 -0.49374893
000090 05 69 d6 bd 26 c5 e6 be 7a 4e a6 bc 19 0e ec 3e
       -0.1046925 -0.45072287 -0.020301092 0.46104506
0000a0 e2 50 01 bf d6 39 ce be 66 04 c0 be 77 8f a6 3d
       -0.5051404 -0.402785 -0.37503356 0.081328325
0000b0 75 95 ac 3e 04 27 63 bd 28 59 06 bf c6 f8 d6 3e
       0.33707777 -0.05545713 -0.5247979 0.41986674
0000c0 74 6f 58 3e 54 6e 0c 3f 56 65 a8 be 8b 6f 9a 3e
       0.21136266 0.5485585 -0.32889813 0.30163226
0000d0 f7 dd f6 3e b3 48 30 bc 6e c4 d1 3e 4d f6 b5 3d
       0.4821622 -0.01075952 0.40970176 0.08884869
0000e0 56 fc 08 bf 94 33 bb 3d 12 e0 53 be d9 93 95 3e
       -0.53510034 0.09140697 -0.20690945 0.2921436
0000f0 28 a3 b1 be 87 11 cb be 13 fa 8d 3e 37 22 06 3f
       -0.3469479 -0.3966181 0.27729854 0.5239596

fc2.weight f4 [64, 64]
000000 20 14 e5 3b 3e aa cf bd 2c 29 fd 3d 2c 89 0f bd
       0.0069909245 -0.10139893 0.123613685 -0.035042927
000010 0c 04 2f 3d 28 ff ab 3c fc dc 47 bd 6a 43 9f 3d
       0.04272847 0.020995691 -0.04879473 0.0777653
000020 a0 e4 41 3d c0 0a aa 3d 00 3e 94 bb 9e 7c a5 3d
       0.047337174 0.08302832 -0.0045239925 0.080804095
000030 c4 a7 4c bd 96 4a e6 3d 32 ba b4 3d 14 fe 41 bd
       -0.04996468 0.11244695 0.088245764 -0.04736145
000040 42 98 e4 bd c0 7b c9 3d c0 d4 5a bb c6 f9 f8 bd
       -0.111618534 0.098380566 -0.003339097 -0.121570155
000050 f8 48 ca 3d ee 25 f8 3d 00 2c 5a bd b8 50 9b bd
       0.09877199 0.121166095 -0.053264618 -0.07583755
000060 68 f4 c4 bc 98 20 4b 3d c4 f0 4a 3d 94 f7 94 bd
       -0.024042323 0.04959163 0.04954602 -0.07273784
000070 8a f6 ef bd d0 12 3e bc 20 18 15 bc 7e b9 8d bd
       -0.117169455 -0.011601165 -0.00909999 -0.069201455
000080 1c 7c a1 bd a2 f1 80 3d b2 7b be bd 04 6e 87 3d
       -0.07885 0.06296088 -0.09300937 0.06612781
000090 f8 3c a9 bc 80 5a c1 bd b4 7a 50 bd 68 fd 16 bd
       -0.020658955 -0.0944109 -0.05089827 -0.03686276
0000a0 bc a8 20 3d 78 89 17 bd a0 48 60 bc cc 73 85 3d
       0.039223418 -0.036996335 -0.01368919 0.06516227
0000b0 d0 16 92 3c f4 0a b4 bd 8c 1f f4 3d 50 12 35 bd
       0.017833143 -0.08791152 0.119200796 -0.044206917
0000c0 96 1b 81 3d 5c ba 73 3d c0 0a ed 3c 48 75 f7 3c
       0.0630409 0.059503898 0.02893579 0.030207291
0000d0 56 7d 80 bd 3c 7d fb 3d ca cf a1 3d 7c 34 0e bd
       -0.06273906 0.12279746 0.07900961 -0.03471802
0000e0 e8 15 ab 3d e8 3f ad bc bc 59 6c 3d ae 26 8d 3d
       0.08353788 -0.021148637 0.057702765 0.06892143
0000f0 fe e1 ce 3d 9c bc f0 bd b0 c5 dc 3c 80 2c e0 bc
       0.10101698 -0.117547244 0.026949733 -0.02736497
000100 1b 75 a4 3d 34 4f ae bd 72 82 bf 3c 2e 0b f5 3b
       0.080301486 -0.085112005 0.02337763 0.0074781394
000110 89 84 92 3d 3e e5 0a 3d 04 49 2c bd 66 c3 c4 bc
       0.07154185 0.03391003 -0.04206182 -0.024018954
000120 a8 e0 c7 bd f9 a8 c0 bd 18 70 a3 3d 60 09 19 bc
       -0.09759647 -0.09407229 0.079803646 -0.009340614
000130 a8 cd b9 bc ce 0b f4 3d 9f 6d e8 3d 30 c1 7f 3d
       -0.022681072 0.11916314 0.113490336 0.062440097
000140 5b 1d f8 bd 9e d6 c8 bd 23 68 86 bd ec 9c cb 3d
       -0.12114974 -0.0980656 -0.06562831 0.0994204
000150 a8 0a 7b bd 89 55 06 bc dc 0d a4 bd 25 c1 ef 3d
       -0.06128946 -0.008199104 -0.08010456 0.11706761
000160 7c aa 73 bb c0 05 74 3d 00 fb 7f 3d cf f6 8b bd
       -0.0037180474 0.059575796 0.06249523 -0.068341844
000170 cb 3f 56 bd e7 ad 0b bd 17 2a fe 3b ff 0e 3c bd
       -0.05230693 -0.034101393 0.0077564823 -0.04591274
000180 d5 a4 6d 3d 73 28 46 bb a0 8a c1 bb 40 c8 84 3d
       0.058018524 -0.0030236512 -0.005906418 0.06483507
000190 53 6e c1 bc 50 0a 16 bd 54 35 8a bd 49 b2 91 bc
       -0.023612177 -0.03663093 -0.06748453 -0.017785208
0001a0 72 03 f5 bd a8 3b ce bc 2e 92 5f bd d5 f4 88 bd
       -0.11963548 -0.02517493 -0.054582767 -0.06687323
0001b0 45 48 6d bd 3e df 24 3d d4 12 b0 3d f6 37 f2 3d
       -0.05793025 0.040251963 0.08597341 0.1182708
0001c0 0f 7b 9a 3d 14 51 f9 bb 68 db 14 3d db 51 11 bd
       0.07543003 -0.007608542 0.036342055 -0.035478454
0001d0 9e 1f b5 3d 58 33 6c bd f5 48 d1 3c 2d 34 d1 3d
       0.08843921 -0.057666153 0.025547484 0.1021503
0001e0 08 09 ad bc 02 d2 ca 3c 68 f2 e0 3c 39 74 0b 3d
       -0.02112247 0.024758343 0.027459338 0.034046385
0001f0 42 48 9c 3d 02 65 31 3d 61 ed 77 bd 93 bf c4 3d
       0.076309696 0.04330922 -0.060529117 0.096068524
000200 57 fd f7 bd 61 1f b7 bd 07 91 c3 bc 8f 1d b4 3d
       -0.121088676 -0.08941532 -0.023872865 0.087947
000210 fe 16 4c bd 9c 99 ff 3b a4 a7 cb bd 78 d6 32 3b
       -0.049826615 0.007800294 -0.09944084 0.0027288478
000220 13 95 a2 3d e6 04 4b 3d 42 6a f3 3d ce 04 b5 bd
       0.0793859 0.04956522 0.118855014 -0.08838807
000230 78 63 7f 3d 4a f1 fb 3d 0d cd 84 bd d2 ab 45 bc
       0.06235072 0.123018816 -0.06484423 -0.012064891
000240 2e 94 01 3e 40 24 ef 3d b3 52 76 3d bf be 5b bd
       0.12654182 0.11676836 0.060137462 -0.053648707
000250 2c b1 ea bd 30 e7 a6 bc 94 75 c9 3d dd fc fe 3c
       -0.11459574 -0.02037391 0.098368794 0.031126434
000260 61 19 a5 3d 12 5a f1 3d 2c 65 51 bd 27 53 20 bd
       0.08061481 0.11784758 -0.051121876 -0.0391418
000270 ab 77 a8 3d 6c 53 db bd f6 a9 a5 3d d1 fe 35 bc
       0.0822595 -0.10709271 0.08089058 -0.011108116
000280 f7 2b f7 3d 31 c3 b3 3d a4 85 88 3d 5a 7d c1 3d
       0.120689325 0.08777464 0.06666115 0.09447737
000290 60 5f 5f 3c 90 27 87 bd eb 6b 2d 3d f2 f4 8f 3c
       0.013633579 -0.06599343 0.042339247 0.017572854
0002a0 9c 81 33 bd 70 f4 c5 3d fe a2 a7 3c 0a 0e 47 bd
       -0.043824777 0.096657634 0.020463463 -0.048597373
0002b0 59 93 9a 3c bb 66 bd 3d e6 3a b5 3d 90 00 88 bd
       0.018869089 0.0924811 0.088491246 -0.06640732
0002c0 b9 96 bf bd ef c3 bf bc 78 44 64 bd b8 89 12 bd
       -0.0935492 -0.023408858 -0.05572936 -0.03577587
0002d0 f4 fa 53 bc 78 a1 a8 bd dd c3 9a 3d a7 b2 5e 3d
       -0.01293825 -0.08233923 0.07556889 0.054369595
0002e0 5c 2e fb 3d d2 9a 67 3b 4e 35 a8 bd e3 e5 12 bd
       0.12264702 0.0035340083 -0.08213292 -0.03586377
0002f0 48 e0 e9 bd 04 a4 c6 3d 92 9e cf bd c6 d1 8d 3d
       -0.114197314 0.09699252 -0.10137667 0.06924777
000300 3d fe 15 3d 48 f4 a9 bd c6 45 a2 bd da 6a af 3d
       0.036619414 -0.08298546 -0.079234645 0.08565302
000310 d4 64 a4 bd c3 28 5f 3d b6 1e fb bd e1 e9 f1 bd
       -0.08027044 0.054482233 -0.12261717 -0.11812187
000320 f3 9b 30 bd 02 20 98 3d 4c 75 f2 bd e0 4b b2 3d
       -0.043117475 0.0742798 -0.11838779 0.08705878
000330 b6 9b b2 bd 4c 51 37 3b 0c 19 50 bd c9 65 b6 bd
       -0.08721106 0.002797204 -0.050805137 -0.08906133
000340 71 26 69 bd d1 6a d1 3d 75 bb da 3d 5c ea 6f bd
       -0.056921426 0.10225452 0.10680286 -0.058573112
000350 20 9b 6c bd 44 62 94 bd 00 e6 61 3d 26 42 d7 3d
       -0.057765126 -0.07245305 0.055150986 0.10510664
000360 8a 81 55 bd b0 f2 4f bd e0 4e eb bc c7 94 e4 bb
       -0.05212549 -0.050768554 -0.028724134 -0.0069757435
000370 91 0b c8 3c ec 88 fa bd 9c 04 e0 bd 56 9e c5 3d
       0.024419578 -0.12233147 -0.10938379 0.09649341
000380 46 83 eb bd f6 14 fd bd 68 4e 83 bd bc 95 1d 3d
       -0.11499648 -0.123575136 -0.06411439 0.038472876
000390 8d 0c 89 bd 22 6e c8 3d 8e f0 68 3d 7a e5 98 3d
       -0.06691847 0.09786631 0.056870036 0.07465644
0003a0 c8 07 c1 bd 08 9f 47 3d 68 a0 a9 bd d1 6e f4 3d
       -0.09425312 0.04873565 -0.08282548 0.11935199
0003b0 14 d2 1d 3d 96 a5 9f bd a0 8e 09 3c ad 91 98 bd
       0.038530424 -0.07795255 0.008395821 -0.074496605
0003c0 d8 44 51 bd 6f e7 64 3d fc de f7 3d 53 02 20 3d
       -0.051091045 0.055884775 0.12103078 0.039064717
0003d0 e4 a5 f2 3d 6a 5e 31 3d 71 ca f5 bc 47 72 b3 bd
       0.118480474 0.04330293 -0.030003758 -0.08762031
0003e0 28 36 f6 bd 20 79 09 3c 38 21 84 3c 9e 4d b8 bc
       -0.12022048 0.008390695 0.016129121 -0.022497948
0003f0 40 e8 ed bb 88 1b e1 3d 0c f2 9c 3d 98 e1 de bd
       -0.0072603524 0.10991579 0.07663354 -0.10882872

fc2.bias f4 [64]
000000 c4 41 e4 bd 32 1d 32 3c 56 8f ae 3d e2 2b f1 3b
       -0.11145356 0.0108712185 0.08523433 0.0073599676
000010 b5 e1 6c 3d 06 1c 1d 3d 60 fa a7 bc c2 db 99 bd
       0.05783244 0.038356803 -0.02050513 -0.075126186
000020 94 14 9c 3d f6 96 97 bd f3 33 73 bc 44 7b 2f bd
       0.076211125 -0.074018404 -0.014843929 -0.042842165
000030 c7 86 d7 3d 03 05 c2 bd 3a e6 e5 bd 86 41 9b bd
       0.105237536 -0.09473612 -0.11225553 -0.07580857
000040 a0 b7 78 3d 0c d1 ca bd 96 0f d4 bd 7f c1 f0 3c
       0.060721993 -0.09903154 -0.10354535 0.029389141
000050 1c 03 c3 bd 10 a4 4a bd 42 83 f6 bb 36 67 d0 bd
       -0.095220774 -0.04947287 -0.0075229714 -0.10175936
000060 f0 53 bf 3d c0 21 91 3d fc 0d d1 bd 7d ad d8 bd
       0.09342182 0.070865154 -0.102077454 -0.10579965
000070 56 61 e7 3c 78 38 8d bd 0c f7 a5 3d 4a 38 98 3c
       0.028244656 -0.06895536 0.08103761 0.018581528
000080 48 4a d3 bc 7b c9 03 3c c2 6b a6 3d 1d cf 09 bd
       -0.025792256 0.008043642 0.08126022 -0.033644784
000090 94 9a d5 3d 28 cf cd 3d b5 e9 c7 3d 7c bc 4e bd
       0.10429874 0.100492775 0.09761373 -0.05047272
0000a0 3a 16 b3 bd de fd 96 bd 9c 8d 03 bd a8 f5 33 3d
       -0.08744474 -0.0737264 -0.03211747 0.043935448
0000b0 a4 14 6e 3d 4c 18 a9 3d 82 32 28 3d d5 cd 95 3d
       0.058125153 0.082565874 0.041063793 0.0731465
0000c0 a9 fc dc 3a 9a be c9 3d 90 bb 38 bd 8c 5d 7b bd
       0.0016859967 0.098508075 -0.04510075 -0.06136851
0000d0 a8 bc 11 3d 97 6e cc bd a5 e5 82 3d 9a 62 f6 3d
       0.035580307 -0.09982031 0.063914575 0.120305255
0000e0 f0 99 05 bd 00 8a f1 39 b0 0a 84 bc 02 33 ee 3d
       -0.03261751 0.0004606992 -0.016118377 0.11630823
0000f0 11 4f 27 3d ed 4c 9a bd 2c d5 c0 bd 80 08 4c 3c
       0.040846888 -0.07534204 -0.09415659 0.012453198

fc3.weight f4 [1, 64]
000000 d2 a2 f2 bd c4 6a ec 3c 56 ea ce bd e1 3c d2 3d
       -0.11847462 0.028859504 -0.1010329 0.10265518
000010 e7 bf a7 3d e1 48 7b 3b 00 1f 99 ba 26 6f a4 3d
       0.08190899 0.0038343 -0.0011682212 0.080290124
000020 c3 78 bd 3d f2 ef e7 bd 8e 24 e8 bd c0 51 57 bd
       0.09251549 -0.11325063 -0.11335097 -0.052568197
000030 3c d6 87 3d c2 94 56 3b f8 61 33 3d 00 b3 92 bc
       0.06632659 0.0032742475 0.043794602 -0.01790762
000040 e9 52 12 bd d6 ac 86 bd 76 13 c5 3d 8f 08 d7 3c
       -0.0357236 -0.065759346 0.096228525 0.026249198
000050 e5 6e ad bc 76 c2 e7 3d da f2 c5 3d 94 e8 c0 3d
       -0.021171043 0.11316387 0.09665461 0.09419361
000060 d1 62 74 3d ae bc f8 3d 80 3a 1e bc 90 65 6b bb
       0.05966455 0.12145363 -0.009657502 -0.003591869
000070 5d e5 98 3d 10 2a 16 bd 7a 61 c2 3d 19 02 d3 bd
       0.074656226 -0.036661208 0.094912484 -0.103031345
000080 60 dc 4a 3c c6 4e cf bc 05 77 01 be f1 27 c7 bd
       0.012381643 -0.025306117 -0.12643059 -0.09724415
000090 13 f4 f8 3d 6e 6b e3 3d 7e bc b5 bd 1a a2 e3 bd
       0.121559285 0.11104475 -0.08873843 -0.11114903
0000a0 81 15 6f 3c f8 af 89 bc 9a 45 63 bd 8c f4 f0 3d
       0.014592529 -0.016807541 -0.0554863 0.117653936
0000b0 7f a9 cd 3d 0b d3 e9 3d e9 c0 2e bc f7 b8 e5 bd
       0.100420944 0.114172064 -0.010666111 -0.1121692
0000c0 23 9b 80 bd dd 87 be 3d 14 4a 55 3d 0d 93 02 3e
       -0.0627959 0.093032576 0.0520726 0.12751408
0000d0 cc 8e d6 3d 64 4e 9f 3d 39 a3 fb bb 8b 1e d4 bd
       0.10476455 0.07778624 -0.0076793698 -0.10357388
0000e0 f4 38 3d bd 48 77 84 bd 40 89 5a 3d 82 5e 84 3d
       -0.046196893 -0.064680636 0.053353548 0.064633384
0000f0 73 0e dc bb 7a 36 de 3d 63 b6 7c 3d c0 35 d1 bd
       -0.0067155897 0.10850234 0.061697375 -0.1021533
