public/Data Sources/mumps_model.pth (torch, 20592 bytes, 5 tensors)

fc1.weight f4 [64, 3]
000000 10 76 cb 3d d0 92 d1 3e 61 63 e8 be 28 c2 73 3e
       0.09934628 0.40932322 -0.4538832 0.23804533
000010 ac 5e d5 3e bc 02 43 be a2 12 b8 3e f1 23 8b 3e
       0.4167379 -0.19044012 0.35951716 0.2717586
000020 db 14 1b 3e fc b4 10 bf 11 c8 d6 be be 17 ea 3e
       0.15144674 -0.5652616 -0.41949514 0.4572124
000030 18 ac 98 3c 60 b8 eb 3d f1 a0 f5 be f0 7a b7 3d
       0.018636748 0.11509776 -0.4797435 0.08958995
000040 e4 8a fe bd 20 a8 f5 bd eb 22 8b be 06 86 02 3f
       -0.12428835 -0.11994958 -0.27175078 0.50985754
000050 c6 93 c8 be 4d d8 06 bf 47 60 04 be d7 c2 d6 3e
       -0.39175242 -0.526738 -0.12927352 0.41945526
000060 c0 c1 dd be 7b e1 00 bf 0e 0e bc be bf eb e7 bd
       -0.43311882 -0.50344056 -0.36729473 -0.11324262
000070 6a e1 dd 3e 31 30 9f 3e a7 1a 01 bf 6a 1d ea bd
       0.4333604 0.31091455 -0.50431293 -0.114313915
000080 6e 1d f3 bd 07 19 02 3f 59 27 15 3e 21 c0 03 bf
       -0.11870848 0.5081944 0.14565791 -0.5146504
000090 98 ff 0b be d8 3e 14 bf 60 06 0d 3e 22 a8 eb be
       -0.1367172 -0.5790839 0.13771963 -0.46026713
0000a0 36 16 b1 3e 7c 0f 6d be ea 75 3d bb 09 e8 5f 3e
       0.34587258 -0.23150438 -0.0028909394 0.21865858
0000b0 2b ff 22 3e 59 89 c0 be 40 64 45 bc e3 1b 9c be
       0.15917651 -0.37604788 -0.012047827 -0.30490026
0000c0 e6 1d a4 be 6a 52 d3 3c ca 47 a0 3d 91 58 61 3e
       -0.3205406 0.025796134 0.07826193 0.22006442
0000d0 8f 00 6b bd d1 ed f2 3d d3 06 d4 be 60 9a ff 3d
       -0.05737358 0.11861766 -0.41411456 0.124806166
0000e0 fa 7b d4 bc c5 3d 08 bd 46 b6 72 3e bb c0 bc 3e
       -0.025938023 -0.033262033 0.23702344 0.36865792
0000f0 18 fb db 3e fa b6 d2 3e 6c 82 2b be 3a f2 99 be
       0.42965007 0.41155225 -0.16748971 -0.30067617
000100 38 0b b0 bd f7 09 80 be fc ac ad bd 86 62 91 be
       -0.0859589 -0.25007603 -0.0848026 -0.2839548
000110 36 00 27 be 3b 07 f6 be be 00 51 be f6 00 88 3e
       -0.16308674 -0.4805239 -0.2041044 0.26563233
000120 67 23 7f be 56 49 15 3e e3 e0 4b 3e f6 56 b1 3e
       -0.24915849 0.14578757 0.19910006 0.34636658
000130 f8 f7 c6 be 36 6c e5 bd 7e 0b 89 be 5a 07 13 bd
       -0.3886106 -0.1120228 -0.2676658 -0.035895683
000140 01 e5 93 be 4f 49 10 3f 56 60 aa bc 16 e8 c4 3e
       -0.28885654 0.5636186 -0.02079789 0.38458318
000150 9a ca 88 3e f4 b4 91 3d 75 81 2e 3e a1 1f 13 bf
       0.26717073 0.07114592 0.17041571 -0.57470137
000160 0e 9b 67 3e 13 f1 47 3e 0e 19 06 3f 40 8e b0 3e
       0.22617742 0.19525556 0.5238198 0.34483528
000170 c3 dc 06 bf 6c 7d 8a be e3 ee 1e 3e 20 91 22 3e
       -0.52680606 -0.27048814 0.15520816 0.15875673
000180 66 7f 5c 3a ce 33 2b 3e eb df 05 bf 55 3c 57 be
       0.0008411318 0.1671898 -0.52294797 -0.21019109
000190 fd 70 80 3e bd 9e 7b be 09 68 a9 3e 57 fc 0b 3f
       0.25086203 -0.24572273 0.33087185 0.54681915
0001a0 7a 0e 88 bd 25 fd 86 be 42 11 a5 be 1c 17 f7 be
       -0.06643386 -0.2636501 -0.3223973 -0.4825982
0001b0 f7 82 ec be bc 58 dc 3e d4 0f ca bc 66 90 ea be
       -0.46193668 0.4303645 -0.02466575 -0.45813292
0001c0 65 60 1f be 1d e1 40 3d b5 73 09 3e eb aa cb be
       -0.15564115 0.047089685 0.13423045 -0.39778838
0001d0 e7 0f 0a 3f f4 ed 2a 3e 08 63 cb 3d fc be 1e be
       0.53930515 0.16692334 0.09930998 -0.15502542
0001e0 73 cf c0 be ac 31 91 3e 4b b9 12 3f b1 65 88 be
       -0.3765827 0.2835821 0.57313985 -0.26640084
0001f0 b6 16 f1 3e ee 7d e8 3d b5 55 ae be c6 4e 05 bd
       0.4708764 0.11352144 -0.34049764 -0.032545827
000200 29 44 02 3f f8 d6 04 3f 6b 38 f8 3e 38 0c 1f bd
       0.50885254 0.51890516 0.48480543 -0.038830012
000210 8c 09 d6 3e c4 04 0c 3f ac d6 86 3e e4 eb 65 3e
       0.4180416 0.5469477 0.26335657 0.22453266
000220 98 12 6c 3e 39 a3 c2 be 06 fd bf bd 3a af 92 3e
       0.23053968 -0.38015154 -0.09374432 0.28649312
000230 db 49 4a 3e a0 52 bf bc 16 df e1 be e4 69 5a 3e
       0.19754736 -0.023354828 -0.44115514 0.21329457
000240 e7 05 fa be ed 99 08 3f c4 22 d8 3d 7b 2c f3 3e
       -0.48832628 0.5335987 0.10553506 0.47494873
000250 ed 75 e5 3d 6e 92 93 3d 03 80 af bd 0d 3f a0 be
       0.11204133 0.072056636 -0.08569338 -0.31298104
000260 ab fa a2 3e 9e 45 20 be 72 91 30 be 64 a4 c0 3c
       0.3183187 -0.15651557 -0.17242983 0.023515888
000270 16 6c 7a be 24 f9 0f 3e c0 e3 f3 be 4b 25 85 be
       -0.24455294 0.14059883 -0.47634697 -0.26005015
000280 70 b5 76 be a2 30 9c 3e fd 99 60 be 72 10 8d be
       -0.2409265 0.30505854 -0.21933742 -0.2755161
000290 76 fa bc 3e 23 83 8c bc 9e 10 10 3f 23 e2 d1 3e
       0.36909837 -0.017152375 0.56275356 0.4099284
0002a0 40 a5 3d 3e 10 42 20 bd 3a 76 9d be 95 d5 dc bd
       0.18520069 -0.039125502 -0.30754262 -0.10782925
0002b0 6c f0 e2 be 5f a4 5c bd e7 21 c8 3d 86 37 d5 3e
       -0.44324052 -0.053867694 0.09772091 0.41643924
0002c0 76 84 e2 3d 34 4b f6 3e 3d 51 e4 3e 1d 1d ae 3e
       0.11060421 0.4810425 0.4459323 0.34006587
0002d0 cc 98 0c 3e 17 b1 c5 be 80 bb a8 bb ec 7e e7 be
       0.13730162 -0.3861167 -0.005149305 -0.4521402
0002e0 4d 93 84 be 64 41 b1 3e 16 ab 9b be 50 cb 2d 3d
       -0.25893632 0.34620202 -0.30403966 0.042430222
0002f0 ee 5c 9c 3e 50 ca dd 3e 4a d1 52 3e 2f cc 7d 3e
       0.3053965 0.43318415 0.2058765 0.24784921

fc1.bias f4 [64]
000000 46 92 60 be af 28 66 3e 95 72 4d be d7 aa e0 3c
       -0.21930799 0.22476457 -0.20063241 0.027425213
000010 5e aa f7 3d dd 41 10 bf ae 8c 8b 3e 23 59 2d be
       0.12093042 -0.563505 0.27255768 -0.16928534
000020 32 9b eb be d8 c5 51 be 12 e7 b8 3e 0e d9 76 3e
       -0.46016842 -0.20485628 0.36113793 0.24106237
000030 1b b2 0e 3e 44 d3 db be d5 83 c3 3e a4 c8 10 bf
       0.1393513 -0.4293462 0.38186517 -0.56556153
000040 38 3a 95 3e 3e f8 03 3f 3b 2a 21 3b 13 e0 e6 3e
       0.2914598 0.5155066 0.0024591822 0.4509283
000050 62 f0 e2 be 31 49 f0 3e 24 c0 f1 be 56 c9 f2 be
       -0.44324023 0.4693084 -0.47216904 -0.47419232
000060 4b 1e d1 bd e3 84 9e 3d af ff 51 3e 17 21 ac 3c
       -0.10210856 0.0774019 0.20507692 0.021011872
000070 8f f4 e6 3e 22 fb 5e bd 7a 14 e9 3e d7 fe d7 3d
       0.45108458 -0.054438718 0.45523435 0.10546654
000080 f7 82 fc 3d 4c 7e 0b 3e 93 03 70 3c 0f 24 a4 be
       0.12329667 0.13622397 0.01464929 -0.3205876
000090 c6 f6 ef b9 d4 9f 05 3f e1 49 c9 3d 24 5c 46 be
       -0.00045769493 0.52197003 0.098285444 -0.19371086
0000a0 6e 1e 28 be 6b 23 8a 3e 5b 5d ee 3e cb 4f 08 3f
       -0.16417858 0.26980147 0.465556 0.53246754
0000b0 a9 bf 82 bd 9b fc 11 bf 30 04 25 bc f7 dc 00 3f
       -0.063842125 -0.5702607 -0.010071799 0.50337166
0000c0 66 23 56 be 62 ee 92 3e 9f cb 38 3c 44 10 d3 3e
       -0.20911941 0.28697497 0.011279016 0.41223347
0000d0 d1 03 97 be a1 ea d6 3e b6 df 3a bd 42 fe 35 3e
       -0.294951 0.41975883 -0.045623504 0.17772773
0000e0 f4 5e 62 be 5c 91 d8 3e 0d e3 c6 bd f6 da bf 3d
       -0.22106534 0.422984 -0.09711275 0.09367935
0000f0 06 fe 1d be 07 52 a0 be 21 87 0c bf e1 1a c9 3d
       -0.15428934 -0.31312582 -0.5489369 0.0981958

fc2.weight f4 [64, 64]
000000 93 cc 5b 3d d0 bc ae 3d 58 55 c9 bc fb f0 2c bd
       0.053661894 0.08532107 -0.024576828 -0.042222004
000010 71 5a 9d bc ce fa ef 3d 1c 6e c2 3c 25 d5 73 3d
       -0.019208165 0.11717759 0.023734145 0.059529442
000020 c8 c9 8e bd df 5c f6 3c 2e dc 1c 3d 47 b4 15 3d
       -0.069720805 0.030073581 0.038295917 0.03654888
000030 4d e5 e0 3d 40 11 6b 3c b6 32 e6 3d 2a 76 9d 3d
       0.10981236 0.014347374 0.11240141 0.07688554
000040 1c f4 ef bd da cf 36 bc e6 28 03 be e5 f9 ca 3c
       -0.11716482 -0.011157954 -0.1280857 0.024777362
000050 30 41 bc bd 6d dc 52 bd 90 6b e4 3c 46 4e f5 3d
       -0.09192121 -0.051479746 0.027883321 0.1197782
000060 e8 87 9a bd 98 e2 6e 3d 00 b2 34 bd 44 89 ed bc
       -0.07545453 0.058321565 -0.044115067 -0.028996117
000070 0c b3 32 3d 75 a6 74 3d 1a 0c cf bc 2b fe 8c bd
       0.043627784 0.05972906 -0.025274325 -0.06884416
000080 28 80 fe 3b 2f bf 68 bd 51 43 e8 bd e8 61 09 3d
       0.0077667423 -0.056822952 -0.113409646 0.033540636
000090 81 49 3c 3d 59 a2 e6 bd 12 a6 cf 3d b8 e4 a8 3c
       0.045968536 -0.11261434 0.10139097 0.020616874
0000a0 62 2f a7 bb 78 bc cd bd e2 8b b0 bd 31 36 98 3d
       -0.005102084 -0.10045713 -0.086204305 0.07432211
0000b0 8f 57 42 3c d4 ff e5 3d 2f 8c e8 3d c7 b9 ca 3d
       0.011861696 0.11230436 0.11354863 0.098987155
0000c0 93 fc cd 3c 92 c9 1c 3d 7d f4 3d bd bf 71 8e 3c
       0.02514485 0.03827817 -0.04637574 0.017388223
0000d0 88 e0 99 bc c0 0c 8b bd ff 9c 13 bd 2a 1b d7 3c
       -0.018783823 -0.06789541 -0.036038395 0.02625807
0000e0 e4 d6 e8 bd 3e b9 23 3d df d9 46 bc ca aa eb 3d
       -0.11369112 0.039971583 -0.012136905 0.11507185
0000f0 c0 8d a8 bc 80 17 7e 3b 88 26 12 bd 0e 6e e3 3c
       -0.020575404 0.0038771331 -0.035681278 0.02776244
000100 6a b8 09 3d 92 44 a3 3d 73 ca 32 bd aa 94 e1 bd
       0.033623137 0.07972063 -0.043650102 -0.110146835
000110 c2 e3 ee bd ee 95 a4 3d ba aa 37 3d 49 4b a7 bd
       -0.11664535 0.08036409 0.044840552 -0.081686564
000120 38 dd 9b 3c 58 24 bf bc 5c 6f f7 3d c9 58 15 3c
       0.019026384 -0.02333276 0.12081787 0.009115406
000130 28 b1 94 3d 50 87 8e 3c 93 29 d4 bd 90 e4 93 bc
       0.072603524 0.017398506 -0.10359492 -0.018053323
000140 14 59 bf 3d 3a 03 c0 3d 70 e2 89 3d a8 b0 af bd
       0.09343162 0.093756154 0.06732643 -0.085786164
000150 9a 15 db bd d9 bd d7 3d 1c 63 f3 3d 40 2a 5f 3c
       -0.106974795 0.105342574 0.11884138 0.013620913
000160 50 56 dd bc 6c e2 80 bd 7d 29 d6 3d d0 0c 92 bd
       -0.027018696 -0.062931865 0.10457132 -0.0713135
000170 8c 14 10 3d a8 07 ef bd d9 4b bf 3d 84 fc b4 bd
       0.035175845 -0.11671382 0.09340639 -0.08837226
000180 7b e3 a9 bd 6c 67 c9 3c be 20 71 bd 46 6e 93 3d
       -0.082953416 0.024585448 -0.058869116 0.07198767
000190 14 1d b5 3d c0 ea a8 3d ef 26 6a 3c 3c 3a 02 bd
       0.08843437 0.082479 0.014291509 -0.031793818
0001a0 9f 93 0f 3d 66 a2 f3 bb 6a 2e 93 3d a2 58 8d 3d
       0.03505289 -0.007435131 0.07186587 0.06901671
0001b0 03 64 6c 3d 2c 0e 33 bd 69 8c 70 bc a5 5c a6 3d
       0.057712566 -0.043714687 -0.014681914 0.08123139
0001c0 9c 87 b9 bc a4 d1 37 bd 6d be da bd 1b 2d d9 3d
       -0.022647671 -0.044877663 -0.10680852 0.10604306
0001d0 24 3d 9e bd 56 6e 35 bd 42 a8 b5 bc d9 2e 7a bd
       -0.077265054 -0.044294678 -0.022174958 -0.061079834
0001e0 00 47 91 3d 72 2c 14 bd 55 87 7d bc f1 59 ac 3c
       0.0709362 -0.0361752 -0.01547416 0.021038981
0001f0 90 9b 65 bd d0 82 5a 3d 98 92 ce 3d 6e 75 22 bd
       -0.05605656 0.05334741 0.10086554 -0.03966277
000200 b0 b6 03 3c a7 b5 ac 3d 8b 09 e6 3d b0 88 ba 3c
       0.008039162 0.08433085 0.11232289 0.022770256
000210 f8 54 c7 3c a6 87 d0 bd 68 c2 b2 3d c0 83 47 bb
       0.024332508 -0.10182123 0.08728486 -0.003044352
000220 e4 c9 bb 3d 90 0e 38 3c d5 12 d5 bd c6 3a b8 bd
       0.09169367 0.011233941 -0.104039825 -0.08995585
000230 ce 1c be 3d 20 8a 34 3c 77 e8 ab bd 18 17 e5 bc
       0.09282838 0.01101926 -0.083939485 -0.027965114
000240 71 4d bb 3d 8b f5 76 3d ee e4 c4 bd 2f cb 84 bd
       0.0914563 0.06029276 -0.096139774 -0.06484067
000250 d0 c8 e5 3d 6e 66 72 3d ac cb 53 bd b0 cd 13 3d
       0.112199426 0.059179716 -0.05170791 0.03608483
000260 80 a7 8a 3a 3f b8 c8 bc 28 3f be bb f7 08 58 3d
       0.0010578483 -0.024501918 -0.0058058687 0.052742925
000270 d1 b4 9f 3d 6c 25 49 3d 94 46 c5 3d 5c ab 9c bd
       0.0779816 0.049107954 0.09632602 -0.07649872
000280 39 c9 8b 3d 0e f1 1e bd 90 3d 76 bd 90 5a 3f 3d
       0.068254896 -0.038804106 -0.060117304 0.046717227
000290 12 85 96 3d 65 4a d9 bd 11 0a 0e bb be c8 af 3d
       0.073496 -0.10609893 -0.002167348 0.085832104
0002a0 80 a3 4e bd 76 09 01 be 83 1f dc 3d af a7 69 bd
       -0.050448895 -0.12601265 0.10748198 -0.05704468
0002b0 f9 48 c1 bd fe d6 fa bd d9 b6 1d bb 71 b3 dd bc
       -0.094377466 -0.12248038 -0.0024065285 -0.027063103
0002c0 d4 4e 0e 3d 7f ca 85 bc 5c 7b a9 ba 2c f1 30 bd
       0.034743145 -0.01633191 -0.0012930441 -0.04319875
0002d0 f4 1b 0f 3d 82 ca 28 bc 64 cc 38 bd f6 2a b5 ba
       0.034938768 -0.010302188 -0.045116797 -0.0013822007
0002e0 a4 c6 8e bd 62 6b a1 3d e2 39 91 bd 08 50 33 3d
       -0.069714814 0.0788181 -0.070911184 0.043777496
0002f0 e0 96 11 bc 2a 92 e1 bd a0 dd cf 3c cb 8d 42 3d
       -0.008886069 -0.11014207 0.025374234 0.047498506
000300 cc 3f 70 bd 04 ac 9a bd de 1a 93 3d e9 51 9e 3d
       -0.05865459 -0.075523406 0.07182859 0.07730467
000310 be 86 2e bd f8 19 c6 3d a8 a4 00 3d 64 f1 ca bb
       -0.04260897 0.09672922 0.03140703 -0.006193327
000320 80 ed f8 3b 17 f2 77 bd a8 5d 98 3d 62 33 bb bd
       0.0075966716 -0.06053361 0.074397385 -0.0914066
000330 e1 35 99 3d 68 28 b5 bd 5c 28 95 bd 88 f1 3f 3d
       0.0748098 -0.088455975 -0.072830886 0.0468612
000340 85 d0 af 3d fc 99 e3 bd 53 73 86 3d a0 4b db 3c
       0.08584694 -0.111133546 0.06564965 0.02676946
000350 56 29 95 3d 03 68 f8 bd 1e 6e 82 3d cc b3 82 bd
       0.07283275 -0.12129214 0.063686594 -0.0638195
000360 21 49 04 be 35 fa 9c 3d f7 8f 3a 3d 64 50 bb 3c
       -0.12918521 0.07664911 0.04554745 0.022865482
000370 96 e6 9b 3d b5 f7 d6 3c a5 f4 c2 bc f2 b5 14 bd
       0.0761234 0.026241163 -0.023798296 -0.03630633
000380 69 d6 f7 bc d9 75 68 3d fa 2f b8 bc ea 28 f9 3d
       -0.030253606 0.056753013 -0.022483815 0.12166007
000390 b4 79 31 3d 49 f7 32 bd a6 34 81 3d dc 47 5b 3d
       0.043328956 -0.04369286 0.0630887 0.053535327
0003a0 e6 4a 9f 3d ae f0 5a 3d 2c 38 78 3d be c1 b4 3d
       0.077779576 0.053452186 0.060600445 0.08826016
0003b0 8a 43 35 bd 40 e0 f0 3d a8 4e c8 bd 33 84 de bd
       -0.044253863 0.11761522 -0.097806275 -0.10865059
0003c0 cc 9b d2 ba 35 1e 9d 3c 96 38 e3 bd c6 f5 8e 3d
       -0.001606816 0.019179443 -0.11094777 0.06980471
0003d0 dc b0 1b 3d 81 04 a6 3c a8 1f d2 3d 99 ef 97 3d
       0.038010463 0.02026582 0.10259944 0.074187465
0003e0 00 f5 29 bb c2 8f 33 bd 21 52 a4 3d 03 dc a7 bd
       -0.0025933385 -0.04383827 0.08023477 -0.08196261
0003f0 54 d9 aa 3d e2 e3 ec bd f0 da c8 3c 64 21 d5 3d
       0.08342233 -0.11566903 0.02451846 0.104067594

fc2.bias f4 [64]
000000 90 35 89 bd 25 7d f3 bc 28 3a a8 bd 46 af b7 bd
       -0.06699669 -0.02972276 -0.082142174 -0.08968978
000010 b8 ef 74 3d dc b9 7f 3d aa c1 fc bd 32 e8 95 3d
       0.059798926 0.06243311 -0.12341626 0.07319678
000020 08 25 0b 3d 10 91 d4 bd eb 5a 60 bd 92 db e4 bd
       0.033970863 -0.10379231 -0.054774206 -0.11174692
000030 d5 5e a0 3d 1d 2d 71 bd d1 bc 1a bd 86 c4 25 3d
       0.07830588 -0.058880914 -0.037777726 0.040470622
000040 26 6a f3 3d 48 3d 22 bd 06 cb 94 3d 3a e8 8c bd
       0.118854806 -0.039609224 0.07265286 -0.06880231
000050 b6 8b ef bd e8 5a d1 bd 90 fe 4a bc be 94 fc bd
       -0.116965696 -0.10222417 -0.012389794 -0.12333058
000060 d1 79 ab bd 7c b7 ad bd f4 cd 80 bd 4b f1 27 3d
       -0.08372844 -0.084822625 -0.062892824 0.0410016
000070 d2 4e c9 bd e6 f1 d8 bd d8 83 c0 3d 12 c6 b6 bd
       -0.09829487 -0.105930135 0.09400147 -0.08924498
000080 d0 81 45 bd 98 8f c5 bd c0 ad bf 3b ea 2b 52 bd
       -0.048219502 -0.09646529 0.00584957 -0.05131141
000090 5f 92 c7 bd b6 05 04 bd 2f 05 b6 3c 78 d5 e8 bd
       -0.09744715 -0.03223201 0.022219269 -0.11368841
0000a0 09 eb 0a bd 0d 75 13 3c 8e b6 af 3d a5 ad 9b bd
       -0.033915553 0.009000075 0.085797414 -0.076014794
0000b0 95 83 0b 3d de b9 94 bd a7 30 99 bd e0 72 4e bd
       0.034061033 -0.07262014 -0.07479983 -0.050402522
0000c0 b6 22 d2 bd 73 d2 8b bc af 76 4b 3c c1 9e 8a 3c
       -0.10260527 -0.017068123 0.012418433 0.016921403
0000d0 4c 14 1e bd 04 bd da 3d a4 0e b2 3c dc b8 da 3d
       -0.038593575 0.10680583 0.021735497 0.106797904
0000e0 b8 aa ca 3c 0e 6f b0 3d 1c 69 f4 bc b2 50 f9 bd
       0.024739608 0.08614932 -0.029835276 -0.121735945
0000f0 98 29 5d 3d a8 b3 e9 bd 74 e4 d8 bd 64 84 c2 bd
       0.053994745 -0.1141122 -0.10590449 -0.09497908

fc3.weight f4 [1, 64]
000000 69 69 92 bd 7f 21 61 bd 3a c7 c9 bd d8 93 92 bd
       -0.07149012 -0.054963585 -0.098524526 -0.07157105
000010 5e f0 6e bc 78 f2 a4 bd 5a 72 91 3d 97 55 bf 3d
       -0.014583675 -0.0805406 0.07101889 0.09342497
000020 01 d5 c8 bd e7 c2 5b bc f6 fd 81 3d 74 c7 d6 3d
       -0.09806252 -0.013413168 0.06347267 0.104872614
000030 c1 9c 22 3c 85 f4 fc 3c ed a4 4e 3b 7c a7 b4 bd
       0.009925068 0.030878315 0.003153141 -0.088210076
000040 3e e1 47 3c 20 40 81 3c a6 e1 b8 3d 98 71 e8 3d
       0.012199698 0.015777647 0.09027414 0.11349791
000050 90 c1 61 3c 20 76 77 3d c8 13 a0 3c f8 70 96 bc
       0.013779059 0.060415387 0.019540682 -0.018364415
000060 e1 67 5d bc 20 d4 e9 bc e4 a6 c2 bc 15 4a d9 3d
       -0.013513536 -0.028543532 -0.02376122 0.10609833
000070 c8 16 ab bc bc 04 df 3d d2 10 c1 bd df 17 52 bd
       -0.020884886 0.10889575 -0.09427036 -0.051292296
000080 1c a5 8b 3d cc cb 39 3d 5c 74 b2 3d ce 06 fc 3d
       0.068186015 0.04536037 0.087136 0.123059854
000090 1f 33 2a bc 83 7a dd bd a5 cd eb bd 2a 95 95 bd
       -0.010388165 -0.10814383 -0.11513833 -0.073038414
0000a0 64 c1 f1 bd a8 be e4 3d dc 70 f9 3d 8c 6c c1 3c
       -0.118044645 0.11169177 0.12179729 0.02361133
0000b0 b1 bf ff 3d e5 55 eb bd a4 41 e1 3c b8 19 f2 3c
       0.12487734 -0.114909925 0.02749712 0.02955328
0000c0 ba 7f fa 3d 9a f9 bf 3d 5b 3b 73 3c 1d 7d f3 3d
       0.12231393 0.093737796 0.014845694 0.11889098
0000d0 d0 86 bb 3c 13 20 c9 bd b5 cc d8 3c aa 67 b6 bd
       0.022891432 -0.09820571 0.0264648 -0.08906491
0000e0 4a 70 f3 bd 75 99 03 3d 8e 0a 09 bd 96 f6 b0 3d
       -0.11886652 0.03212877 -0.03345733 0.086407825
0000f0 25 ef e7 3d 82 b9 ca 3d b6 b5 a7 3d 86 57 cc bd
       0.1132491 0.09898664 0.081889555 -0.09977631
