public/Data Sources/pertussis_model.pth (torch, 20632 bytes, 5 tensors)

fc1.weight f4 [64, 3]
000000 5e 54 30 be f7 78 ff bd 29 5a f8 3e 98 c7 a1 be
       -0.17219684 -0.12474244 0.48506287 -0.3159759
000010 c3 3b 13 bf a0 9b 60 3e 9c 77 3f be fa cb 40 be
       -0.57513064 0.21934366 -0.18697971 -0.18827811
000020 ab 06 a6 be 6d 2b 58 3e 6e 02 24 be 6a e8 f8 3e
       -0.32426962 0.21110316 -0.16016552 0.48614818
000030 27 16 99 3e 94 5c 77 3d c1 07 9b bd 76 8f 0a 3f
       0.29899713 0.060391024 -0.07569838 0.54125154
000040 51 10 eb 3e db 22 56 bc 46 02 04 bf c8 f7 5a be
       0.45910886 -0.013069834 -0.5156597 -0.21383584
000050 44 48 38 3e 60 4f 45 3d 70 6f 4c 3e a4 5e a3 bd
       0.17996317 0.0481714 0.19964385 -0.07977036
000060 72 15 18 3e d4 6a 61 be 86 d9 81 3e 82 ce 09 bf
       0.1485193 -0.22013408 0.2536127 -0.5383073
000070 85 22 fa 3e cf 3c 4d be ec ff 07 bf 35 48 9c be
       0.4885446 -0.20042728 -0.5312488 -0.3052384
000080 ca 21 13 bf 7e 35 a5 3e ed 40 8e 3e a8 ac b2 3e
       -0.57473433 0.32267374 0.2778391 0.3489735
000090 d1 aa dd be c6 f9 11 3f 2a c6 97 3e 44 5f 06 3e
       -0.43294385 0.5702175 0.29643375 0.13122278
0000a0 c0 01 35 bd b0 8d 3a bd 48 14 06 bf 63 5b 2e 3e
       -0.044191122 -0.04554528 -0.52374697 0.17027049
0000b0 10 85 8e bc cc fa af 3e ef 52 10 3f 9f 3b 12 3e
       -0.017397434 0.3437103 0.56376547 0.14280556
0000c0 bb 9f a2 3e 83 dd ed 3c e1 50 17 3e 68 49 f0 3e
       0.3176249 0.02903629 0.14776947 0.46931005
0000d0 dd 48 03 3f eb e2 0e 3f cc 2d a1 3e b2 4c 46 be
       0.51283056 0.55815 0.31480253 -0.19365194
0000e0 fb b5 2a 3e 99 76 95 3e d3 6d a7 3e c0 b3 bf be
       0.16670983 0.29192045 0.32700977 -0.37441826
0000f0 8a 91 93 3d 4f 72 be be 0f 5a e4 3e b8 f0 dc be
       0.07205494 -0.37196586 0.4459996 -0.43152404
000100 bb 4d 99 be ae 07 88 be e0 e1 fe 3d 5c f4 91 be
       -0.29942116 -0.2656836 0.12445426 -0.28506744
000110 80 7a e7 3b c1 67 10 bf 1c 98 03 3f 59 8e fd 3e
       0.0070641637 -0.56408316 0.51403975 0.49522665
000120 78 c4 c4 be 90 cd fa be 24 43 71 be 09 ec a9 3e
       -0.38431144 -0.48984957 -0.23560768 0.33187893
000130 11 54 fe 3d fc 89 31 be 85 97 d1 be fa 11 85 be
       0.12418378 -0.17337793 -0.40935913 -0.25990278
000140 fc 0f 59 3e 5c 39 81 3d 24 0d fa be e4 b1 b7 3e
       0.21197504 0.063097686 -0.4883815 0.35877907
000150 10 ae 88 3d ce 1e 94 be 00 cb 88 bb ab 91 a9 be
       0.06673825 -0.28929752 -0.00417459 -0.33118948
000160 c4 46 f0 3e 2d 27 08 3f ee da 59 be 70 00 d9 be
       0.4692899 0.5318478 -0.21274921 -0.42383146
000170 bd 67 ea 3e d2 db dd be e5 d3 94 be 06 6b 11 be
       0.4578227 -0.43331772 -0.29067913 -0.14200982
000180 32 5f 02 be 20 82 aa be 60 5c d5 3c e4 e6 55 be
       -0.12731627 -0.33302402 0.026045024 -0.20888859
000190 ae 80 01 be 88 d9 4c 3e 1b 9c 24 be 03 32 0f 3f
       -0.12646744 0.20004857 -0.16075175 0.55935687
0001a0 ba eb 96 3e 4b aa 57 3e 7a 36 8a be 25 3c 18 be
       0.2947672 0.21061055 -0.26994687 -0.14866693
0001b0 36 6b 51 be ee c2 08 bf ce 58 16 be a6 c4 b3 3e
       -0.20451054 -0.5342244 -0.14682314 0.35110968
0001c0 a0 fa 80 3c 49 0f f7 be c7 bb 0e 3f ee 3e 8d 3e
       0.015744507 -0.4825385 0.55755275 0.27587074
0001d0 6b 41 9c be bb 39 72 3e 88 3b ee be 01 1d 03 3c
       -0.3051866 0.23654835 -0.46529794 0.008002521
0001e0 14 18 00 3f 63 98 86 3e 12 44 fd be b4 93 87 bd
       0.5003674 0.26288137 -0.49465996 -0.06619969
0001f0 39 cd c4 be 22 a6 0e be 9f fd b5 3e 5e 2b aa be
       -0.38437822 -0.13930562 0.3554506 -0.33236212
000200 0f ac 08 3f 28 5c 7c be 10 46 b8 be fe cf 84 3e
       0.5338754 -0.2464453 -0.35990953 0.25939935
000210 09 23 b5 3e 79 d2 0a bf 12 f5 d0 be e0 f5 eb be
       0.35378292 -0.54227406 -0.40811974 -0.46086025
000220 f7 24 22 3e 13 02 4e be 58 e1 ee 3c db f1 92 be
       0.15834413 -0.20117979 0.029160187 -0.28700146
000230 39 e5 9a 3e a4 4b e0 3e ce df 08 bf e1 d9 2b 3e
       0.30253008 0.4380771 -0.534665 0.16782333
000240 4a 8c 5c be 80 c9 6c 3e 89 94 01 bf f4 b1 a4 3e
       -0.21537891 0.23123741 -0.5061727 0.32167017
000250 63 50 b2 be 31 c6 df bd df d6 01 bf 18 f4 72 3d
       -0.34826955 -0.10926474 -0.5071849 0.059314817
000260 e8 16 aa 3c bc 63 d8 bd f2 8a b0 3e c0 82 c4 3c
       0.020762876 -0.10565898 0.34481007 0.023988128
000270 a7 6a 07 bf 40 fd 6a 3e 9e c5 b4 3e 32 1a 0a bf
       -0.52897114 0.2294817 0.3530702 -0.5394622
000280 c9 3d 8a be 37 c5 f8 be dc f6 da bd c8 42 ad be
       -0.27000263 -0.48587963 -0.10691616 -0.33840013
000290 60 a6 ec 3e 9d ca 1d 3e 80 94 3e 3e 57 8f 32 be
       0.46220684 0.15409322 0.18611336 -0.17437492
0002a0 59 84 7d 3d 91 60 82 be 1a 0f c5 3e 98 95 0d 3f
       0.061893795 -0.254643 0.38488084 0.55306387
0002b0 d3 a7 c0 be 4c 49 0f 3e 9a c4 1b 3e 97 5f 4a bd
       -0.3762804 0.13992804 0.15211716 -0.049407568
0002c0 40 a8 8e 3e fe 3c 03 bf c0 58 19 3d c5 a2 81 3e
       0.2786274 -0.5126494 0.037438154 0.25319496
0002d0 c6 d8 06 3f 03 04 1f 3e 43 24 ae 3e e0 cc 12 bd
       0.5267452 0.15528874 0.3401204 -0.035839915
0002e0 5a 89 c4 3e 48 31 52 be 6c 5f ae be bc 65 81 be
       0.3838604 -0.20526612 -0.34057176 -0.2527293
0002f0 1f 4f 87 be 18 09 4d 3e 54 c7 d2 be 2a 4d dd be
       -0.26427552 0.20023 -0.411677 -0.43222934

fc1.bias f4 [64]
000000 07 c7 b9 3e e9 a2 08 3f f2 52 0d bf d1 23 10 3f
       0.36284658 0.5337358 -0.5520469 0.5630465
000010 77 b5 ed 3e f0 de 07 bd 4c 9f 51 be 21 fe f7 be
       0.4642751 -0.033171594 -0.20470923 -0.48436072
000020 92 ca 79 be 13 bf c5 be 60 ba 01 bf 28 91 0a 3f
       -0.2439368 -0.3862234 -0.5067501 0.5412774
000030 bb 09 13 bf 47 f2 95 be d9 c7 2c bd 1f aa dd bc
       -0.5743672 -0.29286405 -0.042182777 -0.02705866
000040 ba a5 de be b4 ec 30 3e e9 be b5 3e bc 2b 70 3d
       -0.43485814 0.17277795 0.35497215 0.05863546
000050 78 30 1e 3c f7 de 70 3d a1 d3 9a be e0 21 b0 bd
       0.009655111 0.058806386 -0.30239585 -0.08600211
000060 72 79 df be 62 bb 41 be 26 2e 9b 3e 6d bb 8b be
       -0.43647343 -0.18919137 0.30308646 -0.27291432
000070 ba 7b 42 be 61 c3 ab be 41 4f 0c 3f 66 9a b4 be
       -0.1899251 -0.335475 0.5480843 -0.35274047
000080 60 60 c3 be c2 15 67 be 2a 0d f6 3c ea f9 10 3f
       -0.38159466 -0.22566894 0.030035574 0.5663134
000090 08 d9 c7 bd 94 38 01 bf 4c 67 c7 3e 7a de 02 be
       -0.09758192 -0.50476956 0.38945997 -0.1278018
0000a0 be fe f3 3c 5d b6 da 3e 76 96 1d bd d3 ac a1 3d
       0.029784556 0.42717257 -0.03847357 0.07894292
0000b0 b1 96 33 3e 2e 06 cf bc 45 1e dc 3e bd 54 c4 3e
       0.17537953 -0.025271501 0.42991844 0.383459
0000c0 93 81 0c bf b6 4a d3 3e 18 75 78 bd d7 84 df bd
       -0.54885215 0.41267937 -0.060658544 -0.10914009
0000d0 f5 80 cb be 9e 38 be be 67 e5 07 bf b9 53 11 3f
       -0.39746824 -0.3715257 -0.53084415 0.56768376
0000e0 d5 73 d2 bd 04 de 96 be ea 7a d3 bc 29 b3 02 3f
       -0.102759995 -0.2946626 -0.025815446 0.51054627
0000f0 27 06 e8 bd 36 36 ea be 14 f2 25 be 44 02 d5 be
       -0.113292985 -0.45744485 -0.16205627 -0.4160329

fc2.weight f4 [64, 64]
000000 14 3b 9f bd dc 05 53 bd dc 03 69 bd f8 00 e4 bd
       -0.0777494 -0.05151926 -0.056888446 -0.11132997
000010 34 4a 51 bd 0c c3 65 bd 6c 61 1b bd 7e ea f7 bd
       -0.051096156 -0.056094214 -0.037934706 -0.12105273
000020 fc 0a e4 bd 50 6d 12 3d 66 06 95 bd 5e 44 e9 bd
       -0.111349076 0.03574878 -0.07276611 -0.11389993
000030 30 be 31 bd e6 45 af 3d 38 c4 c5 3d 24 11 8a 3d
       -0.043394268 0.08558254 0.096565664 0.067415506
000040 3a 30 86 3d 00 6b 05 bb 40 d1 a8 bd bc c9 ef bd
       0.06552167 -0.0020357966 -0.08243036 -0.117084
000050 4c f7 14 bd 88 7e d4 3d 14 34 6c 3d 72 f8 fc bd
       -0.036368653 0.103756964 0.057666853 -0.12352075
000060 66 0d 89 bd 78 6b 9f bc 08 46 0d bd d4 9a 84 bd
       -0.06692009 -0.019460425 -0.034490615 -0.064748436
000070 34 a3 d1 bd 9c 76 6a bd b4 fc 66 bd d6 3d c5 3d
       -0.10236207 -0.05724202 -0.05639334 0.09630935
000080 10 83 26 3d 7c d6 7f bd 3c e9 73 3d b8 d5 51 bd
       0.040652335 -0.062460408 0.0595486 -0.05122921
000090 a0 a4 a7 bc ac e9 30 3d 14 35 3e 3d a2 87 fb 3d
       -0.020464242 0.043191597 0.046437338 0.12281729
0000a0 78 93 04 3d 5a ef 91 3d 98 56 27 3d 00 44 12 3c
       0.0323672 0.07125731 0.040854067 0.008927345
0000b0 ec dc c1 3d 78 22 96 3c f0 59 92 bd 96 b6 db 3d
       0.09465966 0.018326983 -0.071460605 0.10728185
0000c0 60 31 2d bd 50 30 23 3c 32 3e e9 3d 88 da bb bd
       -0.042283416 0.009960249 0.11388816 -0.09172541
0000d0 80 88 ae 3b a8 c4 af 3d 9e 22 df 3d b2 66 9c 3d
       0.0053263307 0.08582431 0.108952746 0.07636775
0000e0 d4 e6 de bd 80 88 40 bc 3e 19 f6 bd c8 d5 b4 bc
       -0.10883871 -0.011751294 -0.12016533 -0.022074595
0000f0 16 ca 80 bd 48 2e 71 3d 40 fd 88 bb aa 89 8c 3d
       -0.06288545 0.058882028 -0.0041805804 0.06862195
000100 8e 07 a2 bd 12 5a e3 3d 9c d1 58 bd 84 4e 23 bd
       -0.07911597 0.11101164 -0.052934274 -0.0398698
000110 a0 a4 ac 3c 40 46 f2 3d d2 91 c8 bd 88 55 53 bd
       0.021074593 0.118298054 -0.09793438 -0.05159524
000120 50 19 b3 3d 08 0b 9a 3c 58 61 27 bd e0 04 68 bc
       0.08745062 0.018804088 -0.04086432 -0.014161319
000130 20 26 f8 bb b0 5d c6 bd 70 4d df bc 60 aa 8a bd
       -0.007572904 -0.09685838 -0.027258605 -0.06770778
000140 50 4d da bd cc 8c 60 3d e8 f5 bd bd dc 61 a1 bd
       -0.106592774 0.054821774 -0.092754185 -0.07879993
000150 4a aa 9a bd 70 6c ca 3c a6 07 a7 bd 22 d8 c3 bd
       -0.07552011 0.02470991 -0.08155756 -0.095627084
000160 82 47 94 3d 20 8e d3 bc 3e 20 ea 3d f8 d9 ae bc
       0.072402015 -0.025824606 0.11431931 -0.02134417
000170 62 7b 8d 3d 48 a1 9b 3c 1c f8 a9 bd b8 eb 43 bd
       0.06908299 0.018997803 -0.08299276 -0.04783222
000180 38 a5 25 3d 80 28 46 bd f8 b0 a9 bc fe fd d8 bd
       0.040440768 -0.048378468 -0.020714268 -0.1059532
000190 74 31 fd 3d 44 de cd bd 8c 94 f7 bd 5a 45 dc 3d
       0.12362948 -0.100521594 -0.1208888 0.10755415
0001a0 00 32 d7 39 f0 10 da bd 3c 35 7c bd d0 3a b2 bd
       0.00041045249 -0.10647762 -0.061574206 -0.08702624
0001b0 54 80 01 3d c8 29 3b bd 14 16 cb bd 70 fc 06 3c
       0.031616524 -0.045694143 -0.099163204 0.008238897
0001c0 70 4f 18 bd 3e 3d cf bd 28 10 dd bd e2 4d f1 3d
       -0.037185133 -0.10119103 -0.10794097 0.11782433
0001d0 08 12 45 bd c8 97 bf 3c b0 d1 6f 3c 68 b2 89 3c
       -0.0481129 0.023387805 0.014637396 0.016808704
0001e0 50 47 e9 bc ec b5 3c 3d f0 ab 12 3d d0 91 74 bd
       -0.028476387 0.04607193 0.035808504 -0.05970937
0001f0 0e 39 91 3d 20 b5 73 bd f8 3f d8 3d 80 cd 81 3a
       0.070909604 -0.059498906 0.10559076 0.0009903163
000200 3c 1f 91 bd b0 f6 4d 3d 9a 4d f0 bd 64 e0 c5 3d
       -0.070860356 0.050284088 -0.11733551 0.0966194
000210 4c 34 95 3d eb f1 c9 3d 3a 01 c8 3d 70 03 35 3d
       0.072853655 0.09860595 0.09765859 0.04419273
000220 7a 16 9c bd f2 57 ea 3d a0 13 00 3c d5 ce 9c 3d
       -0.076214746 0.114425555 0.007817179 0.076566376
000230 20 a6 c8 bd bc cb 03 bd c0 cd c9 3b 44 1d 79 bd
       -0.09797311 -0.032176718 0.0061585605 -0.060818925
000240 24 bb 26 3d f3 16 85 bd 51 aa 6a bd ca 18 7b bd
       0.040705815 -0.06498518 -0.057291333 -0.061302938
000250 9a 09 dc 3b 4e 0e ce 3d 2a d4 a4 bd 3b 60 e8 bd
       0.006715012 0.10061322 -0.080482796 -0.113464795
000260 c0 5f bc 3d 94 a0 75 bd c0 7a e5 b7 c8 d0 41 3d
       0.0919795 -0.059967592 -2.7356087e-05 0.04731825
000270 5a 2d 9b 3d c8 e6 17 3d 40 b4 45 3d 48 10 ae 3d
       0.075770095 0.037085325 0.048267603 0.08499199
000280 b2 11 cb 3d 90 0e 50 bc 3a 1c d4 bd 4f 5f 74 3d
       0.099154845 -0.0126987845 -0.10356946 0.059661206
000290 bc 57 0b bd d2 92 93 bd 9d ec 97 3d 74 f7 97 bd
       -0.034019217 -0.07205738 0.07418177 -0.07420245
0002a0 22 40 b1 3d 03 c2 f6 bd e1 75 ce bd 33 95 9f 3d
       0.086548105 -0.120487235 -0.10081077 0.07792129
0002b0 fa fc 63 3d 20 24 e6 bc b0 01 a4 bd f7 15 12 bd
       0.05566118 -0.028093398 -0.08008134 -0.03566548
0002c0 18 b3 38 3d 85 0d 84 bd f0 0b 80 3c 24 ac b7 bd
       0.045092672 -0.06447891 0.015630692 -0.0896838
0002d0 90 8f 52 bd 42 b8 b6 3d 30 25 4e bd 10 f1 7c bc
       -0.051406443 0.08921863 -0.050328434 -0.015438333
0002e0 eb 77 ce bd 6c 0f 25 bd 78 21 45 bd 29 69 03 bd
       -0.10081466 -0.04029791 -0.04812762 -0.03208271
0002f0 93 26 05 3c 0c bd 6c bd d8 f7 77 3d d8 6b 11 bd
       0.008126873 -0.057797477 0.060539097 -0.03550324
000300 7b 21 f6 bd d0 e7 44 3d 08 8b cf 3c 74 09 f0 3d
       -0.12018105 0.048072636 0.02533485 0.11720553
000310 57 44 00 3e dd 76 be bd a0 37 cc 3c 44 0b e5 3d
       0.1252607 -0.09300015 0.024928868 0.11183789
000320 0c ac ee bd 6f bf de bc 8a 1b ef bd 24 a6 e7 3d
       -0.11653909 -0.027190892 -0.116751745 0.11310986
000330 5b fa 98 bd 84 08 e6 bd db 3d a2 3d 32 5d cf 3d
       -0.074696265 -0.11232093 0.07921954 0.101251975
000340 1f d9 e0 3d 25 78 a2 3b cb af 8a 3d 88 4b 67 3d
       0.109789126 0.00495817 0.06771811 0.056468517
000350 43 46 80 bc c2 6b 8c bd 04 9f 4e bd 44 19 a4 bd
       -0.015658503 -0.06856491 -0.050444618 -0.080126315
000360 e4 ac dd 3d a8 0f ec 3d 42 84 80 3d 66 07 83 bd
       0.10823992 0.11526424 0.06275226 -0.063978955
000370 ee b4 85 3d 15 b4 9a 3d 9a de e5 bd d0 e2 96 bd
       0.0652865 0.07553879 -0.112240985 -0.0736748
000380 12 0c f8 bd ce a8 fd bd 87 c5 c1 3d aa 2e 90 bb
       -0.12111677 -0.123857126 0.094615035 -0.004400094
000390 18 ed ce 3d 90 6d 4f bd 1d 97 c6 bd 14 83 80 3d
       0.10103816 -0.050641596 -0.09696791 0.06275001
0003a0 3c 08 73 3c 52 5c 6c 3c ed 2b 62 bd 5f 2a 04 3d
       0.014833506 0.014426308 -0.055217672 0.03226697
0003b0 c8 f2 ed 3c 1b 37 de 3d 9c 21 c0 bd 01 43 8a bb
       0.029046431 0.10850354 -0.093814105 -0.0042194133
0003c0 42 2d ce 3d 26 ad 32 bd 00 69 5c bd 16 c2 0e 3b
       0.10067226 -0.04362216 -0.053811073 0.0021783165
0003d0 4c 63 54 3d 30 8b 08 3c 40 fa e1 bb ea 4d 76 3d
       0.05185251 0.008333966 -0.006896287 0.0601329
0003e0 6c d8 ea 3d 4a 14 5f bd 42 1a 94 3d 7b 6a db bd
       0.114670604 -0.05446271 0.07231571 -0.10713669
0003f0 2b 6e b5 bd 46 e0 ab 3d 34 74 4d 3d 78 a3 22 bd
       -0.088589035 0.08392386 0.050159648 -0.039706677

fc2.bias f4 [64]
000000 08 26 86 bc 28 c3 b8 bc 78 4f 29 bd c8 83 97 bd
       -0.016375557 -0.022553995 -0.041335553 -0.07398182
000010 9e 68 17 bd ae 22 51 bd c8 07 09 3d 5b e4 c3 3d
       -0.036965005 -0.051058464 0.033454686 0.0956504
000020 d4 00 3c bd c2 3e e3 bd fc bc d3 bd c8 90 e8 3d
       -0.045899227 -0.110959545 -0.1033878 0.1135574
000030 98 54 8a bc 40 75 6e bd a0 62 fb bc 8a 9c 81 bd
       -0.01688604 -0.058217287 -0.030686677 -0.063286856
000040 d4 f3 5f bd 8f 1d 5f 3b af e0 dc 3c df 7e f9 bd
       -0.054675892 0.0034044718 0.026962606 -0.12182402
000050 6a c0 6b 3d 87 5f e4 3d 52 b4 68 3d 8c 52 ae 3d
       0.057556547 0.11151033 0.05681259 0.08511838
000060 05 58 1c bd 4f 4e 8a 3d 80 0b 62 3b 18 92 24 3c
       -0.03816988 0.067532174 0.0034491718 0.010044597
000070 4d e9 49 3d f2 4b 18 3b aa fd 85 bc ac 70 a8 bd
       0.04929476 0.0023238626 -0.016356308 -0.082246155
000080 e8 9c 4c bd 4d 02 ea 3d 7e 6e bb 3d a8 5b 4e bd
       -0.049954325 0.1142622 0.09151934 -0.05038038
000090 00 86 6f 3c 3c 7a 9f 3d 01 5d c5 3d b6 d1 de bd
       0.01461935 0.07786986 0.0963688 -0.10879843
0000a0 80 5f 87 3c d9 b0 95 3d 0c 22 f9 3d f8 ce c6 bd
       0.01652503 0.07309122 0.12164697 -0.09707445
0000b0 b5 59 64 3d 45 92 72 3d d1 80 ea bc a8 aa ab bd
       0.055749614 0.059221525 -0.028625878 -0.083821595
0000c0 28 e0 8e bd 70 ba 3f bd 08 66 84 bd db 49 b2 bd
       -0.06976348 -0.04680866 -0.064647734 -0.08705493
0000d0 44 ef 9b 3d 5a 57 9c bd 8d a1 4e bd 7c 6c a4 3c
       0.07613996 -0.076338485 -0.050447036 0.02007126
0000e0 dc d5 c2 bd a0 e6 90 3c bd b3 a6 3c 9d 57 be 3c
       -0.09513447 0.017688096 0.020349378 0.023235137
0000f0 47 b5 f2 3d f4 86 1c 3d ea 97 06 bd 91 d2 23 bd
       0.11850982 0.03821464 -0.03285972 -0.039995734

fc3.weight f4 [1, 64]
000000 de a7 9e 3d 00 6f 53 3d 8e f2 aa bc b3 6c 76 bd
       0.07746862 0.05161953 -0.020867612 -0.060162257
000010 82 f3 7d bc 8d f8 ee 3d d8 ec c8 3d 84 a4 90 3d
       -0.015499951 0.11668501 0.09810799 0.07062629
000020 e8 0f ab 3c d3 56 8e 3d 2d ee bc bc e3 13 2e 3d
       0.020881608 0.06950154 -0.02306279 0.042499434
000030 4a 8b f5 3d 36 f9 1f bd 70 1a 73 3c 34 f2 da 3c
       0.11989458 -0.039056025 0.014837846 0.02672682
000040 81 64 51 bd b9 c8 6f 3d 00 5f de bc f8 4e 70 3d
       -0.05112124 0.058541033 -0.027144909 0.05866906
000050 7a 89 b5 bd e0 c1 dc 3c 15 6a 19 3c c6 0d 86 bd
       -0.08864112 0.026947916 0.009363671 -0.06545596
000060 24 48 b7 3c 3c 76 7f bd 14 fd af bd bd 65 7d 3c
       0.022373267 -0.062368616 -0.08593193 0.015466151
000070 53 67 05 bd 9e e2 7c 3c 45 b6 e8 3d 28 b7 c5 bd
       -0.03256924 0.015434889 0.1136289 -0.09654075
000080 4c 51 8c bd 39 50 c4 bd cb dc b8 3d 80 66 97 3a
       -0.06851444 -0.09585614 0.09026488 0.0011550933
000090 68 28 c0 3d 65 14 03 be 30 1e 9b bd 9a 5e 4d bd
       0.09382707 -0.12800749 -0.07574117 -0.050139047
0000a0 78 e7 b3 3c dc 5d 8a ba a2 bf f6 bd 28 99 db 3c
       0.021960959 -0.0010556537 -0.1204827 0.026806429
0000b0 bb 62 6b 3d d0 fb ee bd 99 8d bf bb 00 80 a0 bd
       0.057467204 -0.11669123 -0.005845737 -0.07836914
0000c0 92 ae 80 3c 2e 03 3d bd f8 fc be bc d2 af 02 3e
       0.015708242 -0.04614561 -0.023313984 0.12762383
0000d0 0e 04 e6 bd bf 36 a8 3d d7 aa b2 bd 63 e3 04 3d
       -0.11231242 0.08213567 -0.08723991 0.032443415
0000e0 6c 0a 57 3d 50 c4 ad bc fd e7 44 bd a7 f6 f4 3d
       0.052500173 -0.021211773 -0.048072804 0.11961108
0000f0 e9 c2 db 3d a4 6e d7 3d 30 44 06 bd 6d be 42 3d
       0.107305355 0.1051915 -0.032779872 0.047544885
