public/Data Sources/rubella_model.pth (torch, 20612 bytes, 5 tensors)

fc1.weight f4 [64, 3]
0	0x3f031d1e	0.51216304
1	0x3e6418e0	0.22275114
2	0x3e82d532	0.2555328
3	0x3f0a58cb	0.5404174
4	0x3ef1dd77	0.47239277
5	0x3ed7b001	0.42126468
6	0x3ee2fe50	0.4433465
7	0x3e0289fc	0.1274795
8	0x3cf3b3a0	0.029748738
9	0xbee7d66f	-0.45280787
10	0xbd9964c8	-0.074899256
11	0xbeb85cee	-0.360084
12	0xbe54de4c	-0.20787925
13	0x3df4d9e8	0.11955625
14	0xbedd4c77	-0.432224
15	0x3eb62833	0.35577545
16	0xbdd29a34	-0.10283318
17	0xbe35f5ed	-0.17769594
18	0x3cddf292	0.027093206
19	0x3eff28d8	0.4983585
20	0xbdb7bf52	-0.08972038
21	0xbdf1fd9f	-0.118159525
22	0x3e1a40c5	0.1506377
23	0x3c9093b8	0.017648563
24	0x3ee42432	0.44558865
25	0x3ea4f279	0.32216242
26	0xbe2a8fb0	-0.16656375
27	0x3ee854ee	0.45377296
28	0x3ee7f0dd	0.45300952
29	0x3eb3ad28	0.35093045
30	0xbf0e11ce	-0.5549592
31	0xbe5fb2a2	-0.21845487
32	0x3dc866e0	0.09785247
33	0xbeab17a6	-0.3341648
34	0xbdacddb8	-0.08440727
35	0x3e7e49fc	0.2483291
36	0x3ee579d6	0.44819516
37	0xbe0af33d	-0.1356935
38	0x3ef3ffaa	0.47655994
39	0x3e0d8066	0.13818511
40	0x3efa1afe	0.48848718
41	0xbe6d83a8	-0.23194754
42	0x3ef30ffd	0.47473136
43	0xbecfce0f	-0.40586898
44	0x3f136a1e	0.57583797
45	0xbd992930	-0.07478559
46	0xbdb60578	-0.08887762
47	0x3e51a1e4	0.20471913
48	0xbefb11c8	-0.49037004
49	0xbde166bc	-0.11005923
50	0xbd07c7d0	-0.03314954
51	0x3df4134b	0.11917742
52	0xbed55646	-0.41667384
53	0x3db35652	0.08756699
54	0x3eaba3a7	0.33523294
55	0xbe9e092d	-0.30866376
56	0x3dff53da	0.12467165
57	0x3e5fb490	0.21846223
58	0x3e61a584	0.22035795
59	0x3dd10490	0.10205948
60	0x3e29fb98	0.16599882
61	0x3f07ae46	0.53000295
62	0xbeeeb3a7	-0.4662144
63	0x3e624938	0.22098243
64	0x3e8e1974	0.27753794
65	0xbf044ac4	-0.51676583
66	0x3eaadf2a	0.33373386
67	0xbe674298	-0.22583997
68	0xbe7325b8	-0.23744857
69	0xbec3b5a2	-0.38224512
70	0xbea27a4e	-0.31733936
71	0x3ad52200	0.0016260743
72	0xbecf40b7	-0.4047906
73	0x3f12a1dc	0.5727823
74	0xbd43451f	-0.04767334
75	0xbde55673	-0.111981295
76	0x3ef20239	0.4726732
77	0x3e38c4ff	0.18043898
78	0x3eb7dd5b	0.35911068
79	0x3e290c39	0.16508569
80	0x3da870e0	0.08224654
81	0xbe67e09b	-0.22644274
82	0xbef92a0e	-0.48664898
83	0x3f10fba5	0.5663398
84	0x3ec7f4ec	0.39054048
85	0x3d818484	0.063241035
86	0xbe2ac7fa	-0.16677848
87	0xbf06270a	-0.5240332
88	0x3ddc672e	0.107618675
89	0x3e57c9a1	0.21073009
90	0x3e0792e0	0.13239622
91	0xbc81cb60	-0.015844047
92	0xbe9145cf	-0.28373572
93	0x3ed476b5	0.41496816
94	0xbe959621	-0.29216102
95	0x3ee33145	0.44373527
96	0xbe897059	-0.26843527
97	0xbf0a5edb	-0.5405099
98	0xbd4ec260	-0.05047834
99	0x3e168262	0.14698175
100	0xbe84fe17	-0.25975105
101	0x3f13acef	0.5768575
102	0x3f0ce4bb	0.55036515
103	0x3e89292b	0.2678922
104	0xbe722600	-0.23647308
105	0xbed30b5b	-0.412196
106	0x3f00516b	0.50124234
107	0xbf046c01	-0.517273
108	0x3e830e0d	0.25596657
109	0x3f11dab5	0.56974345
110	0x3ed27d06	0.4111101
111	0xbeb1c3ad	-0.347196
112	0x3d371490	0.044697344
113	0xbe0e5c5a	-0.13902417
114	0xbe4b38c7	-0.19845878
115	0x3dafd3b3	0.085853
116	0x3ebe92dc	0.3722142
117	0x3dc701d6	0.09717147
118	0x3d8ed10c	0.06973466
119	0x3dd47542	0.10373928
120	0xbf0ec6e5	-0.5577224
121	0xbe19c86d	-0.15017863
122	0x3df4289d	0.11921809
123	0x3e63671c	0.22207302
124	0x3eaa7c3e	0.33297914
125	0x3de62242	0.11237003
126	0xbe2d725b	-0.16938154
127	0x3eca940a	0.3956607
128	0xbef4d30f	-0.47817275
129	0x3e1968ba	0.14981356
130	0x3f0de2b6	0.5542406
131	0x3ea87846	0.3290426
132	0xbd7090a0	-0.058731675
133	0xbf07b1ce	-0.53005683
134	0xbd319b30	-0.04336089
135	0xbe104f2f	-0.14092706
136	0x3e8a5471	0.2701755
137	0x3d2a8a7c	0.041635975
138	0xbe04219e	-0.12903449
139	0x3ee38515	0.4443747
140	0xbc417012	-0.011806505
141	0xbeb5c465	-0.355014
142	0xbe5e7cb2	-0.21727255
143	0xbda57d06	-0.08080487
144	0xbeffc261	-0.49952987
145	0xbf08cd7d	-0.5343855
146	0xbeb2f2e7	-0.34950945
147	0x3efa9b1f	0.48946473
148	0x3f0a91bb	0.5412862
149	0x3e514ec6	0.20440206
150	0x3e98c81e	0.29840177
151	0xbebfc490	-0.37454653
152	0x3d6a93b0	0.057269752
153	0x3e1b80ad	0.15185805
154	0xbeb0c03d	-0.34521666
155	0xbec6c340	-0.3882084
156	0xbca28638	-0.019839391
157	0xbe87106c	-0.26379716
158	0x3e1a1125	0.15045603
159	0x3e75839e	0.23975989
160	0x3ece7933	0.40326843
161	0x3dad707d	0.08468721
162	0x3e90b278	0.2826116
163	0xbef99f75	-0.4875447
164	0x3f0ec085	0.5576251
165	0x3d7836d2	0.060599156
166	0xbeb24223	-0.34816083
167	0xbeea32b7	-0.45741817
168	0x3ec35d66	0.38157195
169	0xbed2cc42	-0.4117146
170	0xbe884b47	-0.26619932
171	0x3eaba6b3	0.3352562
172	0x3df74b13	0.12074866
173	0xbe7519bc	-0.23935598
174	0xbe37d56c	-0.17952508
175	0x3e84b24a	0.25917274
176	0x3e613764	0.21993786
177	0x3dd9f5f7	0.10642617
178	0x3f09cace	0.5382508
179	0x3f0a1086	0.5393146
180	0xbe80db6c	-0.25167406
181	0x3e54855c	0.20753998
182	0xbeec8b48	-0.46200013
183	0xbd975cba	-0.07390733
184	0xbe58ffa4	-0.21191269
185	0x3df8158c	0.12113485
186	0x3e980e3e	0.29698366
187	0x3f068ab2	0.5255538
188	0xbdd83b46	-0.105581805
189	0xbe91b0d6	-0.28455228
190	0xbd77423c	-0.0603659
191	0x3eab1af1	0.33418992

fc1.bias f4 [64]
0	0x3df590d4	0.119905144
1	0x3d5648fd	0.0523157
2	0xbefcad24	-0.49350846
3	0xbd106300	-0.035250664
4	0x3e1851a4	0.14874893
5	0x3e561262	0.2090545
6	0x3e30c7f0	0.1726377
7	0x3dd1562d	0.10221515
8	0xbe9912b9	-0.29897097
9	0x3efa588b	0.48895678
10	0xbef53478	-0.47891593
11	0xbf03a300	-0.51420593
12	0x3efb8beb	0.49130186
13	0x3e42b454	0.19014102
14	0x3d568b88	0.05237916
15	0xbea50c78	-0.32236075
16	0xbe9cf671	-0.3065677
17	0x3d97aa99	0.07405586
18	0x3ed285a9	0.411176
19	0xbebbbce2	-0.36667544
20	0xbeee0a2c	-0.46492136
21	0xbe731f7e	-0.23742482
22	0xbeeef943	-0.46674547
23	0xbebacbb4	-0.36483538
24	0xbbe9b92c	-0.00713267
25	0x3d199c3b	0.03750251
26	0xbb90274c	-0.004399216
27	0x3ee60734	0.4492737
28	0xbe36e241	-0.17859747
29	0x3decd68d	0.1156436
30	0xbf10f0ab	-0.5661723
31	0x3ebc4a1d	0.36775294
32	0xbda18490	-0.078866124
33	0x3d1c3d93	0.03814466
34	0x3e9bdc0d	0.30441323
35	0x3eb9f947	0.36322996
36	0x3e6e8f56	0.23296866
37	0xbe10ddb8	-0.14147079
38	0x3eab7ad9	0.33492163
39	0x3b92d0fd	0.0044804798
40	0x3ea0e681	0.3142586
41	0xbe4935f4	-0.19649488
42	0xbd752d3a	-0.059857585
43	0x3de5013c	0.11181876
44	0xbe8590a6	-0.2608692
45	0x3cf85e5a	0.030318428
46	0xbdf368f9	-0.11885256
47	0x3dfeb4e3	0.12436845
48	0xbf0efd82	-0.5585557
49	0xbe826468	-0.2546723
50	0xbeb2700b	-0.34851107
51	0xbe117574	-0.14204961
52	0xbdd2b639	-0.102886625
53	0xbe168c44	-0.14701945
54	0xbeb2a226	-0.34889334
55	0x3e4d5871	0.20053269
56	0xbdc71f23	-0.09722736
57	0x3ed8833d	0.42287627
58	0xbef19971	-0.4718738
59	0x3e938321	0.2881098
60	0xbe9827c2	-0.29717833
61	0x3dc4d6ec	0.096113056
62	0x3e1390c6	0.14410695
63	0xbdfd21ab	-0.12359937

fc2.weight f4 [64, 64]
0	0xbda6c22a	-0.081425026
1	0x3c63d0b3	0.013904738
2	0x3b18cb80	0.0023314655
3	0xbd738618	-0.059454054
4	0x3de2f1e4	0.11081293
5	0xbd331191	-0.043717925
6	0xbdd5b7c8	-0.10435444
7	0xbe033e3d	-0.12816711
8	0x3db4fa97	0.08836859
9	0xbcbf474c	-0.023349427
10	0x3d735ac4	0.059412733
11	0xbce339c0	-0.027737498
12	0xbd88e1bb	-0.0668368
13	0x3ddc83b4	0.10767308
14	0x3db48f4a	0.08816393
15	0xbcc96b78	-0.024587378
16	0xbd3e780c	-0.046501204
17	0x3de187d4	0.11012235
18	0xbcc9fe46	-0.02465738
19	0xbdd0230c	-0.10162935
20	0xbd40dc3c	-0.047085032
21	0xbd726c54	-0.05918534
22	0x3dbe15bc	0.09281489
23	0x3dd34632	0.10316123
24	0xbde6629b	-0.11249276
25	0x3dc6e8ac	0.097123474
26	0x3d881600	0.06644821
27	0xbc0a0837	-0.00842481
28	0x3ccad9be	0.02476203
29	0xbd125773	-0.03572793
30	0x3df6653a	0.12031026
31	0xbd6b1b33	-0.057398986
32	0xbd7a4fec	-0.061111376
33	0xbe0002ca	-0.12501064
34	0xbd2944c5	-0.04132535
35	0x3dafbf47	0.08581405
36	0x3dc8ac22	0.09798457
37	0xbdc04a96	-0.09389226
38	0x3dcac12d	0.099001266
39	0x3d624881	0.055244926
40	0x3c17ad75	0.009257664
41	0x3d5729a6	0.052529953
42	0x3db55b07	0.08855253
43	0x3d9112cb	0.070836626
44	0x3c78cdb0	0.0151857585
45	0x3d6f92a6	0.058489464
46	0x3d8b259c	0.06794283
47	0x3cbfec82	0.023428205
48	0x3d0740a0	0.033020616
49	0x3dc56ad1	0.09639514
50	0xbd9a5f3c	-0.07537696
51	0xbdb3a39b	-0.0877144
52	0xbd936f0f	-0.07198917
53	0xbc8dbe66	-0.017302703
54	0x3dcc765a	0.09983511
55	0x3c86010b	0.01635792
56	0xbcda1f40	-0.02662623
57	0xbd252c53	-0.040325474
58	0xbd80c62a	-0.06287797
59	0x3d149eb5	0.036284167
60	0x3d9b94c8	0.07596737
61	0x3b45440a	0.003010037
62	0x3d4eae54	0.05045922
63	0x3db14118	0.08654994
64	0x3d0b826c	0.034059927
65	0xbd5e0364	-0.054202452
66	0x3d9dd7e2	0.07707192
67	0x3dffcc06	0.12490086
68	0x3dff9cd8	0.124810874
69	0xbdab3a02	-0.083606735
70	0x3dd0e00a	0.10198982
71	0x3d85e54a	0.06537874
72	0xb9dbfe00	-0.0004196018
73	0x3d3fda08	0.04683879
74	0x3d9aa676	0.07551281
75	0x3de931ec	0.11386475
76	0x3d6617b4	0.05617495
77	0xbda00750	-0.07813895
78	0xbcb47838	-0.022029981
79	0x3ce21228	0.027596548
80	0xbd7297b8	-0.05922672
81	0xbc0c2910	-0.008554712
82	0xba383e00	-0.00070282817
83	0xbc883ce0	-0.01663059
84	0xbcd378a8	-0.02581437
85	0xbd252c6c	-0.040325567
86	0x3cbaa2d8	0.022782728
87	0x3de12bf0	0.109947085
88	0xbd5391b4	-0.051652625
89	0x3d63b328	0.05559078
90	0x3dd735c0	0.10508299
91	0xbdd2f716	-0.10301034
92	0xbdafd4b8	-0.08585495
93	0xbc943f58	-0.01809661
94	0x3dfd47be	0.12367199
95	0xbc53acf0	-0.0129196495
96	0x3db4b4ae	0.088235244
97	0x3da65b34	0.08122864
98	0xbcd08140	-0.025452256
99	0xbdd1c850	-0.10243285
100	0xbdd94040	-0.10607958
101	0x3caa73d8	0.020807192
102	0x3d6abaf8	0.057307214
103	0xbd232818	-0.03983316
104	0xbab07f80	-0.0013465732
105	0xbd61e544	-0.055150285
106	0x3d992656	0.07478015
107	0xbddc6866	-0.107621
108	0x3d93cb86	0.072165534
109	0xbcbcabe8	-0.02303119
110	0xbd46cae4	-0.048533335
111	0xbdb35f92	-0.08758463
112	0x3d9c2634	0.07624474
113	0xbda2ac0a	-0.0794297
114	0x3da7a018	0.08184832
115	0xbdcfd58a	-0.10148151
116	0x3da24e74	0.0792512
117	0xbd692794	-0.05692251
118	0xbcd43540	-0.025904298
119	0xbd7c4c24	-0.06159605
120	0xbcf4c418	-0.029878661
121	0xbcb42d00	-0.021994114
122	0xbd3db2c4	-0.046313062
123	0x3d5eea18	0.054422468
124	0x3db63590	0.08896935
125	0xbd7b3eb8	-0.06133911
126	0xbd368dcc	-0.04456882
127	0x3d05e15c	0.032685623
128	0xbc7c6a7c	-0.015406247
129	0xbc16b1da	-0.009197677
130	0x3dbb3800	0.091415405
131	0xbdca0c1e	-0.098655924
132	0x3dab6ae9	0.08370001
133	0xbd9de931	-0.07710493
134	0x3d2a5c11	0.041591708
135	0x3dad4621	0.08460642
136	0xbca9b490	-0.020715982
137	0xbd9b385c	-0.07579109
138	0xbda07796	-0.07835309
139	0xbcdbab28	-0.026815012
140	0x3cf102fd	0.02942037
141	0xbd433649	-0.047659192
142	0x3ddb9b16	0.1072294
143	0xbd5de554	-0.054173782
144	0x3dcdce4a	0.10049112
145	0xbd9d217e	-0.07672404
146	0xbdd813a6	-0.10550623
147	0xbbb681a0	-0.0055696517
148	0x3de84f0e	0.113432035
149	0xbd01e744	-0.031714693
150	0x3ceab188	0.028649107
151	0x3d979b44	0.074026614
152	0x3e01131f	0.1260495
153	0x3d552562	0.052037604
154	0xbdb29f4b	-0.08721789
155	0x3d750b34	0.059825137
156	0x3ca32a38	0.019917592
157	0xbd27f63f	-0.041006323
158	0x3dd5ead0	0.104451776
159	0x3d925073	0.07144251
160	0xbd9f230e	-0.07770358
161	0xbd787dff	-0.060667034
162	0x3d8e999f	0.06962895
163	0x3ddbff31	0.10742033
164	0xbd72dc5d	-0.059292186
165	0xbda04702	-0.07826044
166	0x3dc41273	0.095738314
167	0x3dbe7d20	0.093012094
168	0xbd056661	-0.03256834
169	0x3d15432c	0.036441013
170	0x3d9ed451	0.0775534
171	0x3dea8e09	0.11452872
172	0x3d873c0c	0.0660325
173	0xbcbaa28e	-0.02278259
174	0xbca6bff0	-0.020355195
175	0xbdd84863	-0.10560682
176	0x3d932f4e	0.07186757
177	0xbddb9430	-0.10721624
178	0xbd672f70	-0.056441724
179	0x3a9b8f00	0.0011868179
180	0xbdf525ba	-0.119700864
181	0x3d67d039	0.05659506
182	0xbda13dc8	-0.07873112
183	0xbdc676d3	-0.09690633
184	0x3d5f4b94	0.054515436
185	0xbd7ba90e	-0.06144052
186	0x3d0eb8f8	0.03484437
187	0x3dd5caa0	0.10439038
188	0x3d17d01c	0.037063703
189	0xbdced82f	-0.100998275
190	0xbde303a8	-0.11084682
191	0xbc315849	-0.0108242715
192	0x3d9426d7	0.072339706
193	0x3d7920eb	0.06082241
194	0xbc1c3520	-0.00953415
195	0xbd98b730	-0.07456815
196	0x3cba9ce7	0.022779895
197	0xbd8f307a	-0.06991668
198	0xbd26448e	-0.040592723
199	0xbd703c1f	-0.058651086
200	0xbc7a3c33	-0.015273142
201	0xbd15f014	-0.03660591
202	0x3df01038	0.117218435
203	0xbd702ddc	-0.058637485
204	0x3e031560	0.12801123
205	0xbd92951f	-0.07157349
206	0xbda2748b	-0.07932385
207	0xbc356490	-0.011071339
208	0xbce7c4d0	-0.02829209
209	0x3bae93d6	0.005327682
210	0x3dde9136	0.108675405
211	0xbc881e30	-0.016615957
212	0x3d157c40	0.036495447
213	0x3c1b9850	0.009496763
214	0x3d4b0b3c	0.04957126
215	0x3d3003f4	0.04297252
216	0xbd127dfc	-0.03576468
217	0xbc27ffd7	-0.010253868
218	0x3df34023	0.118774675
219	0xbd3e0225	-0.046388764
220	0xba2b5ace	-0.0006536663
221	0x3d8a1ed2	0.0674416
222	0xbc17ff00	-0.009277105
223	0x3de07803	0.109603904
224	0x3d6184f8	0.05505845
225	0x3d8444d0	0.064584374
226	0xbaf950d6	-0.0019021283
227	0xbddb2775	-0.10700885
228	0xbc39b1ad	-0.011333865
229	0x3dbba03a	0.0916142
230	0x3d335fcb	0.043792527
231	0xbdcb442a	-0.09925111
232	0x3de3afb6	0.111174986
233	0xbdad9e15	-0.084774174
234	0x3dc31938	0.095262945
235	0x3d721bd6	0.059108578
236	0x3db1dc02	0.08684541
237	0xbdd2d3ad	-0.1029428
238	0xbc9973e1	-0.018732013
239	0xbd1b6d4e	-0.037946038
240	0xbc9b45e0	-0.018954217
241	0xbcd9922f	-0.026558964
242	0x3cd28498	0.025697991
243	0x3d2b3a3e	0.04180359
244	0x3dc22f68	0.09481698
245	0xbda75356	-0.08170192
246	0xbd497b3f	-0.049189802
247	0xbd40b863	-0.047050845
248	0xbc568ad6	-0.0130946245
249	0x3dd81c01	0.10552216
250	0xbdc3e614	-0.09565368
251	0xbd287699	-0.04112873
252	0xbd3d9f90	-0.04629475
253	0xbd7dffe1	-0.062011603
254	0xbda04098	-0.0782482
255	0xbdf48e89	-0.11941249

fc2.bias f4 [64]
0	0x3c547f10	0.012969747
1	0x39b73600	0.00034944713
2	0xbcbdb014	-0.02315525
3	0xbd682da2	-0.056684144
4	0xbda5fed0	-0.08105242
5	0xbd9b3618	-0.07578677
6	0x3db2a65d	0.087231375
7	0xbddeea74	-0.10884562
8	0xbcf4a6ff	-0.029864786
9	0xbdfab6d6	-0.122419044
10	0xbdee0de5	-0.11623744
11	0x3de586bf	0.112073414
12	0x3d44042c	0.04785554
13	0xbdaf23c7	-0.08551746
14	0xbdacb7be	-0.084334835
15	0xbdf5e756	-0.120070145
16	0xbd51b228	-0.051195294
17	0x3de2829e	0.110600695
18	0xbde26ed9	-0.11056299
19	0xbcf3117b	-0.029671421
20	0xbd6aa987	-0.05729058
21	0xbd7eb544	-0.062184587
22	0xbdca1913	-0.09868064
23	0xbd16f9e9	-0.036859427
24	0xbdc9f391	-0.0986091
25	0xbd064fe9	-0.032791052
26	0xbd8c4994	-0.068499714
27	0x3de9f236	0.11423151
28	0x3d81855b	0.06324264
29	0x3d29d3e4	0.04146184
30	0x3cc40d8d	0.023932243
31	0x3c07b030	0.0082817525
32	0xbdcb1e01	-0.09917832
33	0xbdda51a6	-0.106601045
34	0xbde89328	-0.11356193
35	0xbdb2fe20	-0.08739877
36	0xbdd6f2e6	-0.10495548
37	0x3d2ec09c	0.042664155
38	0xbd2d4062	-0.04229773
39	0x3dcee102	0.101015106
40	0xbd9afa6e	-0.07567297
41	0x3d3822ce	0.044955067
42	0x3dd2d4b5	0.10294477
43	0xbba8fb40	-0.0051569045
44	0x3ae119fc	0.0017173882
45	0x3e00a796	0.12563929
46	0x3db33b2b	0.0875152
47	0xbde37cb4	-0.111077696
48	0x3de95a9c	0.113942355
49	0x3d283afc	0.041071877
50	0x3dc5f2e3	0.096654676
51	0x3b63f3b5	0.0034782712
52	0xbba01763	-0.0048856004
53	0xbda63244	-0.08115056
54	0x3d9dca27	0.07704573
55	0x3c8925c8	0.016741648
56	0x3dce2e07	0.10067373
57	0x3d8366d2	0.06416096
58	0xbd273391	-0.040820662
59	0xbcc56101	-0.024094107
60	0x3e00f232	0.1259239
61	0x3df21435	0.118202604
62	0xbd4ff334	-0.050769046
63	0x3d28747e	0.04112672

fc3.weight f4 [1, 64]
0	0x3cb43e27	0.022002293
1	0x3cacc430	0.021089643
2	0x3c242a61	0.01001987
3	0xbde06ec0	-0.10958624
4	0x3d6daecc	0.058028027
5	0x3da7e902	0.081987396
6	0x3cd5ca7a	0.026097525
7	0x3d342250	0.043978035
8	0x3ccd53e7	0.025064422
9	0x3ddf58a0	0.10905576
10	0xbd9ee1ec	-0.07757935
11	0xbd86688a	-0.06562908
12	0x3ce0be9b	0.027434638
13	0xbde89615	-0.11356751
14	0x3dbb35b2	0.09141101
15	0x3de67250	0.11252272
16	0x3cf63e18	0.030058905
17	0xbc9d8e1f	-0.019232808
18	0x3d4f5417	0.050617304
19	0x3d941acb	0.07231673
20	0x3d4a6b53	0.04941876
21	0x3d820262	0.06348111
22	0x3daef186	0.08542161
23	0xbc6237ba	-0.013807232
24	0x3cde76da	0.027156282
25	0x3de9405b	0.11389228
26	0x3dc4ab8e	0.09603034
27	0x3d6d6488	0.057957202
28	0x3a1d0277	0.0005989442
29	0x3bb31440	0.0054650605
30	0xbd9a9ead	-0.07549796
31	0x3df25f88	0.118346274
32	0x3cd6ce92	0.026221547
33	0xbc093db0	-0.008376524
34	0xbd8f918e	-0.07010184
35	0xbdb28c0a	-0.087181166
36	0x3d6e7d97	0.05822524
37	0xbc2c1800	-0.010503769
38	0xbc852490	-0.016252786
39	0xbd254538	-0.040349215
40	0x3d2635b5	0.040578563
41	0xbd82e2fb	-0.06390949
42	0xbd3e8405	-0.046512622
43	0x3db2ced2	0.08730854
44	0x3d25ed41	0.040509466
45	0xbdd31beb	-0.10308059
46	0x3cebfb6c	0.02880641
47	0x3da949a6	0.082660004
48	0x3dabc8f0	0.08387935
49	0xbdc41372	-0.095740214
50	0x3d1ce74c	0.03830652
51	0x3da7b064	0.08187941
52	0x3d70fb8f	0.058833655
53	0xbdf5a7b4	-0.119948775
54	0x3dea96f4	0.11454573
55	0x3ce1f933	0.027584648
56	0xbd60c3ec	-0.054874346
57	0xbcf8f44a	-0.030389924
58	0x3d835426	0.064125344
59	0x3d938ea5	0.07204942
60	0xbd8a2925	-0.06746129
61	0x3d42d120	0.04756272
62	0xbd61e6c8	-0.05515173
63	0xbdf1edb2	-0.11812915
