public/Data Sources/smallpox_model.pth (torch, 20622 bytes, 5 tensors)

fc1.weight f4 [64, 3]
000000 36 a7 08 be 26 1a 12 bf 37 67 0d 3f 80 d4 17 bd
       -0.13345036 -0.5707115 0.5523562 -0.03706789
000010 7e c4 aa be 64 99 72 be c0 ba b5 be d6 6a 02 3f
       -0.33353037 -0.23691326 -0.3549404 0.5094427
000020 b0 8d 0d bd 59 28 8a 3d 98 f0 0b 3f 97 3a aa 3e
       -0.03455895 0.06745977 0.5466399 0.33247826
000030 61 32 d6 be bd 75 8c be fe 1a 31 be df 7b d0 be
       -0.4183531 -0.27433577 -0.17295453 -0.40719506
000040 8a 80 c9 3e bd bd 71 bd 59 5f 1c be 8f ef ac 3e
       0.3935588 -0.05901884 -0.15270747 0.3377652
000050 3c 2d be 3e 03 ff 05 3f 1f 05 b3 3e 27 33 59 3d
       0.37143886 0.5234224 0.34964845 0.0530273
000060 0c ff 9e bc 97 35 c3 3e d0 76 a9 bd 29 dd de be
       -0.019408725 0.38126823 -0.08274615 -0.43528107
000070 a5 2a 1f 3d ec 72 c5 be 05 cd 07 bf ce 19 d2 3e
       0.03885903 -0.3856424 -0.5304721 0.41035312
000080 f3 35 01 bf bf cd 5d 3e b5 da 1c 3c da 62 f4 be
       -0.50472945 0.21660517 0.009573628 -0.47731668
000090 46 04 73 bd 06 24 0c bf e4 59 00 bf 36 52 9f 3e
       -0.059330247 -0.5474247 -0.5013716 0.3111741
0000a0 4a d1 de be d1 f9 12 bf d5 ee 01 bf 72 10 c7 3e
       -0.4351905 -0.5741244 -0.50755054 0.38879734
0000b0 58 f0 12 bf 82 f5 c4 3e 05 35 a6 be 90 e9 80 be
       -0.57397985 0.38468558 -0.32462326 -0.25178194
0000c0 98 d0 e0 3d d4 54 80 be 96 63 6f be 52 66 0b 3f
       0.10977286 -0.2506472 -0.23377833 0.54453003
0000d0 22 c8 fb be 46 75 0d bf 43 12 61 3e 5b fe 5f 3d
       -0.49176127 -0.5525707 0.21979623 0.05468593
0000e0 2c 04 0e 3f fa 9a 84 be 56 dd f7 be c6 35 cd 3e
       0.55475116 -0.25899488 -0.48411053 0.40080088
0000f0 ed 76 3d bd 20 6c 08 3e 85 83 05 3f 31 d7 d6 3e
       -0.046255995 0.13322496 0.5215381 0.41961053
000100 30 55 8e 3e 27 37 2b 3d 3b a0 4f 3e 41 60 b6 bd
       0.27799368 0.041800644 0.20275967 -0.08905078
000110 32 86 0b be f1 88 0a bd 0c 7d 61 bd 71 1b 62 3d
       -0.1362541 -0.033822004 -0.055050895 0.05520195
000120 4c b9 0e bf d0 b7 9d bd 51 73 be be 00 0a 91 be
       -0.5575149 -0.07701075 -0.37197354 -0.28327942
000130 d7 1b 0c bf 28 45 e4 3d 4d 63 a4 be 44 66 6c 3e
       -0.5472998 0.11146003 -0.3210701 0.23085886
000140 33 3c 04 3f 0b 90 06 3f e9 04 a7 be e4 75 83 3d
       0.51654357 0.5256354 -0.32620934 0.0641897
000150 88 44 11 be b2 7a 95 be b3 7b 0d 3f df ef 70 3d
       -0.14186299 -0.29195172 0.55266875 0.05882251
000160 cf 1d 04 3e 0d 04 cf 3e b0 43 a0 3d e4 6b b2 3e
       0.12901996 0.40432778 0.0782541 0.3484794
000170 b0 9a 8e be a0 26 80 3e f1 c3 db 3e 9b b5 5c be
       -0.27852392 0.2502947 0.4292293 -0.21553652
000180 ca b1 0f be ea 9e 79 be 36 dc 0b 3f 15 97 05 3f
       -0.14032665 -0.24377027 0.5463289 0.5218366
000190 8c 20 07 bf 45 3e ae 3e e6 07 a7 3e e5 8f e2 be
       -0.5278404 0.34031883 0.32623214 -0.44250408
0001a0 63 db c1 3e 77 e2 83 3d 0f 0f 98 bd a5 9b d8 3e
       0.3786269 0.06439679 -0.07424747 0.42306247
0001b0 fa 4b b6 3e b5 65 b2 bd 49 b4 c1 be 6e 6d a8 3e
       0.3560484 -0.08710805 -0.3783286 0.32895988
0001c0 c6 e1 04 3e 4c 58 ff 3e 85 b2 0b 3f 0c d5 5b 3d
       0.1297675 0.49872053 0.54569274 0.053669974
0001d0 78 07 1e bd ea 1b d2 be 44 65 82 be b2 e9 2c be
       -0.03858134 -0.41036922 -0.25467885 -0.16886023
0001e0 28 1c 60 3e 34 c8 0b 3f 2e f4 82 3e b7 a5 f1 bd
       0.21885741 0.5460236 0.2557692 -0.11799186
0001f0 eb 59 00 3f b7 78 fe be 00 9b 92 bc 66 33 c9 3e
       0.50137204 -0.49701473 -0.017896175 0.39297026
000200 8c 0d 7c 3e d5 0e 05 3f 82 b7 b5 3e 02 57 03 bf
       0.24614543 0.51975757 0.35491568 -0.5130464
000210 d9 bb f3 be 55 56 b4 be c6 d2 ae 3c 70 ff 7d 3e
       -0.47604254 -0.35222116 0.021340739 0.24804473
000220 bf 63 c9 be ad 2a 93 be d1 fe d2 be 1e e4 96 3e
       -0.39333913 -0.28743497 -0.41210034 0.29470915
000230 08 70 e4 3e 8e 0f 11 3e 81 e4 bd be 76 a4 f9 3e
       0.44616723 0.1416609 -0.37088397 0.48758286
000240 b0 76 a4 3e e0 4f c3 bd 80 54 e3 3c fc 83 56 be
       0.321218 -0.09536719 0.027750254 -0.20948786
000250 be eb b6 be 06 1f 0c bf c2 6e 03 bf 39 e7 ca 3e
       -0.35726732 -0.5473484 -0.5134088 0.39629534
000260 1a bb b6 3e 54 5e 6d be 3c 46 84 be 0e 70 5c be
       0.35689622 -0.23180515 -0.25834835 -0.2152712
000270 64 38 94 3e dd 6b 1c 3e 1a fd b0 3e 78 be e1 3e
       0.28949273 0.15275522 0.345681 0.4409063
000280 55 0a 3d bc 2c 95 6e 3e 0a 31 e6 be da b2 cd be
       -0.011538108 0.23299092 -0.4495929 -0.40175515
000290 50 de 31 be 2a 09 86 be c4 34 8b be 5d 83 8a be
       -0.17369962 -0.26178867 -0.27188694 -0.27053347
0002a0 d2 aa bc 3e 3c 66 a6 3d 82 40 06 3f 7c 37 cb bd
       0.36849076 0.081249684 0.5244218 -0.09922692
0002b0 08 ed 83 3e 24 08 b2 bd 5c f5 5d be 78 0d fa 3e
       0.25766778 -0.08692959 -0.21675628 0.488384
0002c0 88 3c c8 3e 6d 06 bd 3e d8 c5 d7 be 28 d4 07 3e
       0.39108682 0.36918965 -0.4214313 0.13264525
0002d0 35 8c 0b 3e 1d df 68 3d be 99 03 bf 00 50 df 3b
       0.13627703 0.056853402 -0.51406467 0.0068149567
0002e0 6e eb 30 be fc da e8 bd b0 af 41 3e 78 c9 0a be
       -0.1727731 -0.11369893 0.18914676 -0.13553417
0002f0 5c 8c 48 3e fc fb 8b be 05 28 ef 3e 7b fc d2 be
       0.19584793 -0.27340686 0.4671022 -0.41208252

fc1.bias f4 [64]
000000 d0 08 03 be 26 94 9e be 97 ce a2 be db 5b 75 3e
       -0.1279633 -0.30972403 -0.3179824 0.23960821
000010 dc 48 c4 3d 11 b1 8a 3d 32 60 69 3d bf 3d ec be
       0.09584209 0.06772054 0.056976505 -0.4614086
000020 ad cf bc 3e 36 e9 f2 3e 38 02 87 bd 55 23 3e 3e
       0.36877194 0.4744355 -0.0659222 0.18568166
000030 42 09 01 3f a5 c1 8a bd 20 e2 57 bd db 86 83 be
       0.5040475 -0.06775216 -0.052705884 -0.25688824
000040 be a9 12 bf 02 52 c9 3d 1d 12 12 3f ca f8 dd be
       -0.57290256 0.09830095 0.5705889 -0.43353873
000050 c2 72 c0 3e 3e 38 37 3d 6a 96 81 3d cc 98 e7 3e
       0.37587553 0.04473137 0.06327517 0.45233762
000060 d4 38 fc bd 2b c4 ea be ea 88 51 be 64 97 c6 bd
       -0.123155266 -0.4585279 -0.20462385 -0.09696844
000070 74 40 ac be 52 67 0f 3d 70 c0 d4 be 24 e5 76 be
       -0.33642924 0.035010643 -0.41553068 -0.24110848
000080 f7 25 5c be 67 d7 9f be f5 d2 1f bd b4 0b c4 3d
       -0.21498857 -0.31219026 -0.039019544 0.09572545
000090 ac 50 68 be 8a 86 23 bd 80 f6 fd 3e 23 25 de be
       -0.22687024 -0.03992323 0.49602127 -0.43387708
0000a0 9a 25 0b bf d5 60 20 bd d7 f6 0c bf da 77 78 3e
       -0.5435425 -0.039154846 -0.5506415 0.2426447
0000b0 98 e2 ca 3d d8 95 f2 be 75 0a e1 3e 70 e4 b0 3d
       0.099065006 -0.47379947 0.4395329 0.08637321
0000c0 95 dc c7 be 42 46 04 3f a1 b6 77 be 20 0b f3 bc
       -0.39035478 0.51669705 -0.24190761 -0.02966839
0000d0 d6 40 fc bc f5 db 86 be 17 1d 12 bf e1 0d a4 3e
       -0.030792635 -0.2633969 -0.5707564 0.3204184
0000e0 ee fc 7a 3e c9 3c e4 be da c8 3c be 8d 27 ef bd
       0.24510548 -0.44577625 -0.18435994 -0.116774656
0000f0 8a 6a 01 3f 60 5d 05 be d0 40 85 be e2 43 c3 3e
       0.5055319 -0.13023901 -0.2602601 0.38137728

fc2.weight f4 [64, 64]
000000 9b 9c 87 3d 80 6b 6f bd 56 1f b6 bd 37 3d fb 3c
       0.06621667 -0.05845213 -0.088926956 0.030668838
000010 b2 bc d7 bd 05 bf 52 bd df 58 63 bd 67 5f bc 3d
       -0.10534038 -0.0514517 -0.055504676 0.09197884
000020 2e ba 9e 3a 73 e8 61 bd b0 68 2b bd 8e 37 c1 3d
       0.0012109929 -0.05515332 -0.041847885 0.09434424
000030 7f 78 ea 3c 4f 95 38 bc 40 e4 52 bd d8 5f 3b bb
       0.02862191 -0.011266067 -0.051487207 -0.0028591063
000040 00 0c 62 bc 2c 7f f7 bc 98 2a f6 3b e8 fe 5a 3d
       -0.013796806 -0.030212007 0.007512402 0.053465754
000050 a7 67 12 bb 69 0d 8b 3c 65 c2 9f 3d 87 41 e7 3d
       -0.0022339614 0.016974168 0.0780075 0.11291795
000060 9c 77 4f bd 20 79 ac 3d f2 8b a8 bd 73 75 3d bd
       -0.050651178 0.0842154 -0.082298175 -0.046254586
000070 cc 85 bb bd 23 89 a5 3d a8 27 6e 3d 33 2a 9f 3c
       -0.09156379 0.080827974 0.058143288 0.019429302
000080 dc 6b 8d b9 1c a5 e4 3d 68 92 8d bd a2 e5 e6 3d
       -0.00026973977 0.111643046 -0.069126904 0.11274268
000090 6f 5e 87 bd dc 81 d8 bd 26 af de bc 0c 4d 56 3d
       -0.06609809 -0.10571644 -0.027183127 0.05231957
0000a0 e8 77 e2 bc 64 0d 87 bd 2c df a0 bd bb 0d b0 bb
       -0.027645066 -0.06594351 -0.07855067 -0.0053727305
0000b0 d6 18 86 3d c6 8c 93 3d 64 e0 67 bd d2 45 15 bd
       0.06547706 0.07204585 -0.05661048 -0.03644354
0000c0 0c 98 f4 3d 89 4b 2d bb ee 2a ed bd c8 27 76 3d
       0.11943063 -0.0026442728 -0.11580454 0.060096532
0000d0 5b b9 b7 3d 61 d4 95 3d b0 e2 a0 3c 02 fb d3 3d
       0.089709006 0.07315899 0.019639343 0.1035061
0000e0 ef 94 5e 3d d6 99 df bd 7b 01 88 bc 46 ff 52 3d
       0.054341253 -0.10918014 -0.016602268 0.05151298
0000f0 db 91 1a bd c4 4b 84 bd 98 39 36 bd 7f 8c 48 bd
       -0.037736755 -0.06459764 -0.04448852 -0.048962113
000100 d8 cb de bc b8 ed e4 bc 90 f7 34 bd 65 18 24 bd
       -0.02719681 -0.027945384 -0.044181406 -0.040062327
000110 88 4a b3 bd c4 92 aa bd 65 bf d0 3d 42 93 e8 bd
       -0.0875445 -0.083287746 0.101927556 -0.11356212
000120 56 ee c3 bd f9 15 bf bd 9e 01 e4 bd 65 2b e8 3d
       -0.09566943 -0.09330363 -0.11133121 0.11336402
000130 de 19 be bd 41 0e 03 3e a6 43 f7 bd 9f 18 f6 bd
       -0.092822775 0.12798406 -0.1207345 -0.12016415
000140 7e f5 92 3d 90 e7 41 bd 41 a2 d9 3b 2a e9 fa bd
       0.0717573 -0.047339976 0.0066416566 -0.12251504
000150 14 aa ae 3c 91 9c 96 bd 17 8b e3 bd ae 5c b8 3d
       0.021321334 -0.073540814 -0.11110514 0.09002052
000160 c8 de 8e bc 00 b1 5e bc e0 35 4f bd 62 e6 ff 3d
       -0.017440215 -0.013592005 -0.05058849 0.12495114
000170 a4 fb 95 bd 12 1c a6 bd f6 88 fd 3d cd 4e a1 bd
       -0.07323387 -0.08110823 0.12379639 -0.07876358
000180 92 ea 9a 3d 54 a9 5b 3d c0 3f ee 3d 6d 36 7f bd
       0.07564272 0.05362828 0.11633253 -0.062307764
000190 33 56 d7 bd 48 10 a4 bc 74 85 f2 3d dc 7e 9c bd
       -0.10514488 -0.020027295 0.118418604 -0.07641384
0001a0 00 d0 8d bd c2 b4 cd 3d 4e c9 92 bd 17 ca d5 bd
       -0.069244385 0.100442424 -0.07167302 -0.10438936
0001b0 56 9e 88 bd f0 2a 96 3c cb bd eb bd 68 dd f0 bd
       -0.06670825 0.018331021 -0.115108095 -0.1176098
0001c0 c0 34 8c bd 92 ca 1d 3c 70 8c 01 bd d8 8b f5 bd
       -0.06845999 0.009630816 -0.031628072 -0.11989564
0001d0 f0 9b e4 3d 91 e4 0d bd 1a 91 e4 3d 49 e2 f2 bd
       0.11162555 -0.034641806 0.111604884 -0.11859567
0001e0 31 ca 63 3d d2 12 ec 3d 00 93 2d 3a ca 72 a0 3d
       0.055612747 0.11527027 0.0006621331 0.07834394
0001f0 72 82 8c 3d 36 5b f3 bd e2 64 81 3d db 5e 84 3d
       0.06860818 -0.118826315 0.0631807 0.06463405
000200 60 8e 7d 3c 80 01 e4 3a 22 7e c9 bd e8 76 ed bc
       0.015475839 0.0017395467 -0.09838511 -0.028987363
000210 a8 b3 bd 3c 42 55 d2 3d 3e b9 b2 3d 9e 6d fa bd
       0.023156956 0.10270168 0.087267384 -0.12227939
000220 f4 48 9b bd 20 50 f1 3c 8e 2a c5 3d 50 f6 6e bc
       -0.07582274 0.029457152 0.09627257 -0.014585093
000230 86 3a ff 3d d2 fa ae 3d f4 d4 48 bd 50 39 80 3d
       0.12462334 0.08543934 -0.049031213 0.062609315
000240 90 d6 99 3c 7c 9e cc 3d 06 65 8b bd 10 fc 34 bc
       0.01877907 0.09991166 -0.06806378 -0.0110464245
000250 ba 8f c6 bd 16 7f f6 bd 3e 29 b2 bd 88 39 1a bd
       -0.096953824 -0.120359585 -0.086992726 -0.037652522
000260 f0 7b 75 bd f4 47 00 3d 0c 4f f9 bd 10 81 63 bd
       -0.05993265 0.03131862 -0.1217328 -0.055543005
000270 c6 3a b4 3d 6a 4e bf 3d 32 0e f9 bd c0 58 d0 bd
       0.08800273 0.09341128 -0.12160911 -0.10173178
000280 50 ba 0f 3c c4 7a ba 3d d8 6e 27 bd c4 ba 9c bd
       0.008772448 0.09105447 -0.040877193 -0.0765281
000290 88 9e 2d bd e0 51 57 3c e4 85 34 3d 84 5a bf bd
       -0.042387515 0.013142079 0.044073 -0.09343436
0002a0 9e 63 9d 3d a4 41 10 bd 88 a3 6f bd 18 74 f6 bd
       0.07685016 -0.03521885 -0.058505565 -0.12033862
0002b0 d0 c2 1f 3d 8c a9 ef 3d 60 f1 12 3c 10 58 18 bc
       0.039004147 0.117022604 0.008968681 -0.0092983395
0002c0 68 ed 5e 3d 00 dc 47 bd 10 54 68 bd 28 a4 10 bd
       0.054425627 -0.048793793 -0.056720793 -0.0353128
0002d0 7e a1 e0 3d 48 82 06 bd 14 e6 71 3d 84 38 66 bd
       0.10968302 -0.03283909 0.05905731 -0.05620624
0002e0 a0 ff 12 bc 82 79 b6 bd 48 d8 ff bc ba f6 e4 bd
       -0.008972079 -0.089098945 -0.03123106 -0.11179872
0002f0 58 09 ff 3c ac b7 6a 3d ca 12 f8 bd 60 d3 4a 3c
       0.031132385 0.05730407 -0.12112959 0.012379497
000300 f0 62 28 3d 80 37 83 3b 74 c3 5f 3d f0 2d d9 3d
       0.04110998 0.004004419 0.054629758 0.10604465
000310 84 53 be bd 1a 4c d8 3d a0 72 bd bc 28 79 c3 bd
       -0.09293273 0.1056139 -0.023125947 -0.09544593
000320 fc 2f 13 bd 5e 2a ff 3d 68 8a c5 bd ec 52 3f 3d
       -0.035934433 0.12459253 -0.096455395 0.04670994
000330 cc 83 f9 3d c0 2b 24 bb 68 eb c5 bc 16 55 af 3d
       0.121833414 -0.002505049 -0.024160102 0.08561151
000340 16 35 bc 3d 20 e0 6a bd d4 1a 54 bd 66 fd b8 3d
       0.09189813 -0.05734265 -0.051783398 0.09032707
000350 78 1f 6b 3d f8 26 9e bd 50 3d 2e bd f0 c0 4e bd
       0.057403058 -0.077222764 -0.04253894 -0.05047697
000360 4c 12 38 3d fc d9 04 bd d4 f9 44 bd 80 f4 0f 3c
       0.044939324 -0.03243445 -0.048089817 0.008786321
000370 20 91 c8 3b cc a4 b9 bd 48 9e 9e 3c 78 6d e7 3c
       0.006120816 -0.09064636 0.019362584 0.028250441
000380 74 9b 5a bd 00 b3 99 bb 00 d6 f4 b9 52 80 cf bd
       -0.053370908 -0.004690528 -0.0004669875 -0.10131897
000390 00 74 5b 3c 1c b5 d1 bd 00 5c e7 b9 10 6f 57 bd
       0.013394356 -0.10239622 -0.000441283 -0.05259615
0003a0 94 08 51 bd d8 8d f7 3c c4 df ce 3d da c7 90 bd
       -0.05103357 0.030219004 0.10101274 -0.07069369
0003b0 e0 8f 5f 3c e8 ef cf bc 74 34 3a bd e4 d9 12 3d
       0.013645142 -0.02538295 -0.04546018 0.035852328
0003c0 44 81 8e 3d 28 fc 56 bd 26 f9 d3 bd d8 94 ac 3c
       0.06958249 -0.05248657 -0.10350256 0.021067068
0003d0 ea 86 d2 bd 9c fb 1b bd b0 f6 49 bd 30 6d 43 bd
       -0.10279639 -0.03808175 -0.049307525 -0.04771155
0003e0 38 cf ba bd 34 33 7f bd 94 f8 01 3d b8 97 d5 3c
       -0.09121555 -0.06230469 0.031731203 0.026073322
0003f0 78 d5 63 3d 30 12 b8 bd 38 9e 95 bc d4 b6 2d 3d
       0.0556235 -0.08987844 -0.018263921 0.042410687

fc2.bias f4 [64]
000000 81 e6 49 bd 76 47 e3 bb 00 f0 6c b8 d8 ff 4e bd
       -0.04929209 -0.006936009 -5.6490302e-05 -0.05053696
000010 ba e0 39 bc b3 70 b6 bc d6 8c 85 3b b0 95 81 bd
       -0.011345083 -0.022270536 0.004075627 -0.06327379
000020 f8 90 31 3d 50 1b ad bd 7c 3f 8d 3c e3 bd ca 3d
       0.043351144 -0.08452475 0.017242186 0.09899499
000030 07 e2 f3 bc 2e 5b 01 be 9c ba b7 bd 76 73 80 bd
       -0.029770864 -0.12632439 -0.0897114 -0.062720224
000040 a5 87 83 3d 78 b1 85 bd cc 26 c2 bd d1 36 ad bc
       0.064223565 -0.0652799 -0.09480056 -0.021144303
000050 2a 18 ec 3d a9 56 98 bd c1 62 81 3d 69 0c a0 bc
       0.115280464 -0.07438404 0.06317664 -0.019537168
000060 f8 c2 f3 bd a7 58 b8 bd 15 98 f0 bd dc fe 26 3d
       -0.11902422 -0.09001284 -0.11747757 0.040770397
000070 c8 19 ae bd 3f 80 9f 3d c8 b7 de bc bb f2 a7 bd
       -0.08501011 0.07788133 -0.027187243 -0.08200594
000080 f0 94 a1 3d 2a 41 80 bc dc 25 51 bd f4 bb bc bd
       0.07889736 -0.015656073 -0.051061496 -0.09215537
000090 24 4b f5 bd 68 dc 8d bd 84 ed d5 bd 73 3b 94 bd
       -0.119772226 -0.06926805 -0.10445693 -0.072379015
0000a0 88 b1 d6 3d 96 81 97 3c 45 e7 6a bd c7 1e 14 3d
       0.1048308 0.018494409 -0.057349462 0.036162164
0000b0 46 47 99 bd 38 2e dd bd 94 b0 0f bd 43 d9 d2 ba
       -0.074842975 -0.10799831 -0.035080507 -0.0016086478
0000c0 8e a2 cf 3d 2d 98 d1 3d a7 17 8a bd f2 63 d8 bd
       0.10138427 0.10234103 -0.067427926 -0.10565938
0000d0 90 9e 2b 3d 62 3a c7 3d 50 ac 66 bc 20 ca f4 bb
       0.041899264 0.097279325 -0.014079168 -0.0074703842
0000e0 18 c9 35 3d 3f 27 8f 3c 05 ed 43 3c 71 d2 87 bd
       0.04438123 0.017474769 0.011958365 -0.066319354
0000f0 33 03 a8 bc a7 4e 4a 3a bf 98 6b 3d d4 f2 b2 bd
       -0.020509338 0.00077174086 0.057518717 -0.08737722

fc3.weight f4 [1, 64]
000000 e2 10 16 bd 7e 95 79 bd 00 b8 a0 b8 6c 64 9a 3d
       -0.036637194 -0.060933582 -7.663667e-05 0.07538685
000010 1f 48 f8 bd c1 92 af 3c e2 f3 0c bd 10 81 43 bd
       -0.12123131 0.021432282 -0.034412272 -0.047730505
000020 f0 ff 0b 3c d0 44 89 bd bb a4 fb bd c3 7a af 3d
       0.008544907 -0.06702578 -0.12287279 0.08568337
000030 39 ee c8 3d e9 75 98 bc c8 4b 71 3d 70 33 37 bd
       0.09811062 -0.018610911 0.05891016 -0.04472679
000040 bc c7 b3 ba 61 4d 17 3b 58 d0 5c 3d 71 4a dc 3d
       -0.0013716142 0.0023086893 0.05390963 0.10756386
000050 30 d6 20 bc da 1f 8e 3d 1b ae 05 3c 2f 09 bb ba
       -0.009816691 0.06939669 0.008159186 -0.0014269705
000060 e3 6b 9c 3d 5a 85 7f bd c5 2f bb 3d 5c d5 94 bd
       0.07637765 -0.062383033 0.09139971 -0.072672576
000070 54 c1 b7 bd 6d 30 b3 3d a1 bd 6e bd 9b 02 39 3d
       -0.08972421 0.08749471 -0.058286313 0.0451685
000080 68 aa e9 bd 0a 94 87 3c 1a ab 46 bd af 35 c9 bd
       -0.114094555 0.016550083 -0.04850302 -0.098246925
000090 30 53 96 3c dc d8 8e bd f8 fe fc 3d c5 11 56 3d
       0.018350214 -0.069749564 0.12353319 0.05226304
0000a0 d4 bb a9 3d 14 36 e4 3c 50 01 83 3d 2e 40 01 3d
       0.082877785 0.027857818 0.06396735 0.031555347
0000b0 2a eb c4 bd 40 72 c9 bd 44 ef e3 bd f6 3d de 3d
       -0.096151665 -0.098362446 -0.11129621 0.10851662
0000c0 dd 9f 2b bc 00 ce 1c bb 48 e0 ee bd 1c 76 1b 3d
       -0.010475126 -0.0023926497 -0.11663872 0.037954435
0000d0 d0 c1 4f bc b0 6e c6 3d 38 62 14 bd 6c a7 97 bd
       -0.012680486 0.09689081 -0.03622648 -0.0740498
0000e0 a8 a9 b2 bd f1 23 01 3c 22 0c 11 3d e0 e8 06 3d
       -0.087237656 0.007882104 0.03541196 0.03293693
0000f0 a0 36 db bd a8 6a 16 bd 12 61 9a bd 36 d7 9d bc
       -0.10703778 -0.03672281 -0.07538046 -0.01926766
