public/Data Sources/smallpox_model.pth (torch, 20366 bytes, 5 tensors)

fc1.weight f4 [64, 2]
0	0xbed88518	-0.42289042
1	0xbd0c01c0	-0.034181356
2	0x3ea19d14	0.31565154
3	0xbddb4bd9	-0.10707826
4	0x3e23bb16	0.15989336
5	0xbef5e281	-0.4802437
6	0x3f1985a0	0.5996952
7	0xbeffa82d	-0.49932995
8	0xbd065950	-0.03280002
9	0xbd6a38b0	-0.057182968
10	0x3ddd21e4	0.1079748
11	0xbea4fd26	-0.32224387
12	0xbf056b2c	-0.52116656
13	0x3f2b97f5	0.67028743
14	0xbea8932e	-0.3292479
15	0x3dfd9238	0.12381405
16	0x3f2fe17f	0.68703455
17	0x3ef56cfd	0.47934714
18	0x3f1d2772	0.61388314
19	0x3d29c2fb	0.041445713
20	0xbe897df7	-0.26853916
21	0xbc24e600	-0.010064602
22	0xbf02ba78	-0.5106578
23	0x3df51bd8	0.119682014
24	0xbef6e810	-0.48223925
25	0x3e97922e	0.29603714
26	0x3cc07a63	0.023495859
27	0xbf2bcbb4	-0.671077
28	0x3e1ddaa2	0.15415433
29	0x3f0e7895	0.55652744
30	0x3ed191ee	0.40931648
31	0x3f1a99d9	0.60391
32	0x3ee6ecac	0.4510244
33	0x3eb3e67d	0.35136786
34	0xbea85b24	-0.32882035
35	0x3ed40b32	0.4141479
36	0xbe889361	-0.2667494
37	0x3e22303c	0.15838712
38	0xbf112dbf	-0.5671043
39	0x3d035e30	0.032072246
40	0xbecd40a1	-0.4008837
41	0xbf04846d	-0.51764566
42	0xbef02c10	-0.46908617
43	0xbf08eacf	-0.5348329
44	0x3ba41180	0.005006969
45	0x3eb00f7e	0.3438682
46	0xbe56c456	-0.20973334
47	0xbedcc667	-0.4312012
48	0xbee28e64	-0.4424926
49	0x3d02c6c0	0.031927824
50	0xbec19413	-0.37808284
51	0x3e9d097e	0.30671304
52	0xbf103755	-0.5633443
53	0x3e83bafc	0.25728595
54	0x3f188aa2	0.59586537
55	0xbed97315	-0.42470613
56	0x3e8bdabc	0.2731532
57	0xbf1a55ac	-0.60286975
58	0xbdc69bd8	-0.096976936
59	0xbde661f8	-0.11249155
60	0xbe74fe2a	-0.23925081
61	0xbeb8cb3c	-0.36092556
62	0x3e392c16	0.18083224
63	0xbe5a7335	-0.2133301
64	0x3f0172ad	0.50565606
65	0x3f152b5d	0.5826929
66	0x3d72514c	0.059159562
67	0x3f34e5ed	0.7066334
68	0xbef69b44	-0.48165333
69	0x3ee6c122	0.45069224
70	0x3ee6a1eb	0.4504541
71	0x3f187207	0.5954899
72	0xbf078970	-0.5294409
73	0x3f349625	0.705416
74	0x3e76cb64	0.24101025
75	0xbf2299c8	-0.635159
76	0xbf0b0b31	-0.5431395
77	0xbe968f60	-0.2940626
78	0xbea4e898	-0.32208705
79	0x3c310300	0.010803938
80	0x3f2c98a7	0.6742043
81	0xbf11a025	-0.56884986
82	0xbeffd2fe	-0.49965662
83	0x3e19b5f0	0.1501081
84	0xbce653c0	-0.028116107
85	0x3eb2a692	0.34892708
86	0xbc282200	-0.0102620125
87	0xbeaa2211	-0.33229116
88	0xbf1e766c	-0.6189945
89	0xbef7ba76	-0.48384446
90	0xbeb3cb9d	-0.35116282
91	0xbe22c1c8	-0.15894234
92	0xbf0cc0e0	-0.54981804
93	0x3f277fb1	0.65429217
94	0xbefaafa4	-0.48962128
95	0x3dae4388	0.08508974
96	0xbec21bee	-0.37911934
97	0x3ea4562e	0.32097
98	0x3f331df7	0.699676
99	0x3e458115	0.19287522
100	0xbf07e3a0	-0.53081703
101	0x3f16ee77	0.5895762
102	0xbf055063	-0.52075785
103	0x3ed78606	0.4209444
104	0xbdb9f6f0	-0.09080303
105	0x3e694998	0.2278198
106	0xbc72f2c0	-0.014828384
107	0x3f28bebf	0.65916055
108	0xbeab5aa9	-0.33467606
109	0x3f257c19	0.64642483
110	0x3eae714d	0.34070817
111	0x3e31d128	0.17364943
112	0x3efcdede	0.49388784
113	0x3f2350bb	0.6379506
114	0x3ce28497	0.027651114
115	0x3ea68400	0.32522583
116	0xbf090f5a	-0.5353905
117	0xbe918df4	-0.28428614
118	0xbd7c0d80	-0.061536312
119	0x3eb7a4ae	0.35867828
120	0xbe4a2810	-0.19741845
121	0x3e1fcdb4	0.15605813
122	0x3f0f2ad9	0.55924755
123	0x3f3181be	0.69338596
124	0xbd2477b0	-0.040153205
125	0x3d9550a8	0.072907746
126	0xbec97ca8	-0.39352918
127	0xbde3adb8	-0.111171186

fc1.bias f4 [64]
0	0x3eca57ea	0.39520198
1	0x3f21abd6	0.63152826
2	0x3eefad4c	0.46811903
3	0x3ea25483	0.31705102
4	0xbf153c6e	-0.58295333
5	0x3eebefc4	0.46081364
6	0x3f20b02d	0.6276882
7	0x3f2fa407	0.6860966
8	0x3f19bf2b	0.60057324
9	0xbf17c41d	-0.5928362
10	0x3d8b90f8	0.0681476
11	0x3dfb1d18	0.122614086
12	0xbf0c5508	-0.5481725
13	0x3e7c8e2c	0.2466361
14	0xbe60edec	-0.2196576
15	0xbec4b1c2	-0.38416868
16	0xbe113a20	-0.14182329
17	0x3f0bf21f	0.5466632
18	0x3f19e205	0.60110503
19	0x3ec65236	0.38734597
20	0xbe846245	-0.25856224
21	0x3eebdbc6	0.4606611
22	0xbeec53ce	-0.46157688
23	0xbcb90320	-0.022584498
24	0xbef57f96	-0.47948903
25	0xbed18ca5	-0.40927616
26	0xbe8157cd	-0.252623
27	0x3edf07d8	0.43560672
28	0xbe06f4bb	-0.13179295
29	0xbdd0bcd0	-0.10192263
30	0x3d6d47d0	0.057929814
31	0x3ddf3297	0.10898321
32	0x3f046003	0.51709
33	0x3f351d69	0.70748
34	0xbe8e4c70	-0.27792692
35	0x3e67895d	0.22610994
36	0x3db116c0	0.08646917
37	0xbc4543f5	-0.012040128
38	0xbf0c3f87	-0.54784435
39	0xbd85ac60	-0.065270185
40	0x3f011c17	0.50433487
41	0xbe0c5d7c	-0.13707536
42	0xbf281cbc	-0.65668845
43	0x3ebd97ba	0.3702982
44	0xbe799e20	-0.24376726
45	0x3f097f51	0.53709894
46	0x3db2c678	0.08729261
47	0x3e3d1db4	0.18468362
48	0x3f138555	0.57625324
49	0x3f2e4206	0.68069494
50	0xbef9c96f	-0.48786494
51	0x3f30376b	0.6883456
52	0xbe996086	-0.29956454
53	0xbe990e2e	-0.2989363
54	0xbeac99d8	-0.33711123
55	0x3e8479d9	0.25874212
56	0xbf2f1562	-0.68392
57	0x3f21a9cd	0.6314972
58	0x3f26965d	0.65073186
59	0xbdc45da0	-0.0958817
60	0x3f2635e1	0.6492596
61	0xbeb10d74	-0.34580576
62	0x3ee9d8a2	0.4567309
63	0x3d587d10	0.052853644

fc2.weight f4 [64, 64]
0	0xbb9f6060	-0.0048637837
1	0x3de9f7b8	0.11424202
2	0xbdefe9e1	-0.11714531
3	0xbd431245	-0.047624845
4	0x3d4e383c	0.050346598
5	0x3cbd1be9	0.023084598
6	0x3d260e58	0.040541023
7	0xbd7ab564	-0.061208144
8	0x3de3db6f	0.11125838
9	0x3dba7b31	0.09105528
10	0xbd247a18	-0.0401555
11	0x3dc4589e	0.09587215
12	0xbdb3f922	-0.08787753
13	0x3c18a6ed	0.009317142
14	0x3d4db067	0.05021706
15	0x3cf45125	0.029823849
16	0x3d35eeb7	0.04441711
17	0xbd4da948	-0.050210267
18	0x3c0379c0	0.008024633
19	0xbd92639a	-0.07147904
20	0xbde971e2	-0.113986745
21	0xbcc6b288	-0.024255052
22	0x3ba47ffc	0.0050201397
23	0x3daa5a0c	0.08317956
24	0xbdea4482	-0.11438848
25	0xbd4febe4	-0.050762072
26	0xbdfc23f4	-0.12311545
27	0xb92f2500	-0.00016703084
28	0xbde6cd49	-0.11269624
29	0xbdd11620	-0.10209298
30	0xbd9eb592	-0.077494755
31	0xbda1aac5	-0.078939
32	0x3defb500	0.11704445
33	0x3de64ea7	0.112454705
34	0x3d7d6e74	0.061872914
35	0x3d42e2da	0.047579624
36	0x3d8d6020	0.069031
37	0xbd8c5e83	-0.06853964
38	0xbc766710	-0.01503922
39	0x3dc38434	0.095467
40	0xbc6ff1e0	-0.01464507
41	0xbdfc20aa	-0.12310918
42	0x3dd824f6	0.10553925
43	0xbda72fd0	-0.081634164
44	0xbc3511d0	-0.01105161
45	0x3d3943c4	0.045230642
46	0x3c8efda8	0.017454937
47	0xbd215184	-0.03938438
48	0x3d8af1e2	0.06784417
49	0x3d131c87	0.035915878
50	0xbdd14a0c	-0.102192014
51	0x3ccae1c8	0.024765864
52	0xbc93e000	-0.018051147
53	0x3c8f4740	0.01749003
54	0x3a8d9a00	0.0010803342
55	0x3dd9ed13	0.106409214
56	0x3d6360f8	0.0555124
57	0x3d0e54ea	0.03474895
58	0x3db0a7ea	0.08625777
59	0x3c830c18	0.015996978
60	0x3dc58d0c	0.09646043
61	0x3dce4e69	0.10073549
62	0xbda61960	-0.08110309
63	0xbce1d858	-0.027568981
64	0x3d22667c	0.039648518
65	0x3d98e33d	0.07465217
66	0x3dc47d49	0.09594209
67	0xbbf3f3d5	-0.0074448385
68	0xbdfb64bc	-0.12275073
69	0x3dc64b01	0.096822746
70	0x3d6db9c0	0.058038473
71	0x3d4f7488	0.050648242
72	0x3c6757ba	0.014120037
73	0xbbec333e	-0.007208257
74	0xbdc04bc8	-0.09389454
75	0x3c0c8350	0.008576229
76	0xbdea4454	-0.11438814
77	0x3dbbacb8	0.09163803
78	0xbdd4e171	-0.10394562
79	0x3c94b2ac	0.018151604
80	0xbc8cf4d1	-0.017206581
81	0xbd842678	-0.0645265
82	0xbc0aa1d0	-0.008461431
83	0x3ca85738	0.020549402
84	0x3ce1d0c0	0.02756536
85	0x3ddbdfe8	0.10736066
86	0xbdad63e8	-0.08466321
87	0x3dabfe84	0.083981544
88	0x3aeacf00	0.0017914474
89	0xbd2b5530	-0.041829288
90	0xbd030120	-0.031983495
91	0x3dca9f91	0.09893716
92	0x3cc6a1d4	0.024247088
93	0x3d805c8e	0.062676534
94	0x3bd79cc0	0.0065799654
95	0x3c7788fb	0.015108342
96	0x3b52818a	0.0032120668
97	0xbd009f6f	-0.031402048
98	0xbdab7100	-0.083711624
99	0x3d305ac9	0.04305533
100	0x3d804a58	0.0626418
101	0xbb3a30bc	-0.0028410396
102	0xbdde401c	-0.10852072
103	0x3d298e30	0.041395366
104	0xbde62dc0	-0.11239195
105	0x3de2db7e	0.11077021
106	0x3db40d24	0.08791569
107	0x3d660f1c	0.056166753
108	0x3d6085dc	0.05481516
109	0x3d86b358	0.06577176
110	0x3d838664	0.06422117
111	0x3de5016c	0.11181912
112	0xbdf72f10	-0.12069523
113	0xbc7b2de6	-0.015330767
114	0xbd4843b8	-0.048892707
115	0x3d8294ce	0.063760385
116	0x3da9763e	0.08274506
117	0x3c8c8a48	0.017155781
118	0xbde0a05a	-0.10968085
119	0xbd458fd9	-0.048232887
120	0x3d33bfd5	0.043884117
121	0x3ca9cce3	0.02072758
122	0xbdcd5cf6	-0.100274965
123	0xbbe7a0e0	-0.0070687383
124	0xbd81ba88	-0.06334406
125	0xb995c1f4	-0.00028564
126	0xbc77fb70	-0.015135631
127	0xbd711134	-0.058854297
128	0x3d1c311c	0.03813277
129	0x3d7dd6e3	0.06197251
130	0x3d17c8af	0.03705662
131	0x3da744c7	0.08167415
132	0x3cb69140	0.022286057
133	0xbd34202c	-0.043975994
134	0xbde245de	-0.11048482
135	0x3da1a9a0	0.078936815
136	0xbc947596	-0.018122476
137	0xbd26a725	-0.040686745
138	0x3be47b00	0.0069726706
139	0x3cfbfb40	0.030759454
140	0x3d8edd82	0.06975843
141	0x3d91b5c0	0.07114744
142	0x3db8500b	0.08999642
143	0x3a08f99d	0.00052251836
144	0xbdf2d55e	-0.11857103
145	0xbc9fcb68	-0.019506171
146	0xbdc24520	-0.09485841
147	0xbdd15f82	-0.10223295
148	0xbdfdaf7a	-0.12386985
149	0x3ccc65e0	0.024950922
150	0xbc1f7554	-0.009732563
151	0xbd17c414	-0.03705223
152	0x3cca7280	0.024712801
153	0x3ddac132	0.1068138
154	0x3da49e56	0.08038013
155	0x3d23463a	0.039861895
156	0x3e032692	0.12807682
157	0x3dd10c08	0.10207373
158	0x3d510d3c	0.051038012
159	0x3c81a292	0.01582459
160	0x3d9dca94	0.07704654
161	0x3ddab50a	0.10679062
162	0x3d58428c	0.05279784
163	0xbd4b507b	-0.0496373
164	0x3d6cc818	0.05780801
165	0x3dda17da	0.106490806
166	0xbb1ec280	-0.0024224818
167	0x3d9d9e14	0.07696167
168	0xbce40fd5	-0.02783958
169	0x3c953730	0.018214792
170	0xbcdd6ce0	-0.027029455
171	0x3c0d3310	0.008618131
172	0xbdc97d52	-0.09838356
173	0x3dba1204	0.090854675
174	0x3d8f6c06	0.07003026
175	0x3de2b234	0.11069146
176	0x3df719bc	0.12065455
177	0xbdb0fbbe	-0.08641766
178	0x3df4e684	0.1195803
179	0xbc9c6da0	-0.019095242
180	0xbdf84c4a	-0.12123926
181	0xbdcc8d5e	-0.09987901
182	0xbda94a00	-0.082660675
183	0xbd1d51be	-0.038408034
184	0x3d760f4f	0.060073193
185	0x3dfa2ed3	0.12215962
186	0x3dbd4f74	0.0924367
187	0x3de4112a	0.11136086
188	0x3cbe3388	0.023217931
189	0x3c71c9cc	0.014757585
190	0x3dc34cb8	0.09536117
191	0xbd9db876	-0.07701199
192	0x3dfb5364	0.12271765
193	0x3ddf1915	0.10893456
194	0xbd32adba	-0.04362271
195	0xbdb5beb5	-0.08874265
196	0xbc8bae90	-0.017051011
197	0xbd095283	-0.033525955
198	0xbd3ae484	-0.045628086
199	0x3d6b5d4c	0.05746202
200	0x3dd22adb	0.1026208
201	0xbdb458f9	-0.08806033
202	0xbc1f2180	-0.009712577
203	0xbd4a0e0c	-0.049329802
204	0x3d6ddc34	0.05807133
205	0x3bdaa643	0.006672652
206	0xbd0efb59	-0.034907673
207	0xbc8eb8d9	-0.017422127
208	0x3d9cb962	0.076525465
209	0x3da53c1e	0.08068107
210	0x3cd9b0b0	0.026573509
211	0x3dbefefe	0.0932598
212	0xbdc6b1e6	-0.097019
213	0xbd9b9cea	-0.07598288
214	0x3d1588f5	0.036507566
215	0x3dcf82ac	0.101323456
216	0xbbe67f80	-0.007034242
217	0xbce14ca8	-0.027502373
218	0xbd45ef4c	-0.048323914
219	0xbe04198d	-0.12900372
220	0xbaf31f90	-0.0018548835
221	0xbc2a5e70	-0.010398492
222	0x3c1a65f0	0.009423718
223	0xbd2f1de8	-0.04275313
224	0xbd933c34	-0.07189217
225	0x3d0b2b7a	0.03397701
226	0xbcdbda58	-0.026837513
227	0xbd2c2467	-0.042026903
228	0x3c457af0	0.012053236
229	0x3d235eb7	0.03988525
230	0x3db17652	0.08665146
231	0x3d254568	0.040349394
232	0x3ddbbe95	0.1072971
233	0x3c25cca0	0.010119587
234	0xbd0ac118	-0.033875555
235	0xbd3b9e3c	-0.0458052
236	0xbd523b7c	-0.05132626
237	0x3dc20b60	0.09474826
238	0xbde8bde0	-0.11364341
239	0x3d309370	0.043109357
240	0x3bd5c100	0.0065232515
241	0x3cc20ea6	0.023688626
242	0xbb9e2400	-0.004826069
243	0x3bd6c180	0.0065538287
244	0xbd134024	-0.03594984
245	0xbde080dc	-0.10962078
246	0xbd342194	-0.043977335
247	0xbd514385	-0.051089782
248	0x3d55e0b9	0.052216265
249	0xbdb57cb7	-0.08861678
250	0xbdb10066	-0.08642654
251	0xbc553e00	-0.01301527
252	0x3d8da61a	0.06916447
253	0x3d625268	0.05525437
254	0x3cbf6018	0.02336125
255	0xbda93a24	-0.082630426

fc2.bias f4 [64]
0	0xbd92af9c	-0.07162401
1	0xbbea930c	-0.0071586426
2	0x3d39a31b	0.045321565
3	0xbd4ad744	-0.0495217
4	0x3dbc8f77	0.09207051
5	0x3d3624c0	0.04446864
6	0x3dd75c64	0.10515669
7	0x3dbc345e	0.09189676
8	0xbdcafb98	-0.09911269
9	0x3dcfd30c	0.10147676
10	0xbdcb7ad3	-0.09935536
11	0x3db92b40	0.090414524
12	0x3d3e7582	0.046498783
13	0x3da3c106	0.07995801
14	0x3db57fa8	0.08862239
15	0x3d14512a	0.036210217
16	0xbd8af76e	-0.06785475
17	0xbd4f7dd6	-0.050657116
18	0x3d9b2e8a	0.07577236
19	0x3d472d54	0.048627213
20	0xbe0378c9	-0.12839045
21	0x3d400f24	0.04688944
22	0x3b833500	0.004004121
23	0x3d86013c	0.06543204
24	0x3deb035d	0.11475251
25	0xbdde78b4	-0.10862866
26	0xbda7277c	-0.08161828
27	0xbcedfcad	-0.02905115
28	0xbdf39636	-0.11893885
29	0xbddfa770	-0.10920608
30	0x3d95ee68	0.07320863
31	0xbc518940	-0.012789071
32	0xbda8410e	-0.08215533
33	0xbd782c58	-0.060589164
34	0xbdc54cfa	-0.09633823
35	0xbd0e17e0	-0.034690738
36	0xbddcbaca	-0.10777815
37	0x3b1a7a48	0.002357142
38	0xbd67641c	-0.056491956
39	0xbb8d28c0	-0.0043078363
40	0xbdcec37b	-0.10095879
41	0x3dc234ca	0.09482725
42	0x3ca7f1f8	0.020501122
43	0x3ddbe266	0.107365415
44	0x3dc2918a	0.095004156
45	0x3da69e52	0.08135666
46	0xbd59dbfa	-0.0531883
47	0x3b9c32f3	0.004766816
48	0xbdb9cf6a	-0.09072764
49	0x3bf36835	0.007428194
50	0x3dd86e78	0.10567945
51	0x3de3dba7	0.1112588
52	0xbcde4779	-0.02713369
53	0x3dd7f4e5	0.10544757
54	0xbd9c2ca2	-0.076257005
55	0xbdc3b512	-0.09556021
56	0x3da3eb16	0.080038235
57	0x3c58b710	0.013227239
58	0xbc0f71b8	-0.00875514
59	0xbc48d910	-0.012258783
60	0xbdf5a8d4	-0.11995092
61	0xbdbbae75	-0.091641344
62	0xbcc3e20f	-0.023911504
63	0x3d30b728	0.04314342

fc3.weight f4 [1, 64]
0	0xbd1977e0	-0.037467837
1	0x3dd15b62	0.10222508
2	0x3d58680a	0.052833594
3	0xbda61278	-0.081089914
4	0x3d9d11c6	0.07669406
5	0xbda74ad2	-0.08168568
6	0x3d2db9e7	0.04241362
7	0xbd7c8488	-0.06164983
8	0xbddc6908	-0.107622206
9	0xbdc34a2a	-0.0953563
10	0xbd3c4f01	-0.04597378
11	0xbd4ffafc	-0.050776467
12	0xbd9b3202	-0.075778976
13	0xbd00b9b4	-0.0314271
14	0x3c866020	0.016403258
15	0xbd19cb8e	-0.03754764
16	0x3d524e74	0.05134435
17	0xbd45bb45	-0.048274297
18	0xbc4ee0e0	-0.012626857
19	0xbd1fd890	-0.03902489
20	0xbda1a405	-0.07892612
21	0x3d866048	0.06561333
22	0x3de7cb44	0.11318067
23	0x3d157ecc	0.036497876
24	0xbc4ee105	-0.012626891
25	0x3cfb9d90	0.03071478
26	0x3de749e6	0.11293392
27	0x3cd89984	0.02644039
28	0xbdc4ce2a	-0.09609635
29	0x3d232848	0.039833337
30	0xbc30ca60	-0.010790437
31	0x3dea9d82	0.114558235
32	0x3c71fc30	0.014769599
33	0x3d6c5ef7	0.057707753
34	0x3db3567e	0.087567315
35	0xbc13c890	-0.009019986
36	0x3de99c96	0.114068195
37	0x3df16077	0.11785977
38	0x3d5ad404	0.05342485
39	0x3d331a04	0.043725982
40	0x3dbe0b7f	0.092795365
41	0x3de08156	0.10962169
42	0x3d6969b4	0.056985572
43	0x3dbc8856	0.092056915
44	0xbdbb03bd	-0.091315724
45	0xbda3868e	-0.07984649
46	0x3dbcbe8b	0.09216031
47	0xbcf81c21	-0.03028685
48	0xbd697dae	-0.057004623
49	0xbddbabbc	-0.10726115
50	0xb9bb6000	-0.00035738945
51	0x3d6f3552	0.05840046
52	0x3d2eaabc	0.042643294
53	0xbdf03ed4	-0.117307335
54	0xbdec6bba	-0.11543985
55	0x3c50aec7	0.012736983
56	0xbd8e8c62	-0.0696037
57	0x3d008e44	0.031385675
58	0xbde168fb	-0.110063516
59	0x3b607640	0.003425017
60	0xbc24ad20	-0.010051042
61	0x3d105ced	0.03524487
62	0x3dac1f4c	0.08404407
63	0xba3cc900	-0.0007201582
